// -----// IR Dump Before Inliner (inline) ('builtin.module' operation) //----- //
#loc = loc("2d9pt_tcstencil.py":18:0)
#loc59 = loc("/usr/local/lib/python3.8/dist-packages/triton/language/standard.py":35:0)
module {
  tt.func public @stencil_kernel(%arg0: !tt.ptr<f16> {tt.divisibility = 16 : i32} loc("2d9pt_tcstencil.py":18:0), %arg1: !tt.ptr<f16> {tt.divisibility = 16 : i32} loc("2d9pt_tcstencil.py":18:0), %arg2: i32 loc("2d9pt_tcstencil.py":18:0), %arg3: i32 loc("2d9pt_tcstencil.py":18:0), %arg4: !tt.ptr<f16> {tt.divisibility = 16 : i32} loc("2d9pt_tcstencil.py":18:0), %arg5: !tt.ptr<f16> {tt.divisibility = 16 : i32} loc("2d9pt_tcstencil.py":18:0), %arg6: i32 loc("2d9pt_tcstencil.py":18:0)) attributes {noinline = false} {
    %0 = tt.get_program_id x : i32 loc(#loc1)
    %c2_i32 = arith.constant 2 : i32 loc(#loc2)
    %1 = arith.muli %arg6, %c2_i32 : i32 loc(#loc2)
    %2 = arith.subi %arg2, %1 : i32 loc(#loc3)
    %3 = tt.call @cdiv__i32__1cconstexpr_28_(%2) : (i32) -> i32 loc(#loc4)
    %c2_i32_0 = arith.constant 2 : i32 loc(#loc5)
    %4 = arith.muli %arg6, %c2_i32_0 : i32 loc(#loc5)
    %5 = arith.subi %arg3, %4 : i32 loc(#loc6)
    %6 = tt.call @cdiv__i32__1cconstexpr_28_(%5) : (i32) -> i32 loc(#loc7)
    %7 = arith.divsi %0, %6 : i32 loc(#loc8)
    %8 = arith.remsi %0, %6 : i32 loc(#loc9)
    %9 = tt.make_range {end = 32 : i32, start = 0 : i32} : tensor<32xi32> loc(#loc10)
    %10 = tt.expand_dims %9 {axis = 1 : i32} : tensor<32xi32> -> tensor<32x1xi32> loc(#loc11)
    %c32_i32 = arith.constant 32 : i32 loc(#loc12)
    %cst = arith.constant dense<32> : tensor<32x1xi32> loc(#loc12)
    %11 = arith.muli %10, %cst : tensor<32x1xi32> loc(#loc12)
    %12 = tt.make_range {end = 32 : i32, start = 0 : i32} : tensor<32xi32> loc(#loc13)
    %13 = tt.expand_dims %12 {axis = 0 : i32} : tensor<32xi32> -> tensor<1x32xi32> loc(#loc14)
    %14 = tt.broadcast %11 : tensor<32x1xi32> -> tensor<32x32xi32> loc(#loc14)
    %15 = tt.broadcast %13 : tensor<1x32xi32> -> tensor<32x32xi32> loc(#loc14)
    %16 = arith.addi %14, %15 : tensor<32x32xi32> loc(#loc14)
    %17 = tt.splat %arg4 : !tt.ptr<f16> -> tensor<32x32x!tt.ptr<f16>> loc(#loc15)
    %18 = tt.addptr %17, %16 : tensor<32x32x!tt.ptr<f16>>, tensor<32x32xi32> loc(#loc15)
    %19 = tt.load %18 : tensor<32x32x!tt.ptr<f16>> loc(#loc16)
    %20 = tt.make_range {end = 32 : i32, start = 0 : i32} : tensor<32xi32> loc(#loc17)
    %21 = tt.expand_dims %20 {axis = 1 : i32} : tensor<32xi32> -> tensor<32x1xi32> loc(#loc18)
    %c32_i32_1 = arith.constant 32 : i32 loc(#loc19)
    %cst_2 = arith.constant dense<32> : tensor<32x1xi32> loc(#loc19)
    %22 = arith.muli %21, %cst_2 : tensor<32x1xi32> loc(#loc19)
    %23 = tt.make_range {end = 32 : i32, start = 0 : i32} : tensor<32xi32> loc(#loc20)
    %24 = tt.expand_dims %23 {axis = 0 : i32} : tensor<32xi32> -> tensor<1x32xi32> loc(#loc21)
    %25 = tt.broadcast %22 : tensor<32x1xi32> -> tensor<32x32xi32> loc(#loc21)
    %26 = tt.broadcast %24 : tensor<1x32xi32> -> tensor<32x32xi32> loc(#loc21)
    %27 = arith.addi %25, %26 : tensor<32x32xi32> loc(#loc21)
    %28 = tt.splat %arg5 : !tt.ptr<f16> -> tensor<32x32x!tt.ptr<f16>> loc(#loc22)
    %29 = tt.addptr %28, %27 : tensor<32x32x!tt.ptr<f16>>, tensor<32x32xi32> loc(#loc22)
    %30 = tt.load %29 : tensor<32x32x!tt.ptr<f16>> loc(#loc23)
    %c28_i32 = arith.constant 28 : i32 loc(#loc24)
    %31 = arith.muli %7, %c28_i32 : i32 loc(#loc24)
    %32 = tt.make_range {end = 32 : i32, start = 0 : i32} : tensor<32xi32> loc(#loc25)
    %33 = tt.splat %31 : i32 -> tensor<32xi32> loc(#loc26)
    %34 = arith.addi %33, %32 : tensor<32xi32> loc(#loc26)
    %c28_i32_3 = arith.constant 28 : i32 loc(#loc27)
    %35 = arith.muli %8, %c28_i32_3 : i32 loc(#loc27)
    %36 = tt.make_range {end = 32 : i32, start = 0 : i32} : tensor<32xi32> loc(#loc28)
    %37 = tt.splat %35 : i32 -> tensor<32xi32> loc(#loc29)
    %38 = arith.addi %37, %36 : tensor<32xi32> loc(#loc29)
    %39 = tt.expand_dims %34 {axis = 1 : i32} : tensor<32xi32> -> tensor<32x1xi32> loc(#loc30)
    %40 = tt.splat %arg3 : i32 -> tensor<32x1xi32> loc(#loc31)
    %41 = arith.muli %39, %40 : tensor<32x1xi32> loc(#loc31)
    %42 = tt.expand_dims %38 {axis = 0 : i32} : tensor<32xi32> -> tensor<1x32xi32> loc(#loc32)
    %43 = tt.broadcast %41 : tensor<32x1xi32> -> tensor<32x32xi32> loc(#loc32)
    %44 = tt.broadcast %42 : tensor<1x32xi32> -> tensor<32x32xi32> loc(#loc32)
    %45 = arith.addi %43, %44 : tensor<32x32xi32> loc(#loc32)
    %46 = tt.splat %arg0 : !tt.ptr<f16> -> tensor<32x32x!tt.ptr<f16>> loc(#loc33)
    %47 = tt.addptr %46, %45 : tensor<32x32x!tt.ptr<f16>>, tensor<32x32xi32> loc(#loc33)
    %48 = tt.load %47 : tensor<32x32x!tt.ptr<f16>> loc(#loc34)
    %49 = tt.call @"zeros____0cconstexpr_(constexpr_32_, constexpr_32_)__1cconstexpr_fp32_"() : () -> tensor<32x32xf32> loc(#loc35)
    %cst_4 = arith.constant 0.000000e+00 : f32 loc(#loc36)
    %50 = tt.dot %48, %19, %49, inputPrecision = tf32 : tensor<32x32xf16> * tensor<32x32xf16> -> tensor<32x32xf32> loc(#loc36)
    %cst_5 = arith.constant 0.000000e+00 : f32 loc(#loc37)
    %51 = tt.dot %30, %48, %50, inputPrecision = tf32 : tensor<32x32xf16> * tensor<32x32xf16> -> tensor<32x32xf32> loc(#loc37)
    %52 = tt.expand_dims %34 {axis = 1 : i32} : tensor<32xi32> -> tensor<32x1xi32> loc(#loc38)
    %53 = tt.splat %arg3 : i32 -> tensor<32x1xi32> loc(#loc39)
    %54 = arith.muli %52, %53 : tensor<32x1xi32> loc(#loc39)
    %55 = tt.expand_dims %38 {axis = 0 : i32} : tensor<32xi32> -> tensor<1x32xi32> loc(#loc40)
    %56 = tt.broadcast %54 : tensor<32x1xi32> -> tensor<32x32xi32> loc(#loc40)
    %57 = tt.broadcast %55 : tensor<1x32xi32> -> tensor<32x32xi32> loc(#loc40)
    %58 = arith.addi %56, %57 : tensor<32x32xi32> loc(#loc40)
    %59 = tt.splat %arg1 : !tt.ptr<f16> -> tensor<32x32x!tt.ptr<f16>> loc(#loc41)
    %60 = tt.addptr %59, %58 : tensor<32x32x!tt.ptr<f16>>, tensor<32x32xi32> loc(#loc41)
    %61 = tt.make_range {end = 32 : i32, start = 0 : i32} : tensor<32xi32> loc(#loc42)
    %62 = tt.make_range {end = 32 : i32, start = 0 : i32} : tensor<32xi32> loc(#loc43)
    %63 = tt.splat %arg6 : i32 -> tensor<32xi32> loc(#loc44)
    %64 = arith.cmpi sge, %61, %63 : tensor<32xi32> loc(#loc44)
    %65 = tt.expand_dims %64 {axis = 1 : i32} : tensor<32xi1> -> tensor<32x1xi1> loc(#loc45)
    %c32_i32_6 = arith.constant 32 : i32 loc(#loc46)
    %66 = arith.subi %c32_i32_6, %arg6 : i32 loc(#loc46)
    %67 = tt.splat %66 : i32 -> tensor<32xi32> loc(#loc47)
    %68 = arith.cmpi slt, %61, %67 : tensor<32xi32> loc(#loc47)
    %69 = tt.expand_dims %68 {axis = 1 : i32} : tensor<32xi1> -> tensor<32x1xi1> loc(#loc48)
    %70 = arith.andi %65, %69 : tensor<32x1xi1> loc(#loc49)
    %71 = tt.splat %arg6 : i32 -> tensor<32xi32> loc(#loc50)
    %72 = arith.cmpi sge, %62, %71 : tensor<32xi32> loc(#loc50)
    %73 = tt.expand_dims %72 {axis = 0 : i32} : tensor<32xi1> -> tensor<1x32xi1> loc(#loc51)
    %74 = tt.broadcast %70 : tensor<32x1xi1> -> tensor<32x32xi1> loc(#loc52)
    %75 = tt.broadcast %73 : tensor<1x32xi1> -> tensor<32x32xi1> loc(#loc52)
    %76 = arith.andi %74, %75 : tensor<32x32xi1> loc(#loc52)
    %c32_i32_7 = arith.constant 32 : i32 loc(#loc53)
    %77 = arith.subi %c32_i32_7, %arg6 : i32 loc(#loc53)
    %78 = tt.splat %77 : i32 -> tensor<32xi32> loc(#loc54)
    %79 = arith.cmpi slt, %62, %78 : tensor<32xi32> loc(#loc54)
    %80 = tt.expand_dims %79 {axis = 0 : i32} : tensor<32xi1> -> tensor<1x32xi1> loc(#loc55)
    %81 = tt.broadcast %80 : tensor<1x32xi1> -> tensor<32x32xi1> loc(#loc56)
    %82 = arith.andi %76, %81 : tensor<32x32xi1> loc(#loc56)
    %83 = arith.truncf %51 : tensor<32x32xf32> to tensor<32x32xf16> loc(#loc57)
    tt.store %60, %83, %82 : tensor<32x32x!tt.ptr<f16>> loc(#loc57)
    tt.return loc(#loc58)
  } loc(#loc)
  tt.func private @cdiv__i32__1cconstexpr_28_(%arg0: i32 loc("/usr/local/lib/python3.8/dist-packages/triton/language/standard.py":35:0)) -> i32 attributes {noinline = false} {
    %c28_i32 = arith.constant 28 : i32 loc(#loc60)
    %0 = arith.addi %arg0, %c28_i32 : i32 loc(#loc60)
    %c1_i32 = arith.constant 1 : i32 loc(#loc61)
    %1 = arith.subi %0, %c1_i32 : i32 loc(#loc61)
    %c28_i32_0 = arith.constant 28 : i32 loc(#loc62)
    %2 = arith.divsi %1, %c28_i32_0 : i32 loc(#loc62)
    tt.return %2 : i32 loc(#loc63)
  } loc(#loc59)
  tt.func private @"zeros____0cconstexpr_(constexpr_32_, constexpr_32_)__1cconstexpr_fp32_"() -> tensor<32x32xf32> attributes {noinline = false} {
    %cst = arith.constant 0.000000e+00 : f32 loc(#loc65)
    %cst_0 = arith.constant dense<0.000000e+00> : tensor<32x32xf32> loc(#loc65)
    tt.return %cst_0 : tensor<32x32xf32> loc(#loc66)
  } loc(#loc64)
} loc(#loc)
#loc1 = loc("2d9pt_tcstencil.py":34:10)
#loc2 = loc("2d9pt_tcstencil.py":35:28)
#loc3 = loc("2d9pt_tcstencil.py":35:26)
#loc4 = loc("2d9pt_tcstencil.py":35:31)
#loc5 = loc("2d9pt_tcstencil.py":36:28)
#loc6 = loc("2d9pt_tcstencil.py":36:26)
#loc7 = loc("2d9pt_tcstencil.py":36:31)
#loc8 = loc("2d9pt_tcstencil.py":38:19)
#loc9 = loc("2d9pt_tcstencil.py":39:18)
#loc10 = loc("2d9pt_tcstencil.py":43:45)
#loc11 = loc("2d9pt_tcstencil.py":43:32)
#loc12 = loc("2d9pt_tcstencil.py":43:68)
#loc13 = loc("2d9pt_tcstencil.py":43:96)
#loc14 = loc("2d9pt_tcstencil.py":43:83)
#loc15 = loc("2d9pt_tcstencil.py":43:31)
#loc16 = loc("2d9pt_tcstencil.py":44:26)
#loc17 = loc("2d9pt_tcstencil.py":46:45)
#loc18 = loc("2d9pt_tcstencil.py":46:32)
#loc19 = loc("2d9pt_tcstencil.py":46:68)
#loc20 = loc("2d9pt_tcstencil.py":46:96)
#loc21 = loc("2d9pt_tcstencil.py":46:83)
#loc22 = loc("2d9pt_tcstencil.py":46:31)
#loc23 = loc("2d9pt_tcstencil.py":47:26)
#loc24 = loc("2d9pt_tcstencil.py":50:22)
#loc25 = loc("2d9pt_tcstencil.py":50:50)
#loc26 = loc("2d9pt_tcstencil.py":50:37)
#loc27 = loc("2d9pt_tcstencil.py":51:22)
#loc28 = loc("2d9pt_tcstencil.py":51:50)
#loc29 = loc("2d9pt_tcstencil.py":51:37)
#loc30 = loc("2d9pt_tcstencil.py":52:19)
#loc31 = loc("2d9pt_tcstencil.py":52:36)
#loc32 = loc("2d9pt_tcstencil.py":52:40)
#loc33 = loc("2d9pt_tcstencil.py":52:18)
#loc34 = loc("2d9pt_tcstencil.py":53:21)
#loc35 = loc("2d9pt_tcstencil.py":56:27)
#loc36 = loc("2d9pt_tcstencil.py":57:46)
#loc37 = loc("2d9pt_tcstencil.py":58:46)
#loc38 = loc("2d9pt_tcstencil.py":60:19)
#loc39 = loc("2d9pt_tcstencil.py":60:36)
#loc40 = loc("2d9pt_tcstencil.py":60:40)
#loc41 = loc("2d9pt_tcstencil.py":60:18)
#loc42 = loc("2d9pt_tcstencil.py":61:24)
#loc43 = loc("2d9pt_tcstencil.py":62:24)
#loc44 = loc("2d9pt_tcstencil.py":64:48)
#loc45 = loc("2d9pt_tcstencil.py":64:42)
#loc46 = loc("2d9pt_tcstencil.py":64:81)
#loc47 = loc("2d9pt_tcstencil.py":64:68)
#loc48 = loc("2d9pt_tcstencil.py":64:62)
#loc49 = loc("2d9pt_tcstencil.py":64:61)
#loc50 = loc("2d9pt_tcstencil.py":64:102)
#loc51 = loc("2d9pt_tcstencil.py":64:96)
#loc52 = loc("2d9pt_tcstencil.py":64:95)
#loc53 = loc("2d9pt_tcstencil.py":64:135)
#loc54 = loc("2d9pt_tcstencil.py":64:122)
#loc55 = loc("2d9pt_tcstencil.py":64:116)
#loc56 = loc("2d9pt_tcstencil.py":64:115)
#loc57 = loc("2d9pt_tcstencil.py":64:21)
#loc58 = loc("2d9pt_tcstencil.py":64:4)
#loc60 = loc("/usr/local/lib/python3.8/dist-packages/triton/language/standard.py":44:16)
#loc61 = loc("/usr/local/lib/python3.8/dist-packages/triton/language/standard.py":44:22)
#loc62 = loc("/usr/local/lib/python3.8/dist-packages/triton/language/standard.py":44:28)
#loc63 = loc("/usr/local/lib/python3.8/dist-packages/triton/language/standard.py":44:11)
#loc64 = loc("/usr/local/lib/python3.8/dist-packages/triton/language/standard.py":116:0)
#loc65 = loc("/usr/local/lib/python3.8/dist-packages/triton/language/standard.py":125:31)
#loc66 = loc("/usr/local/lib/python3.8/dist-packages/triton/language/standard.py":125:11)


// -----// IR Dump Before Canonicalizer (canonicalize) ('tt.func' operation: @cdiv__i32__1cconstexpr_28_) //----- //
#loc = loc("2d9pt_tcstencil.py":18:0)
#loc59 = loc("/usr/local/lib/python3.8/dist-packages/triton/language/standard.py":35:0)
module {
  tt.func public @stencil_kernel(%arg0: !tt.ptr<f16> {tt.divisibility = 16 : i32} loc("2d9pt_tcstencil.py":18:0), %arg1: !tt.ptr<f16> {tt.divisibility = 16 : i32} loc("2d9pt_tcstencil.py":18:0), %arg2: i32 loc("2d9pt_tcstencil.py":18:0), %arg3: i32 loc("2d9pt_tcstencil.py":18:0), %arg4: !tt.ptr<f16> {tt.divisibility = 16 : i32} loc("2d9pt_tcstencil.py":18:0), %arg5: !tt.ptr<f16> {tt.divisibility = 16 : i32} loc("2d9pt_tcstencil.py":18:0), %arg6: i32 loc("2d9pt_tcstencil.py":18:0)) attributes {noinline = false} {
    %0 = tt.get_program_id x : i32 loc(#loc1)
    %c2_i32 = arith.constant 2 : i32 loc(#loc2)
    %1 = arith.muli %arg6, %c2_i32 : i32 loc(#loc2)
    %2 = arith.subi %arg2, %1 : i32 loc(#loc3)
    %3 = tt.call @cdiv__i32__1cconstexpr_28_(%2) : (i32) -> i32 loc(#loc4)
    %c2_i32_0 = arith.constant 2 : i32 loc(#loc5)
    %4 = arith.muli %arg6, %c2_i32_0 : i32 loc(#loc5)
    %5 = arith.subi %arg3, %4 : i32 loc(#loc6)
    %6 = tt.call @cdiv__i32__1cconstexpr_28_(%5) : (i32) -> i32 loc(#loc7)
    %7 = arith.divsi %0, %6 : i32 loc(#loc8)
    %8 = arith.remsi %0, %6 : i32 loc(#loc9)
    %9 = tt.make_range {end = 32 : i32, start = 0 : i32} : tensor<32xi32> loc(#loc10)
    %10 = tt.expand_dims %9 {axis = 1 : i32} : tensor<32xi32> -> tensor<32x1xi32> loc(#loc11)
    %c32_i32 = arith.constant 32 : i32 loc(#loc12)
    %cst = arith.constant dense<32> : tensor<32x1xi32> loc(#loc12)
    %11 = arith.muli %10, %cst : tensor<32x1xi32> loc(#loc12)
    %12 = tt.make_range {end = 32 : i32, start = 0 : i32} : tensor<32xi32> loc(#loc13)
    %13 = tt.expand_dims %12 {axis = 0 : i32} : tensor<32xi32> -> tensor<1x32xi32> loc(#loc14)
    %14 = tt.broadcast %11 : tensor<32x1xi32> -> tensor<32x32xi32> loc(#loc14)
    %15 = tt.broadcast %13 : tensor<1x32xi32> -> tensor<32x32xi32> loc(#loc14)
    %16 = arith.addi %14, %15 : tensor<32x32xi32> loc(#loc14)
    %17 = tt.splat %arg4 : !tt.ptr<f16> -> tensor<32x32x!tt.ptr<f16>> loc(#loc15)
    %18 = tt.addptr %17, %16 : tensor<32x32x!tt.ptr<f16>>, tensor<32x32xi32> loc(#loc15)
    %19 = tt.load %18 : tensor<32x32x!tt.ptr<f16>> loc(#loc16)
    %20 = tt.make_range {end = 32 : i32, start = 0 : i32} : tensor<32xi32> loc(#loc17)
    %21 = tt.expand_dims %20 {axis = 1 : i32} : tensor<32xi32> -> tensor<32x1xi32> loc(#loc18)
    %c32_i32_1 = arith.constant 32 : i32 loc(#loc19)
    %cst_2 = arith.constant dense<32> : tensor<32x1xi32> loc(#loc19)
    %22 = arith.muli %21, %cst_2 : tensor<32x1xi32> loc(#loc19)
    %23 = tt.make_range {end = 32 : i32, start = 0 : i32} : tensor<32xi32> loc(#loc20)
    %24 = tt.expand_dims %23 {axis = 0 : i32} : tensor<32xi32> -> tensor<1x32xi32> loc(#loc21)
    %25 = tt.broadcast %22 : tensor<32x1xi32> -> tensor<32x32xi32> loc(#loc21)
    %26 = tt.broadcast %24 : tensor<1x32xi32> -> tensor<32x32xi32> loc(#loc21)
    %27 = arith.addi %25, %26 : tensor<32x32xi32> loc(#loc21)
    %28 = tt.splat %arg5 : !tt.ptr<f16> -> tensor<32x32x!tt.ptr<f16>> loc(#loc22)
    %29 = tt.addptr %28, %27 : tensor<32x32x!tt.ptr<f16>>, tensor<32x32xi32> loc(#loc22)
    %30 = tt.load %29 : tensor<32x32x!tt.ptr<f16>> loc(#loc23)
    %c28_i32 = arith.constant 28 : i32 loc(#loc24)
    %31 = arith.muli %7, %c28_i32 : i32 loc(#loc24)
    %32 = tt.make_range {end = 32 : i32, start = 0 : i32} : tensor<32xi32> loc(#loc25)
    %33 = tt.splat %31 : i32 -> tensor<32xi32> loc(#loc26)
    %34 = arith.addi %33, %32 : tensor<32xi32> loc(#loc26)
    %c28_i32_3 = arith.constant 28 : i32 loc(#loc27)
    %35 = arith.muli %8, %c28_i32_3 : i32 loc(#loc27)
    %36 = tt.make_range {end = 32 : i32, start = 0 : i32} : tensor<32xi32> loc(#loc28)
    %37 = tt.splat %35 : i32 -> tensor<32xi32> loc(#loc29)
    %38 = arith.addi %37, %36 : tensor<32xi32> loc(#loc29)
    %39 = tt.expand_dims %34 {axis = 1 : i32} : tensor<32xi32> -> tensor<32x1xi32> loc(#loc30)
    %40 = tt.splat %arg3 : i32 -> tensor<32x1xi32> loc(#loc31)
    %41 = arith.muli %39, %40 : tensor<32x1xi32> loc(#loc31)
    %42 = tt.expand_dims %38 {axis = 0 : i32} : tensor<32xi32> -> tensor<1x32xi32> loc(#loc32)
    %43 = tt.broadcast %41 : tensor<32x1xi32> -> tensor<32x32xi32> loc(#loc32)
    %44 = tt.broadcast %42 : tensor<1x32xi32> -> tensor<32x32xi32> loc(#loc32)
    %45 = arith.addi %43, %44 : tensor<32x32xi32> loc(#loc32)
    %46 = tt.splat %arg0 : !tt.ptr<f16> -> tensor<32x32x!tt.ptr<f16>> loc(#loc33)
    %47 = tt.addptr %46, %45 : tensor<32x32x!tt.ptr<f16>>, tensor<32x32xi32> loc(#loc33)
    %48 = tt.load %47 : tensor<32x32x!tt.ptr<f16>> loc(#loc34)
    %49 = tt.call @"zeros____0cconstexpr_(constexpr_32_, constexpr_32_)__1cconstexpr_fp32_"() : () -> tensor<32x32xf32> loc(#loc35)
    %cst_4 = arith.constant 0.000000e+00 : f32 loc(#loc36)
    %50 = tt.dot %48, %19, %49, inputPrecision = tf32 : tensor<32x32xf16> * tensor<32x32xf16> -> tensor<32x32xf32> loc(#loc36)
    %cst_5 = arith.constant 0.000000e+00 : f32 loc(#loc37)
    %51 = tt.dot %30, %48, %50, inputPrecision = tf32 : tensor<32x32xf16> * tensor<32x32xf16> -> tensor<32x32xf32> loc(#loc37)
    %52 = tt.expand_dims %34 {axis = 1 : i32} : tensor<32xi32> -> tensor<32x1xi32> loc(#loc38)
    %53 = tt.splat %arg3 : i32 -> tensor<32x1xi32> loc(#loc39)
    %54 = arith.muli %52, %53 : tensor<32x1xi32> loc(#loc39)
    %55 = tt.expand_dims %38 {axis = 0 : i32} : tensor<32xi32> -> tensor<1x32xi32> loc(#loc40)
    %56 = tt.broadcast %54 : tensor<32x1xi32> -> tensor<32x32xi32> loc(#loc40)
    %57 = tt.broadcast %55 : tensor<1x32xi32> -> tensor<32x32xi32> loc(#loc40)
    %58 = arith.addi %56, %57 : tensor<32x32xi32> loc(#loc40)
    %59 = tt.splat %arg1 : !tt.ptr<f16> -> tensor<32x32x!tt.ptr<f16>> loc(#loc41)
    %60 = tt.addptr %59, %58 : tensor<32x32x!tt.ptr<f16>>, tensor<32x32xi32> loc(#loc41)
    %61 = tt.make_range {end = 32 : i32, start = 0 : i32} : tensor<32xi32> loc(#loc42)
    %62 = tt.make_range {end = 32 : i32, start = 0 : i32} : tensor<32xi32> loc(#loc43)
    %63 = tt.splat %arg6 : i32 -> tensor<32xi32> loc(#loc44)
    %64 = arith.cmpi sge, %61, %63 : tensor<32xi32> loc(#loc44)
    %65 = tt.expand_dims %64 {axis = 1 : i32} : tensor<32xi1> -> tensor<32x1xi1> loc(#loc45)
    %c32_i32_6 = arith.constant 32 : i32 loc(#loc46)
    %66 = arith.subi %c32_i32_6, %arg6 : i32 loc(#loc46)
    %67 = tt.splat %66 : i32 -> tensor<32xi32> loc(#loc47)
    %68 = arith.cmpi slt, %61, %67 : tensor<32xi32> loc(#loc47)
    %69 = tt.expand_dims %68 {axis = 1 : i32} : tensor<32xi1> -> tensor<32x1xi1> loc(#loc48)
    %70 = arith.andi %65, %69 : tensor<32x1xi1> loc(#loc49)
    %71 = tt.splat %arg6 : i32 -> tensor<32xi32> loc(#loc50)
    %72 = arith.cmpi sge, %62, %71 : tensor<32xi32> loc(#loc50)
    %73 = tt.expand_dims %72 {axis = 0 : i32} : tensor<32xi1> -> tensor<1x32xi1> loc(#loc51)
    %74 = tt.broadcast %70 : tensor<32x1xi1> -> tensor<32x32xi1> loc(#loc52)
    %75 = tt.broadcast %73 : tensor<1x32xi1> -> tensor<32x32xi1> loc(#loc52)
    %76 = arith.andi %74, %75 : tensor<32x32xi1> loc(#loc52)
    %c32_i32_7 = arith.constant 32 : i32 loc(#loc53)
    %77 = arith.subi %c32_i32_7, %arg6 : i32 loc(#loc53)
    %78 = tt.splat %77 : i32 -> tensor<32xi32> loc(#loc54)
    %79 = arith.cmpi slt, %62, %78 : tensor<32xi32> loc(#loc54)
    %80 = tt.expand_dims %79 {axis = 0 : i32} : tensor<32xi1> -> tensor<1x32xi1> loc(#loc55)
    %81 = tt.broadcast %80 : tensor<1x32xi1> -> tensor<32x32xi1> loc(#loc56)
    %82 = arith.andi %76, %81 : tensor<32x32xi1> loc(#loc56)
    %83 = arith.truncf %51 : tensor<32x32xf32> to tensor<32x32xf16> loc(#loc57)
    tt.store %60, %83, %82 : tensor<32x32x!tt.ptr<f16>> loc(#loc57)
    tt.return loc(#loc58)
  } loc(#loc)
  tt.func private @cdiv__i32__1cconstexpr_28_(%arg0: i32 loc("/usr/local/lib/python3.8/dist-packages/triton/language/standard.py":35:0)) -> i32 attributes {noinline = false} {
    %c28_i32 = arith.constant 28 : i32 loc(#loc60)
    %0 = arith.addi %arg0, %c28_i32 : i32 loc(#loc60)
    %c1_i32 = arith.constant 1 : i32 loc(#loc61)
    %1 = arith.subi %0, %c1_i32 : i32 loc(#loc61)
    %c28_i32_0 = arith.constant 28 : i32 loc(#loc62)
    %2 = arith.divsi %1, %c28_i32_0 : i32 loc(#loc62)
    tt.return %2 : i32 loc(#loc63)
  } loc(#loc59)
  tt.func private @"zeros____0cconstexpr_(constexpr_32_, constexpr_32_)__1cconstexpr_fp32_"() -> tensor<32x32xf32> attributes {noinline = false} {
    %cst = arith.constant 0.000000e+00 : f32 loc(#loc65)
    %cst_0 = arith.constant dense<0.000000e+00> : tensor<32x32xf32> loc(#loc65)
    tt.return %cst_0 : tensor<32x32xf32> loc(#loc66)
  } loc(#loc64)
} loc(#loc)
#loc1 = loc("2d9pt_tcstencil.py":34:10)
#loc2 = loc("2d9pt_tcstencil.py":35:28)
#loc3 = loc("2d9pt_tcstencil.py":35:26)
#loc4 = loc("2d9pt_tcstencil.py":35:31)
#loc5 = loc("2d9pt_tcstencil.py":36:28)
#loc6 = loc("2d9pt_tcstencil.py":36:26)
#loc7 = loc("2d9pt_tcstencil.py":36:31)
#loc8 = loc("2d9pt_tcstencil.py":38:19)
#loc9 = loc("2d9pt_tcstencil.py":39:18)
#loc10 = loc("2d9pt_tcstencil.py":43:45)
#loc11 = loc("2d9pt_tcstencil.py":43:32)
#loc12 = loc("2d9pt_tcstencil.py":43:68)
#loc13 = loc("2d9pt_tcstencil.py":43:96)
#loc14 = loc("2d9pt_tcstencil.py":43:83)
#loc15 = loc("2d9pt_tcstencil.py":43:31)
#loc16 = loc("2d9pt_tcstencil.py":44:26)
#loc17 = loc("2d9pt_tcstencil.py":46:45)
#loc18 = loc("2d9pt_tcstencil.py":46:32)
#loc19 = loc("2d9pt_tcstencil.py":46:68)
#loc20 = loc("2d9pt_tcstencil.py":46:96)
#loc21 = loc("2d9pt_tcstencil.py":46:83)
#loc22 = loc("2d9pt_tcstencil.py":46:31)
#loc23 = loc("2d9pt_tcstencil.py":47:26)
#loc24 = loc("2d9pt_tcstencil.py":50:22)
#loc25 = loc("2d9pt_tcstencil.py":50:50)
#loc26 = loc("2d9pt_tcstencil.py":50:37)
#loc27 = loc("2d9pt_tcstencil.py":51:22)
#loc28 = loc("2d9pt_tcstencil.py":51:50)
#loc29 = loc("2d9pt_tcstencil.py":51:37)
#loc30 = loc("2d9pt_tcstencil.py":52:19)
#loc31 = loc("2d9pt_tcstencil.py":52:36)
#loc32 = loc("2d9pt_tcstencil.py":52:40)
#loc33 = loc("2d9pt_tcstencil.py":52:18)
#loc34 = loc("2d9pt_tcstencil.py":53:21)
#loc35 = loc("2d9pt_tcstencil.py":56:27)
#loc36 = loc("2d9pt_tcstencil.py":57:46)
#loc37 = loc("2d9pt_tcstencil.py":58:46)
#loc38 = loc("2d9pt_tcstencil.py":60:19)
#loc39 = loc("2d9pt_tcstencil.py":60:36)
#loc40 = loc("2d9pt_tcstencil.py":60:40)
#loc41 = loc("2d9pt_tcstencil.py":60:18)
#loc42 = loc("2d9pt_tcstencil.py":61:24)
#loc43 = loc("2d9pt_tcstencil.py":62:24)
#loc44 = loc("2d9pt_tcstencil.py":64:48)
#loc45 = loc("2d9pt_tcstencil.py":64:42)
#loc46 = loc("2d9pt_tcstencil.py":64:81)
#loc47 = loc("2d9pt_tcstencil.py":64:68)
#loc48 = loc("2d9pt_tcstencil.py":64:62)
#loc49 = loc("2d9pt_tcstencil.py":64:61)
#loc50 = loc("2d9pt_tcstencil.py":64:102)
#loc51 = loc("2d9pt_tcstencil.py":64:96)
#loc52 = loc("2d9pt_tcstencil.py":64:95)
#loc53 = loc("2d9pt_tcstencil.py":64:135)
#loc54 = loc("2d9pt_tcstencil.py":64:122)
#loc55 = loc("2d9pt_tcstencil.py":64:116)
#loc56 = loc("2d9pt_tcstencil.py":64:115)
#loc57 = loc("2d9pt_tcstencil.py":64:21)
#loc58 = loc("2d9pt_tcstencil.py":64:4)
#loc60 = loc("/usr/local/lib/python3.8/dist-packages/triton/language/standard.py":44:16)
#loc61 = loc("/usr/local/lib/python3.8/dist-packages/triton/language/standard.py":44:22)
#loc62 = loc("/usr/local/lib/python3.8/dist-packages/triton/language/standard.py":44:28)
#loc63 = loc("/usr/local/lib/python3.8/dist-packages/triton/language/standard.py":44:11)
#loc64 = loc("/usr/local/lib/python3.8/dist-packages/triton/language/standard.py":116:0)
#loc65 = loc("/usr/local/lib/python3.8/dist-packages/triton/language/standard.py":125:31)
#loc66 = loc("/usr/local/lib/python3.8/dist-packages/triton/language/standard.py":125:11)


// -----// IR Dump Before Canonicalizer (canonicalize) ('tt.func' operation: @zeros____0cconstexpr_(constexpr_32_, constexpr_32_)__1cconstexpr_fp32_) //----- //
#loc = loc("2d9pt_tcstencil.py":18:0)
#loc59 = loc("/usr/local/lib/python3.8/dist-packages/triton/language/standard.py":35:0)
module {
  tt.func public @stencil_kernel(%arg0: !tt.ptr<f16> {tt.divisibility = 16 : i32} loc("2d9pt_tcstencil.py":18:0), %arg1: !tt.ptr<f16> {tt.divisibility = 16 : i32} loc("2d9pt_tcstencil.py":18:0), %arg2: i32 loc("2d9pt_tcstencil.py":18:0), %arg3: i32 loc("2d9pt_tcstencil.py":18:0), %arg4: !tt.ptr<f16> {tt.divisibility = 16 : i32} loc("2d9pt_tcstencil.py":18:0), %arg5: !tt.ptr<f16> {tt.divisibility = 16 : i32} loc("2d9pt_tcstencil.py":18:0), %arg6: i32 loc("2d9pt_tcstencil.py":18:0)) attributes {noinline = false} {
    %0 = tt.get_program_id x : i32 loc(#loc1)
    %c2_i32 = arith.constant 2 : i32 loc(#loc2)
    %1 = arith.muli %arg6, %c2_i32 : i32 loc(#loc2)
    %2 = arith.subi %arg2, %1 : i32 loc(#loc3)
    %3 = tt.call @cdiv__i32__1cconstexpr_28_(%2) : (i32) -> i32 loc(#loc4)
    %c2_i32_0 = arith.constant 2 : i32 loc(#loc5)
    %4 = arith.muli %arg6, %c2_i32_0 : i32 loc(#loc5)
    %5 = arith.subi %arg3, %4 : i32 loc(#loc6)
    %6 = tt.call @cdiv__i32__1cconstexpr_28_(%5) : (i32) -> i32 loc(#loc7)
    %7 = arith.divsi %0, %6 : i32 loc(#loc8)
    %8 = arith.remsi %0, %6 : i32 loc(#loc9)
    %9 = tt.make_range {end = 32 : i32, start = 0 : i32} : tensor<32xi32> loc(#loc10)
    %10 = tt.expand_dims %9 {axis = 1 : i32} : tensor<32xi32> -> tensor<32x1xi32> loc(#loc11)
    %c32_i32 = arith.constant 32 : i32 loc(#loc12)
    %cst = arith.constant dense<32> : tensor<32x1xi32> loc(#loc12)
    %11 = arith.muli %10, %cst : tensor<32x1xi32> loc(#loc12)
    %12 = tt.make_range {end = 32 : i32, start = 0 : i32} : tensor<32xi32> loc(#loc13)
    %13 = tt.expand_dims %12 {axis = 0 : i32} : tensor<32xi32> -> tensor<1x32xi32> loc(#loc14)
    %14 = tt.broadcast %11 : tensor<32x1xi32> -> tensor<32x32xi32> loc(#loc14)
    %15 = tt.broadcast %13 : tensor<1x32xi32> -> tensor<32x32xi32> loc(#loc14)
    %16 = arith.addi %14, %15 : tensor<32x32xi32> loc(#loc14)
    %17 = tt.splat %arg4 : !tt.ptr<f16> -> tensor<32x32x!tt.ptr<f16>> loc(#loc15)
    %18 = tt.addptr %17, %16 : tensor<32x32x!tt.ptr<f16>>, tensor<32x32xi32> loc(#loc15)
    %19 = tt.load %18 : tensor<32x32x!tt.ptr<f16>> loc(#loc16)
    %20 = tt.make_range {end = 32 : i32, start = 0 : i32} : tensor<32xi32> loc(#loc17)
    %21 = tt.expand_dims %20 {axis = 1 : i32} : tensor<32xi32> -> tensor<32x1xi32> loc(#loc18)
    %c32_i32_1 = arith.constant 32 : i32 loc(#loc19)
    %cst_2 = arith.constant dense<32> : tensor<32x1xi32> loc(#loc19)
    %22 = arith.muli %21, %cst_2 : tensor<32x1xi32> loc(#loc19)
    %23 = tt.make_range {end = 32 : i32, start = 0 : i32} : tensor<32xi32> loc(#loc20)
    %24 = tt.expand_dims %23 {axis = 0 : i32} : tensor<32xi32> -> tensor<1x32xi32> loc(#loc21)
    %25 = tt.broadcast %22 : tensor<32x1xi32> -> tensor<32x32xi32> loc(#loc21)
    %26 = tt.broadcast %24 : tensor<1x32xi32> -> tensor<32x32xi32> loc(#loc21)
    %27 = arith.addi %25, %26 : tensor<32x32xi32> loc(#loc21)
    %28 = tt.splat %arg5 : !tt.ptr<f16> -> tensor<32x32x!tt.ptr<f16>> loc(#loc22)
    %29 = tt.addptr %28, %27 : tensor<32x32x!tt.ptr<f16>>, tensor<32x32xi32> loc(#loc22)
    %30 = tt.load %29 : tensor<32x32x!tt.ptr<f16>> loc(#loc23)
    %c28_i32 = arith.constant 28 : i32 loc(#loc24)
    %31 = arith.muli %7, %c28_i32 : i32 loc(#loc24)
    %32 = tt.make_range {end = 32 : i32, start = 0 : i32} : tensor<32xi32> loc(#loc25)
    %33 = tt.splat %31 : i32 -> tensor<32xi32> loc(#loc26)
    %34 = arith.addi %33, %32 : tensor<32xi32> loc(#loc26)
    %c28_i32_3 = arith.constant 28 : i32 loc(#loc27)
    %35 = arith.muli %8, %c28_i32_3 : i32 loc(#loc27)
    %36 = tt.make_range {end = 32 : i32, start = 0 : i32} : tensor<32xi32> loc(#loc28)
    %37 = tt.splat %35 : i32 -> tensor<32xi32> loc(#loc29)
    %38 = arith.addi %37, %36 : tensor<32xi32> loc(#loc29)
    %39 = tt.expand_dims %34 {axis = 1 : i32} : tensor<32xi32> -> tensor<32x1xi32> loc(#loc30)
    %40 = tt.splat %arg3 : i32 -> tensor<32x1xi32> loc(#loc31)
    %41 = arith.muli %39, %40 : tensor<32x1xi32> loc(#loc31)
    %42 = tt.expand_dims %38 {axis = 0 : i32} : tensor<32xi32> -> tensor<1x32xi32> loc(#loc32)
    %43 = tt.broadcast %41 : tensor<32x1xi32> -> tensor<32x32xi32> loc(#loc32)
    %44 = tt.broadcast %42 : tensor<1x32xi32> -> tensor<32x32xi32> loc(#loc32)
    %45 = arith.addi %43, %44 : tensor<32x32xi32> loc(#loc32)
    %46 = tt.splat %arg0 : !tt.ptr<f16> -> tensor<32x32x!tt.ptr<f16>> loc(#loc33)
    %47 = tt.addptr %46, %45 : tensor<32x32x!tt.ptr<f16>>, tensor<32x32xi32> loc(#loc33)
    %48 = tt.load %47 : tensor<32x32x!tt.ptr<f16>> loc(#loc34)
    %49 = tt.call @"zeros____0cconstexpr_(constexpr_32_, constexpr_32_)__1cconstexpr_fp32_"() : () -> tensor<32x32xf32> loc(#loc35)
    %cst_4 = arith.constant 0.000000e+00 : f32 loc(#loc36)
    %50 = tt.dot %48, %19, %49, inputPrecision = tf32 : tensor<32x32xf16> * tensor<32x32xf16> -> tensor<32x32xf32> loc(#loc36)
    %cst_5 = arith.constant 0.000000e+00 : f32 loc(#loc37)
    %51 = tt.dot %30, %48, %50, inputPrecision = tf32 : tensor<32x32xf16> * tensor<32x32xf16> -> tensor<32x32xf32> loc(#loc37)
    %52 = tt.expand_dims %34 {axis = 1 : i32} : tensor<32xi32> -> tensor<32x1xi32> loc(#loc38)
    %53 = tt.splat %arg3 : i32 -> tensor<32x1xi32> loc(#loc39)
    %54 = arith.muli %52, %53 : tensor<32x1xi32> loc(#loc39)
    %55 = tt.expand_dims %38 {axis = 0 : i32} : tensor<32xi32> -> tensor<1x32xi32> loc(#loc40)
    %56 = tt.broadcast %54 : tensor<32x1xi32> -> tensor<32x32xi32> loc(#loc40)
    %57 = tt.broadcast %55 : tensor<1x32xi32> -> tensor<32x32xi32> loc(#loc40)
    %58 = arith.addi %56, %57 : tensor<32x32xi32> loc(#loc40)
    %59 = tt.splat %arg1 : !tt.ptr<f16> -> tensor<32x32x!tt.ptr<f16>> loc(#loc41)
    %60 = tt.addptr %59, %58 : tensor<32x32x!tt.ptr<f16>>, tensor<32x32xi32> loc(#loc41)
    %61 = tt.make_range {end = 32 : i32, start = 0 : i32} : tensor<32xi32> loc(#loc42)
    %62 = tt.make_range {end = 32 : i32, start = 0 : i32} : tensor<32xi32> loc(#loc43)
    %63 = tt.splat %arg6 : i32 -> tensor<32xi32> loc(#loc44)
    %64 = arith.cmpi sge, %61, %63 : tensor<32xi32> loc(#loc44)
    %65 = tt.expand_dims %64 {axis = 1 : i32} : tensor<32xi1> -> tensor<32x1xi1> loc(#loc45)
    %c32_i32_6 = arith.constant 32 : i32 loc(#loc46)
    %66 = arith.subi %c32_i32_6, %arg6 : i32 loc(#loc46)
    %67 = tt.splat %66 : i32 -> tensor<32xi32> loc(#loc47)
    %68 = arith.cmpi slt, %61, %67 : tensor<32xi32> loc(#loc47)
    %69 = tt.expand_dims %68 {axis = 1 : i32} : tensor<32xi1> -> tensor<32x1xi1> loc(#loc48)
    %70 = arith.andi %65, %69 : tensor<32x1xi1> loc(#loc49)
    %71 = tt.splat %arg6 : i32 -> tensor<32xi32> loc(#loc50)
    %72 = arith.cmpi sge, %62, %71 : tensor<32xi32> loc(#loc50)
    %73 = tt.expand_dims %72 {axis = 0 : i32} : tensor<32xi1> -> tensor<1x32xi1> loc(#loc51)
    %74 = tt.broadcast %70 : tensor<32x1xi1> -> tensor<32x32xi1> loc(#loc52)
    %75 = tt.broadcast %73 : tensor<1x32xi1> -> tensor<32x32xi1> loc(#loc52)
    %76 = arith.andi %74, %75 : tensor<32x32xi1> loc(#loc52)
    %c32_i32_7 = arith.constant 32 : i32 loc(#loc53)
    %77 = arith.subi %c32_i32_7, %arg6 : i32 loc(#loc53)
    %78 = tt.splat %77 : i32 -> tensor<32xi32> loc(#loc54)
    %79 = arith.cmpi slt, %62, %78 : tensor<32xi32> loc(#loc54)
    %80 = tt.expand_dims %79 {axis = 0 : i32} : tensor<32xi1> -> tensor<1x32xi1> loc(#loc55)
    %81 = tt.broadcast %80 : tensor<1x32xi1> -> tensor<32x32xi1> loc(#loc56)
    %82 = arith.andi %76, %81 : tensor<32x32xi1> loc(#loc56)
    %83 = arith.truncf %51 : tensor<32x32xf32> to tensor<32x32xf16> loc(#loc57)
    tt.store %60, %83, %82 : tensor<32x32x!tt.ptr<f16>> loc(#loc57)
    tt.return loc(#loc58)
  } loc(#loc)
  tt.func private @cdiv__i32__1cconstexpr_28_(%arg0: i32 loc("/usr/local/lib/python3.8/dist-packages/triton/language/standard.py":35:0)) -> i32 attributes {noinline = false} {
    %c28_i32 = arith.constant 28 : i32 loc(#loc60)
    %c27_i32 = arith.constant 27 : i32 loc(#loc61)
    %0 = arith.addi %arg0, %c27_i32 : i32 loc(#loc61)
    %1 = arith.divsi %0, %c28_i32 : i32 loc(#loc62)
    tt.return %1 : i32 loc(#loc63)
  } loc(#loc59)
  tt.func private @"zeros____0cconstexpr_(constexpr_32_, constexpr_32_)__1cconstexpr_fp32_"() -> tensor<32x32xf32> attributes {noinline = false} {
    %cst = arith.constant 0.000000e+00 : f32 loc(#loc65)
    %cst_0 = arith.constant dense<0.000000e+00> : tensor<32x32xf32> loc(#loc65)
    tt.return %cst_0 : tensor<32x32xf32> loc(#loc66)
  } loc(#loc64)
} loc(#loc)
#loc1 = loc("2d9pt_tcstencil.py":34:10)
#loc2 = loc("2d9pt_tcstencil.py":35:28)
#loc3 = loc("2d9pt_tcstencil.py":35:26)
#loc4 = loc("2d9pt_tcstencil.py":35:31)
#loc5 = loc("2d9pt_tcstencil.py":36:28)
#loc6 = loc("2d9pt_tcstencil.py":36:26)
#loc7 = loc("2d9pt_tcstencil.py":36:31)
#loc8 = loc("2d9pt_tcstencil.py":38:19)
#loc9 = loc("2d9pt_tcstencil.py":39:18)
#loc10 = loc("2d9pt_tcstencil.py":43:45)
#loc11 = loc("2d9pt_tcstencil.py":43:32)
#loc12 = loc("2d9pt_tcstencil.py":43:68)
#loc13 = loc("2d9pt_tcstencil.py":43:96)
#loc14 = loc("2d9pt_tcstencil.py":43:83)
#loc15 = loc("2d9pt_tcstencil.py":43:31)
#loc16 = loc("2d9pt_tcstencil.py":44:26)
#loc17 = loc("2d9pt_tcstencil.py":46:45)
#loc18 = loc("2d9pt_tcstencil.py":46:32)
#loc19 = loc("2d9pt_tcstencil.py":46:68)
#loc20 = loc("2d9pt_tcstencil.py":46:96)
#loc21 = loc("2d9pt_tcstencil.py":46:83)
#loc22 = loc("2d9pt_tcstencil.py":46:31)
#loc23 = loc("2d9pt_tcstencil.py":47:26)
#loc24 = loc("2d9pt_tcstencil.py":50:22)
#loc25 = loc("2d9pt_tcstencil.py":50:50)
#loc26 = loc("2d9pt_tcstencil.py":50:37)
#loc27 = loc("2d9pt_tcstencil.py":51:22)
#loc28 = loc("2d9pt_tcstencil.py":51:50)
#loc29 = loc("2d9pt_tcstencil.py":51:37)
#loc30 = loc("2d9pt_tcstencil.py":52:19)
#loc31 = loc("2d9pt_tcstencil.py":52:36)
#loc32 = loc("2d9pt_tcstencil.py":52:40)
#loc33 = loc("2d9pt_tcstencil.py":52:18)
#loc34 = loc("2d9pt_tcstencil.py":53:21)
#loc35 = loc("2d9pt_tcstencil.py":56:27)
#loc36 = loc("2d9pt_tcstencil.py":57:46)
#loc37 = loc("2d9pt_tcstencil.py":58:46)
#loc38 = loc("2d9pt_tcstencil.py":60:19)
#loc39 = loc("2d9pt_tcstencil.py":60:36)
#loc40 = loc("2d9pt_tcstencil.py":60:40)
#loc41 = loc("2d9pt_tcstencil.py":60:18)
#loc42 = loc("2d9pt_tcstencil.py":61:24)
#loc43 = loc("2d9pt_tcstencil.py":62:24)
#loc44 = loc("2d9pt_tcstencil.py":64:48)
#loc45 = loc("2d9pt_tcstencil.py":64:42)
#loc46 = loc("2d9pt_tcstencil.py":64:81)
#loc47 = loc("2d9pt_tcstencil.py":64:68)
#loc48 = loc("2d9pt_tcstencil.py":64:62)
#loc49 = loc("2d9pt_tcstencil.py":64:61)
#loc50 = loc("2d9pt_tcstencil.py":64:102)
#loc51 = loc("2d9pt_tcstencil.py":64:96)
#loc52 = loc("2d9pt_tcstencil.py":64:95)
#loc53 = loc("2d9pt_tcstencil.py":64:135)
#loc54 = loc("2d9pt_tcstencil.py":64:122)
#loc55 = loc("2d9pt_tcstencil.py":64:116)
#loc56 = loc("2d9pt_tcstencil.py":64:115)
#loc57 = loc("2d9pt_tcstencil.py":64:21)
#loc58 = loc("2d9pt_tcstencil.py":64:4)
#loc60 = loc(unknown)
#loc61 = loc("/usr/local/lib/python3.8/dist-packages/triton/language/standard.py":44:22)
#loc62 = loc("/usr/local/lib/python3.8/dist-packages/triton/language/standard.py":44:28)
#loc63 = loc("/usr/local/lib/python3.8/dist-packages/triton/language/standard.py":44:11)
#loc64 = loc("/usr/local/lib/python3.8/dist-packages/triton/language/standard.py":116:0)
#loc65 = loc("/usr/local/lib/python3.8/dist-packages/triton/language/standard.py":125:31)
#loc66 = loc("/usr/local/lib/python3.8/dist-packages/triton/language/standard.py":125:11)


// -----// IR Dump Before Canonicalizer (canonicalize) ('tt.func' operation: @stencil_kernel) //----- //
#loc = loc("2d9pt_tcstencil.py":18:0)
#loc59 = loc("/usr/local/lib/python3.8/dist-packages/triton/language/standard.py":35:0)
module {
  tt.func public @stencil_kernel(%arg0: !tt.ptr<f16> {tt.divisibility = 16 : i32} loc("2d9pt_tcstencil.py":18:0), %arg1: !tt.ptr<f16> {tt.divisibility = 16 : i32} loc("2d9pt_tcstencil.py":18:0), %arg2: i32 loc("2d9pt_tcstencil.py":18:0), %arg3: i32 loc("2d9pt_tcstencil.py":18:0), %arg4: !tt.ptr<f16> {tt.divisibility = 16 : i32} loc("2d9pt_tcstencil.py":18:0), %arg5: !tt.ptr<f16> {tt.divisibility = 16 : i32} loc("2d9pt_tcstencil.py":18:0), %arg6: i32 loc("2d9pt_tcstencil.py":18:0)) attributes {noinline = false} {
    %0 = tt.get_program_id x : i32 loc(#loc1)
    %c2_i32 = arith.constant 2 : i32 loc(#loc2)
    %1 = arith.muli %arg6, %c2_i32 : i32 loc(#loc2)
    %2 = arith.subi %arg2, %1 : i32 loc(#loc3)
    %3 = tt.call @cdiv__i32__1cconstexpr_28_(%2) : (i32) -> i32 loc(#loc4)
    %c2_i32_0 = arith.constant 2 : i32 loc(#loc5)
    %4 = arith.muli %arg6, %c2_i32_0 : i32 loc(#loc5)
    %5 = arith.subi %arg3, %4 : i32 loc(#loc6)
    %6 = tt.call @cdiv__i32__1cconstexpr_28_(%5) : (i32) -> i32 loc(#loc7)
    %7 = arith.divsi %0, %6 : i32 loc(#loc8)
    %8 = arith.remsi %0, %6 : i32 loc(#loc9)
    %9 = tt.make_range {end = 32 : i32, start = 0 : i32} : tensor<32xi32> loc(#loc10)
    %10 = tt.expand_dims %9 {axis = 1 : i32} : tensor<32xi32> -> tensor<32x1xi32> loc(#loc11)
    %c32_i32 = arith.constant 32 : i32 loc(#loc12)
    %cst = arith.constant dense<32> : tensor<32x1xi32> loc(#loc12)
    %11 = arith.muli %10, %cst : tensor<32x1xi32> loc(#loc12)
    %12 = tt.make_range {end = 32 : i32, start = 0 : i32} : tensor<32xi32> loc(#loc13)
    %13 = tt.expand_dims %12 {axis = 0 : i32} : tensor<32xi32> -> tensor<1x32xi32> loc(#loc14)
    %14 = tt.broadcast %11 : tensor<32x1xi32> -> tensor<32x32xi32> loc(#loc14)
    %15 = tt.broadcast %13 : tensor<1x32xi32> -> tensor<32x32xi32> loc(#loc14)
    %16 = arith.addi %14, %15 : tensor<32x32xi32> loc(#loc14)
    %17 = tt.splat %arg4 : !tt.ptr<f16> -> tensor<32x32x!tt.ptr<f16>> loc(#loc15)
    %18 = tt.addptr %17, %16 : tensor<32x32x!tt.ptr<f16>>, tensor<32x32xi32> loc(#loc15)
    %19 = tt.load %18 : tensor<32x32x!tt.ptr<f16>> loc(#loc16)
    %20 = tt.make_range {end = 32 : i32, start = 0 : i32} : tensor<32xi32> loc(#loc17)
    %21 = tt.expand_dims %20 {axis = 1 : i32} : tensor<32xi32> -> tensor<32x1xi32> loc(#loc18)
    %c32_i32_1 = arith.constant 32 : i32 loc(#loc19)
    %cst_2 = arith.constant dense<32> : tensor<32x1xi32> loc(#loc19)
    %22 = arith.muli %21, %cst_2 : tensor<32x1xi32> loc(#loc19)
    %23 = tt.make_range {end = 32 : i32, start = 0 : i32} : tensor<32xi32> loc(#loc20)
    %24 = tt.expand_dims %23 {axis = 0 : i32} : tensor<32xi32> -> tensor<1x32xi32> loc(#loc21)
    %25 = tt.broadcast %22 : tensor<32x1xi32> -> tensor<32x32xi32> loc(#loc21)
    %26 = tt.broadcast %24 : tensor<1x32xi32> -> tensor<32x32xi32> loc(#loc21)
    %27 = arith.addi %25, %26 : tensor<32x32xi32> loc(#loc21)
    %28 = tt.splat %arg5 : !tt.ptr<f16> -> tensor<32x32x!tt.ptr<f16>> loc(#loc22)
    %29 = tt.addptr %28, %27 : tensor<32x32x!tt.ptr<f16>>, tensor<32x32xi32> loc(#loc22)
    %30 = tt.load %29 : tensor<32x32x!tt.ptr<f16>> loc(#loc23)
    %c28_i32 = arith.constant 28 : i32 loc(#loc24)
    %31 = arith.muli %7, %c28_i32 : i32 loc(#loc24)
    %32 = tt.make_range {end = 32 : i32, start = 0 : i32} : tensor<32xi32> loc(#loc25)
    %33 = tt.splat %31 : i32 -> tensor<32xi32> loc(#loc26)
    %34 = arith.addi %33, %32 : tensor<32xi32> loc(#loc26)
    %c28_i32_3 = arith.constant 28 : i32 loc(#loc27)
    %35 = arith.muli %8, %c28_i32_3 : i32 loc(#loc27)
    %36 = tt.make_range {end = 32 : i32, start = 0 : i32} : tensor<32xi32> loc(#loc28)
    %37 = tt.splat %35 : i32 -> tensor<32xi32> loc(#loc29)
    %38 = arith.addi %37, %36 : tensor<32xi32> loc(#loc29)
    %39 = tt.expand_dims %34 {axis = 1 : i32} : tensor<32xi32> -> tensor<32x1xi32> loc(#loc30)
    %40 = tt.splat %arg3 : i32 -> tensor<32x1xi32> loc(#loc31)
    %41 = arith.muli %39, %40 : tensor<32x1xi32> loc(#loc31)
    %42 = tt.expand_dims %38 {axis = 0 : i32} : tensor<32xi32> -> tensor<1x32xi32> loc(#loc32)
    %43 = tt.broadcast %41 : tensor<32x1xi32> -> tensor<32x32xi32> loc(#loc32)
    %44 = tt.broadcast %42 : tensor<1x32xi32> -> tensor<32x32xi32> loc(#loc32)
    %45 = arith.addi %43, %44 : tensor<32x32xi32> loc(#loc32)
    %46 = tt.splat %arg0 : !tt.ptr<f16> -> tensor<32x32x!tt.ptr<f16>> loc(#loc33)
    %47 = tt.addptr %46, %45 : tensor<32x32x!tt.ptr<f16>>, tensor<32x32xi32> loc(#loc33)
    %48 = tt.load %47 : tensor<32x32x!tt.ptr<f16>> loc(#loc34)
    %49 = tt.call @"zeros____0cconstexpr_(constexpr_32_, constexpr_32_)__1cconstexpr_fp32_"() : () -> tensor<32x32xf32> loc(#loc35)
    %cst_4 = arith.constant 0.000000e+00 : f32 loc(#loc36)
    %50 = tt.dot %48, %19, %49, inputPrecision = tf32 : tensor<32x32xf16> * tensor<32x32xf16> -> tensor<32x32xf32> loc(#loc36)
    %cst_5 = arith.constant 0.000000e+00 : f32 loc(#loc37)
    %51 = tt.dot %30, %48, %50, inputPrecision = tf32 : tensor<32x32xf16> * tensor<32x32xf16> -> tensor<32x32xf32> loc(#loc37)
    %52 = tt.expand_dims %34 {axis = 1 : i32} : tensor<32xi32> -> tensor<32x1xi32> loc(#loc38)
    %53 = tt.splat %arg3 : i32 -> tensor<32x1xi32> loc(#loc39)
    %54 = arith.muli %52, %53 : tensor<32x1xi32> loc(#loc39)
    %55 = tt.expand_dims %38 {axis = 0 : i32} : tensor<32xi32> -> tensor<1x32xi32> loc(#loc40)
    %56 = tt.broadcast %54 : tensor<32x1xi32> -> tensor<32x32xi32> loc(#loc40)
    %57 = tt.broadcast %55 : tensor<1x32xi32> -> tensor<32x32xi32> loc(#loc40)
    %58 = arith.addi %56, %57 : tensor<32x32xi32> loc(#loc40)
    %59 = tt.splat %arg1 : !tt.ptr<f16> -> tensor<32x32x!tt.ptr<f16>> loc(#loc41)
    %60 = tt.addptr %59, %58 : tensor<32x32x!tt.ptr<f16>>, tensor<32x32xi32> loc(#loc41)
    %61 = tt.make_range {end = 32 : i32, start = 0 : i32} : tensor<32xi32> loc(#loc42)
    %62 = tt.make_range {end = 32 : i32, start = 0 : i32} : tensor<32xi32> loc(#loc43)
    %63 = tt.splat %arg6 : i32 -> tensor<32xi32> loc(#loc44)
    %64 = arith.cmpi sge, %61, %63 : tensor<32xi32> loc(#loc44)
    %65 = tt.expand_dims %64 {axis = 1 : i32} : tensor<32xi1> -> tensor<32x1xi1> loc(#loc45)
    %c32_i32_6 = arith.constant 32 : i32 loc(#loc46)
    %66 = arith.subi %c32_i32_6, %arg6 : i32 loc(#loc46)
    %67 = tt.splat %66 : i32 -> tensor<32xi32> loc(#loc47)
    %68 = arith.cmpi slt, %61, %67 : tensor<32xi32> loc(#loc47)
    %69 = tt.expand_dims %68 {axis = 1 : i32} : tensor<32xi1> -> tensor<32x1xi1> loc(#loc48)
    %70 = arith.andi %65, %69 : tensor<32x1xi1> loc(#loc49)
    %71 = tt.splat %arg6 : i32 -> tensor<32xi32> loc(#loc50)
    %72 = arith.cmpi sge, %62, %71 : tensor<32xi32> loc(#loc50)
    %73 = tt.expand_dims %72 {axis = 0 : i32} : tensor<32xi1> -> tensor<1x32xi1> loc(#loc51)
    %74 = tt.broadcast %70 : tensor<32x1xi1> -> tensor<32x32xi1> loc(#loc52)
    %75 = tt.broadcast %73 : tensor<1x32xi1> -> tensor<32x32xi1> loc(#loc52)
    %76 = arith.andi %74, %75 : tensor<32x32xi1> loc(#loc52)
    %c32_i32_7 = arith.constant 32 : i32 loc(#loc53)
    %77 = arith.subi %c32_i32_7, %arg6 : i32 loc(#loc53)
    %78 = tt.splat %77 : i32 -> tensor<32xi32> loc(#loc54)
    %79 = arith.cmpi slt, %62, %78 : tensor<32xi32> loc(#loc54)
    %80 = tt.expand_dims %79 {axis = 0 : i32} : tensor<32xi1> -> tensor<1x32xi1> loc(#loc55)
    %81 = tt.broadcast %80 : tensor<1x32xi1> -> tensor<32x32xi1> loc(#loc56)
    %82 = arith.andi %76, %81 : tensor<32x32xi1> loc(#loc56)
    %83 = arith.truncf %51 : tensor<32x32xf32> to tensor<32x32xf16> loc(#loc57)
    tt.store %60, %83, %82 : tensor<32x32x!tt.ptr<f16>> loc(#loc57)
    tt.return loc(#loc58)
  } loc(#loc)
  tt.func private @cdiv__i32__1cconstexpr_28_(%arg0: i32 loc("/usr/local/lib/python3.8/dist-packages/triton/language/standard.py":35:0)) -> i32 attributes {noinline = false} {
    %c28_i32 = arith.constant 28 : i32 loc(#loc60)
    %c27_i32 = arith.constant 27 : i32 loc(#loc61)
    %0 = arith.addi %arg0, %c27_i32 : i32 loc(#loc61)
    %1 = arith.divsi %0, %c28_i32 : i32 loc(#loc62)
    tt.return %1 : i32 loc(#loc63)
  } loc(#loc59)
  tt.func private @"zeros____0cconstexpr_(constexpr_32_, constexpr_32_)__1cconstexpr_fp32_"() -> tensor<32x32xf32> attributes {noinline = false} {
    %cst = arith.constant dense<0.000000e+00> : tensor<32x32xf32> loc(#loc65)
    tt.return %cst : tensor<32x32xf32> loc(#loc66)
  } loc(#loc64)
} loc(#loc)
#loc1 = loc("2d9pt_tcstencil.py":34:10)
#loc2 = loc("2d9pt_tcstencil.py":35:28)
#loc3 = loc("2d9pt_tcstencil.py":35:26)
#loc4 = loc("2d9pt_tcstencil.py":35:31)
#loc5 = loc("2d9pt_tcstencil.py":36:28)
#loc6 = loc("2d9pt_tcstencil.py":36:26)
#loc7 = loc("2d9pt_tcstencil.py":36:31)
#loc8 = loc("2d9pt_tcstencil.py":38:19)
#loc9 = loc("2d9pt_tcstencil.py":39:18)
#loc10 = loc("2d9pt_tcstencil.py":43:45)
#loc11 = loc("2d9pt_tcstencil.py":43:32)
#loc12 = loc("2d9pt_tcstencil.py":43:68)
#loc13 = loc("2d9pt_tcstencil.py":43:96)
#loc14 = loc("2d9pt_tcstencil.py":43:83)
#loc15 = loc("2d9pt_tcstencil.py":43:31)
#loc16 = loc("2d9pt_tcstencil.py":44:26)
#loc17 = loc("2d9pt_tcstencil.py":46:45)
#loc18 = loc("2d9pt_tcstencil.py":46:32)
#loc19 = loc("2d9pt_tcstencil.py":46:68)
#loc20 = loc("2d9pt_tcstencil.py":46:96)
#loc21 = loc("2d9pt_tcstencil.py":46:83)
#loc22 = loc("2d9pt_tcstencil.py":46:31)
#loc23 = loc("2d9pt_tcstencil.py":47:26)
#loc24 = loc("2d9pt_tcstencil.py":50:22)
#loc25 = loc("2d9pt_tcstencil.py":50:50)
#loc26 = loc("2d9pt_tcstencil.py":50:37)
#loc27 = loc("2d9pt_tcstencil.py":51:22)
#loc28 = loc("2d9pt_tcstencil.py":51:50)
#loc29 = loc("2d9pt_tcstencil.py":51:37)
#loc30 = loc("2d9pt_tcstencil.py":52:19)
#loc31 = loc("2d9pt_tcstencil.py":52:36)
#loc32 = loc("2d9pt_tcstencil.py":52:40)
#loc33 = loc("2d9pt_tcstencil.py":52:18)
#loc34 = loc("2d9pt_tcstencil.py":53:21)
#loc35 = loc("2d9pt_tcstencil.py":56:27)
#loc36 = loc("2d9pt_tcstencil.py":57:46)
#loc37 = loc("2d9pt_tcstencil.py":58:46)
#loc38 = loc("2d9pt_tcstencil.py":60:19)
#loc39 = loc("2d9pt_tcstencil.py":60:36)
#loc40 = loc("2d9pt_tcstencil.py":60:40)
#loc41 = loc("2d9pt_tcstencil.py":60:18)
#loc42 = loc("2d9pt_tcstencil.py":61:24)
#loc43 = loc("2d9pt_tcstencil.py":62:24)
#loc44 = loc("2d9pt_tcstencil.py":64:48)
#loc45 = loc("2d9pt_tcstencil.py":64:42)
#loc46 = loc("2d9pt_tcstencil.py":64:81)
#loc47 = loc("2d9pt_tcstencil.py":64:68)
#loc48 = loc("2d9pt_tcstencil.py":64:62)
#loc49 = loc("2d9pt_tcstencil.py":64:61)
#loc50 = loc("2d9pt_tcstencil.py":64:102)
#loc51 = loc("2d9pt_tcstencil.py":64:96)
#loc52 = loc("2d9pt_tcstencil.py":64:95)
#loc53 = loc("2d9pt_tcstencil.py":64:135)
#loc54 = loc("2d9pt_tcstencil.py":64:122)
#loc55 = loc("2d9pt_tcstencil.py":64:116)
#loc56 = loc("2d9pt_tcstencil.py":64:115)
#loc57 = loc("2d9pt_tcstencil.py":64:21)
#loc58 = loc("2d9pt_tcstencil.py":64:4)
#loc60 = loc(unknown)
#loc61 = loc("/usr/local/lib/python3.8/dist-packages/triton/language/standard.py":44:22)
#loc62 = loc("/usr/local/lib/python3.8/dist-packages/triton/language/standard.py":44:28)
#loc63 = loc("/usr/local/lib/python3.8/dist-packages/triton/language/standard.py":44:11)
#loc64 = loc("/usr/local/lib/python3.8/dist-packages/triton/language/standard.py":116:0)
#loc65 = loc("/usr/local/lib/python3.8/dist-packages/triton/language/standard.py":125:31)
#loc66 = loc("/usr/local/lib/python3.8/dist-packages/triton/language/standard.py":125:11)


// -----// IR Dump Before Canonicalizer (canonicalize) ('tt.func' operation: @stencil_kernel) //----- //
#loc = loc("2d9pt_tcstencil.py":18:0)
module {
  tt.func public @stencil_kernel(%arg0: !tt.ptr<f16> {tt.divisibility = 16 : i32} loc("2d9pt_tcstencil.py":18:0), %arg1: !tt.ptr<f16> {tt.divisibility = 16 : i32} loc("2d9pt_tcstencil.py":18:0), %arg2: i32 loc("2d9pt_tcstencil.py":18:0), %arg3: i32 loc("2d9pt_tcstencil.py":18:0), %arg4: !tt.ptr<f16> {tt.divisibility = 16 : i32} loc("2d9pt_tcstencil.py":18:0), %arg5: !tt.ptr<f16> {tt.divisibility = 16 : i32} loc("2d9pt_tcstencil.py":18:0), %arg6: i32 loc("2d9pt_tcstencil.py":18:0)) attributes {noinline = false} {
    %c28_i32 = arith.constant 28 : i32 loc(#loc1)
    %cst = arith.constant dense<32> : tensor<32x1xi32> loc(#loc1)
    %c32_i32 = arith.constant 32 : i32 loc(#loc1)
    %c2_i32 = arith.constant 2 : i32 loc(#loc1)
    %0 = tt.get_program_id x : i32 loc(#loc2)
    %1 = arith.muli %arg6, %c2_i32 : i32 loc(#loc3)
    %2 = arith.subi %arg2, %1 : i32 loc(#loc4)
    %c28_i32_0 = arith.constant 28 : i32 loc(#loc65)
    %c27_i32 = arith.constant 27 : i32 loc(#loc66)
    %3 = arith.addi %2, %c27_i32 : i32 loc(#loc66)
    %4 = arith.divsi %3, %c28_i32_0 : i32 loc(#loc67)
    %5 = arith.muli %arg6, %c2_i32 : i32 loc(#loc8)
    %6 = arith.subi %arg3, %5 : i32 loc(#loc9)
    %c28_i32_1 = arith.constant 28 : i32 loc(#loc68)
    %c27_i32_2 = arith.constant 27 : i32 loc(#loc69)
    %7 = arith.addi %6, %c27_i32_2 : i32 loc(#loc69)
    %8 = arith.divsi %7, %c28_i32_1 : i32 loc(#loc70)
    %9 = arith.divsi %0, %8 : i32 loc(#loc11)
    %10 = arith.remsi %0, %8 : i32 loc(#loc12)
    %11 = tt.make_range {end = 32 : i32, start = 0 : i32} : tensor<32xi32> loc(#loc13)
    %12 = tt.expand_dims %11 {axis = 1 : i32} : tensor<32xi32> -> tensor<32x1xi32> loc(#loc14)
    %13 = arith.muli %12, %cst : tensor<32x1xi32> loc(#loc15)
    %14 = tt.make_range {end = 32 : i32, start = 0 : i32} : tensor<32xi32> loc(#loc16)
    %15 = tt.expand_dims %14 {axis = 0 : i32} : tensor<32xi32> -> tensor<1x32xi32> loc(#loc17)
    %16 = tt.broadcast %13 : tensor<32x1xi32> -> tensor<32x32xi32> loc(#loc17)
    %17 = tt.broadcast %15 : tensor<1x32xi32> -> tensor<32x32xi32> loc(#loc17)
    %18 = arith.addi %16, %17 : tensor<32x32xi32> loc(#loc17)
    %19 = tt.splat %arg4 : !tt.ptr<f16> -> tensor<32x32x!tt.ptr<f16>> loc(#loc18)
    %20 = tt.addptr %19, %18 : tensor<32x32x!tt.ptr<f16>>, tensor<32x32xi32> loc(#loc18)
    %21 = tt.load %20 : tensor<32x32x!tt.ptr<f16>> loc(#loc19)
    %22 = tt.make_range {end = 32 : i32, start = 0 : i32} : tensor<32xi32> loc(#loc20)
    %23 = tt.expand_dims %22 {axis = 1 : i32} : tensor<32xi32> -> tensor<32x1xi32> loc(#loc21)
    %24 = arith.muli %23, %cst : tensor<32x1xi32> loc(#loc22)
    %25 = tt.make_range {end = 32 : i32, start = 0 : i32} : tensor<32xi32> loc(#loc23)
    %26 = tt.expand_dims %25 {axis = 0 : i32} : tensor<32xi32> -> tensor<1x32xi32> loc(#loc24)
    %27 = tt.broadcast %24 : tensor<32x1xi32> -> tensor<32x32xi32> loc(#loc24)
    %28 = tt.broadcast %26 : tensor<1x32xi32> -> tensor<32x32xi32> loc(#loc24)
    %29 = arith.addi %27, %28 : tensor<32x32xi32> loc(#loc24)
    %30 = tt.splat %arg5 : !tt.ptr<f16> -> tensor<32x32x!tt.ptr<f16>> loc(#loc25)
    %31 = tt.addptr %30, %29 : tensor<32x32x!tt.ptr<f16>>, tensor<32x32xi32> loc(#loc25)
    %32 = tt.load %31 : tensor<32x32x!tt.ptr<f16>> loc(#loc26)
    %33 = arith.muli %9, %c28_i32 : i32 loc(#loc27)
    %34 = tt.make_range {end = 32 : i32, start = 0 : i32} : tensor<32xi32> loc(#loc28)
    %35 = tt.splat %33 : i32 -> tensor<32xi32> loc(#loc29)
    %36 = arith.addi %35, %34 : tensor<32xi32> loc(#loc29)
    %37 = arith.muli %10, %c28_i32 : i32 loc(#loc30)
    %38 = tt.make_range {end = 32 : i32, start = 0 : i32} : tensor<32xi32> loc(#loc31)
    %39 = tt.splat %37 : i32 -> tensor<32xi32> loc(#loc32)
    %40 = arith.addi %39, %38 : tensor<32xi32> loc(#loc32)
    %41 = tt.expand_dims %36 {axis = 1 : i32} : tensor<32xi32> -> tensor<32x1xi32> loc(#loc33)
    %42 = tt.splat %arg3 : i32 -> tensor<32x1xi32> loc(#loc34)
    %43 = arith.muli %41, %42 : tensor<32x1xi32> loc(#loc34)
    %44 = tt.expand_dims %40 {axis = 0 : i32} : tensor<32xi32> -> tensor<1x32xi32> loc(#loc35)
    %45 = tt.broadcast %43 : tensor<32x1xi32> -> tensor<32x32xi32> loc(#loc35)
    %46 = tt.broadcast %44 : tensor<1x32xi32> -> tensor<32x32xi32> loc(#loc35)
    %47 = arith.addi %45, %46 : tensor<32x32xi32> loc(#loc35)
    %48 = tt.splat %arg0 : !tt.ptr<f16> -> tensor<32x32x!tt.ptr<f16>> loc(#loc36)
    %49 = tt.addptr %48, %47 : tensor<32x32x!tt.ptr<f16>>, tensor<32x32xi32> loc(#loc36)
    %50 = tt.load %49 : tensor<32x32x!tt.ptr<f16>> loc(#loc37)
    %cst_3 = arith.constant dense<0.000000e+00> : tensor<32x32xf32> loc(#loc71)
    %51 = tt.dot %50, %21, %cst_3, inputPrecision = tf32 : tensor<32x32xf16> * tensor<32x32xf16> -> tensor<32x32xf32> loc(#loc40)
    %52 = tt.dot %32, %50, %51, inputPrecision = tf32 : tensor<32x32xf16> * tensor<32x32xf16> -> tensor<32x32xf32> loc(#loc41)
    %53 = tt.expand_dims %36 {axis = 1 : i32} : tensor<32xi32> -> tensor<32x1xi32> loc(#loc42)
    %54 = tt.splat %arg3 : i32 -> tensor<32x1xi32> loc(#loc43)
    %55 = arith.muli %53, %54 : tensor<32x1xi32> loc(#loc43)
    %56 = tt.expand_dims %40 {axis = 0 : i32} : tensor<32xi32> -> tensor<1x32xi32> loc(#loc44)
    %57 = tt.broadcast %55 : tensor<32x1xi32> -> tensor<32x32xi32> loc(#loc44)
    %58 = tt.broadcast %56 : tensor<1x32xi32> -> tensor<32x32xi32> loc(#loc44)
    %59 = arith.addi %57, %58 : tensor<32x32xi32> loc(#loc44)
    %60 = tt.splat %arg1 : !tt.ptr<f16> -> tensor<32x32x!tt.ptr<f16>> loc(#loc45)
    %61 = tt.addptr %60, %59 : tensor<32x32x!tt.ptr<f16>>, tensor<32x32xi32> loc(#loc45)
    %62 = tt.make_range {end = 32 : i32, start = 0 : i32} : tensor<32xi32> loc(#loc46)
    %63 = tt.make_range {end = 32 : i32, start = 0 : i32} : tensor<32xi32> loc(#loc47)
    %64 = tt.splat %arg6 : i32 -> tensor<32xi32> loc(#loc48)
    %65 = arith.cmpi sge, %62, %64 : tensor<32xi32> loc(#loc48)
    %66 = tt.expand_dims %65 {axis = 1 : i32} : tensor<32xi1> -> tensor<32x1xi1> loc(#loc49)
    %67 = arith.subi %c32_i32, %arg6 : i32 loc(#loc50)
    %68 = tt.splat %67 : i32 -> tensor<32xi32> loc(#loc51)
    %69 = arith.cmpi slt, %62, %68 : tensor<32xi32> loc(#loc51)
    %70 = tt.expand_dims %69 {axis = 1 : i32} : tensor<32xi1> -> tensor<32x1xi1> loc(#loc52)
    %71 = arith.andi %66, %70 : tensor<32x1xi1> loc(#loc53)
    %72 = tt.splat %arg6 : i32 -> tensor<32xi32> loc(#loc54)
    %73 = arith.cmpi sge, %63, %72 : tensor<32xi32> loc(#loc54)
    %74 = tt.expand_dims %73 {axis = 0 : i32} : tensor<32xi1> -> tensor<1x32xi1> loc(#loc55)
    %75 = tt.broadcast %71 : tensor<32x1xi1> -> tensor<32x32xi1> loc(#loc56)
    %76 = tt.broadcast %74 : tensor<1x32xi1> -> tensor<32x32xi1> loc(#loc56)
    %77 = arith.andi %75, %76 : tensor<32x32xi1> loc(#loc56)
    %78 = arith.subi %c32_i32, %arg6 : i32 loc(#loc57)
    %79 = tt.splat %78 : i32 -> tensor<32xi32> loc(#loc58)
    %80 = arith.cmpi slt, %63, %79 : tensor<32xi32> loc(#loc58)
    %81 = tt.expand_dims %80 {axis = 0 : i32} : tensor<32xi1> -> tensor<1x32xi1> loc(#loc59)
    %82 = tt.broadcast %81 : tensor<1x32xi1> -> tensor<32x32xi1> loc(#loc60)
    %83 = arith.andi %77, %82 : tensor<32x32xi1> loc(#loc60)
    %84 = arith.truncf %52 : tensor<32x32xf32> to tensor<32x32xf16> loc(#loc61)
    tt.store %61, %84, %83 : tensor<32x32x!tt.ptr<f16>> loc(#loc61)
    tt.return loc(#loc62)
  } loc(#loc)
  tt.func private @cdiv__i32__1cconstexpr_28_(i32) -> i32 attributes {noinline = false} loc(#loc63)
  tt.func private @"zeros____0cconstexpr_(constexpr_32_, constexpr_32_)__1cconstexpr_fp32_"() -> tensor<32x32xf32> attributes {noinline = false} loc(#loc64)
} loc(#loc)
#loc1 = loc(unknown)
#loc2 = loc("2d9pt_tcstencil.py":34:10)
#loc3 = loc("2d9pt_tcstencil.py":35:28)
#loc4 = loc("2d9pt_tcstencil.py":35:26)
#loc5 = loc("2d9pt_tcstencil.py":35:31)
#loc6 = loc("/usr/local/lib/python3.8/dist-packages/triton/language/standard.py":44:22)
#loc7 = loc("/usr/local/lib/python3.8/dist-packages/triton/language/standard.py":44:28)
#loc8 = loc("2d9pt_tcstencil.py":36:28)
#loc9 = loc("2d9pt_tcstencil.py":36:26)
#loc10 = loc("2d9pt_tcstencil.py":36:31)
#loc11 = loc("2d9pt_tcstencil.py":38:19)
#loc12 = loc("2d9pt_tcstencil.py":39:18)
#loc13 = loc("2d9pt_tcstencil.py":43:45)
#loc14 = loc("2d9pt_tcstencil.py":43:32)
#loc15 = loc("2d9pt_tcstencil.py":43:68)
#loc16 = loc("2d9pt_tcstencil.py":43:96)
#loc17 = loc("2d9pt_tcstencil.py":43:83)
#loc18 = loc("2d9pt_tcstencil.py":43:31)
#loc19 = loc("2d9pt_tcstencil.py":44:26)
#loc20 = loc("2d9pt_tcstencil.py":46:45)
#loc21 = loc("2d9pt_tcstencil.py":46:32)
#loc22 = loc("2d9pt_tcstencil.py":46:68)
#loc23 = loc("2d9pt_tcstencil.py":46:96)
#loc24 = loc("2d9pt_tcstencil.py":46:83)
#loc25 = loc("2d9pt_tcstencil.py":46:31)
#loc26 = loc("2d9pt_tcstencil.py":47:26)
#loc27 = loc("2d9pt_tcstencil.py":50:22)
#loc28 = loc("2d9pt_tcstencil.py":50:50)
#loc29 = loc("2d9pt_tcstencil.py":50:37)
#loc30 = loc("2d9pt_tcstencil.py":51:22)
#loc31 = loc("2d9pt_tcstencil.py":51:50)
#loc32 = loc("2d9pt_tcstencil.py":51:37)
#loc33 = loc("2d9pt_tcstencil.py":52:19)
#loc34 = loc("2d9pt_tcstencil.py":52:36)
#loc35 = loc("2d9pt_tcstencil.py":52:40)
#loc36 = loc("2d9pt_tcstencil.py":52:18)
#loc37 = loc("2d9pt_tcstencil.py":53:21)
#loc38 = loc("/usr/local/lib/python3.8/dist-packages/triton/language/standard.py":125:31)
#loc39 = loc("2d9pt_tcstencil.py":56:27)
#loc40 = loc("2d9pt_tcstencil.py":57:46)
#loc41 = loc("2d9pt_tcstencil.py":58:46)
#loc42 = loc("2d9pt_tcstencil.py":60:19)
#loc43 = loc("2d9pt_tcstencil.py":60:36)
#loc44 = loc("2d9pt_tcstencil.py":60:40)
#loc45 = loc("2d9pt_tcstencil.py":60:18)
#loc46 = loc("2d9pt_tcstencil.py":61:24)
#loc47 = loc("2d9pt_tcstencil.py":62:24)
#loc48 = loc("2d9pt_tcstencil.py":64:48)
#loc49 = loc("2d9pt_tcstencil.py":64:42)
#loc50 = loc("2d9pt_tcstencil.py":64:81)
#loc51 = loc("2d9pt_tcstencil.py":64:68)
#loc52 = loc("2d9pt_tcstencil.py":64:62)
#loc53 = loc("2d9pt_tcstencil.py":64:61)
#loc54 = loc("2d9pt_tcstencil.py":64:102)
#loc55 = loc("2d9pt_tcstencil.py":64:96)
#loc56 = loc("2d9pt_tcstencil.py":64:95)
#loc57 = loc("2d9pt_tcstencil.py":64:135)
#loc58 = loc("2d9pt_tcstencil.py":64:122)
#loc59 = loc("2d9pt_tcstencil.py":64:116)
#loc60 = loc("2d9pt_tcstencil.py":64:115)
#loc61 = loc("2d9pt_tcstencil.py":64:21)
#loc62 = loc("2d9pt_tcstencil.py":64:4)
#loc63 = loc("/usr/local/lib/python3.8/dist-packages/triton/language/standard.py":35:0)
#loc64 = loc("/usr/local/lib/python3.8/dist-packages/triton/language/standard.py":116:0)
#loc65 = loc(callsite(#loc1 at #loc5))
#loc66 = loc(callsite(#loc6 at #loc5))
#loc67 = loc(callsite(#loc7 at #loc5))
#loc68 = loc(callsite(#loc1 at #loc10))
#loc69 = loc(callsite(#loc6 at #loc10))
#loc70 = loc(callsite(#loc7 at #loc10))
#loc71 = loc(callsite(#loc38 at #loc39))


// -----// IR Dump Before TritonRewriteTensorPointer (triton-rewrite-tensor-pointer) ('builtin.module' operation) //----- //
#loc = loc("2d9pt_tcstencil.py":18:0)
module {
  tt.func public @stencil_kernel(%arg0: !tt.ptr<f16> {tt.divisibility = 16 : i32} loc("2d9pt_tcstencil.py":18:0), %arg1: !tt.ptr<f16> {tt.divisibility = 16 : i32} loc("2d9pt_tcstencil.py":18:0), %arg2: i32 loc("2d9pt_tcstencil.py":18:0), %arg3: i32 loc("2d9pt_tcstencil.py":18:0), %arg4: !tt.ptr<f16> {tt.divisibility = 16 : i32} loc("2d9pt_tcstencil.py":18:0), %arg5: !tt.ptr<f16> {tt.divisibility = 16 : i32} loc("2d9pt_tcstencil.py":18:0), %arg6: i32 loc("2d9pt_tcstencil.py":18:0)) attributes {noinline = false} {
    %cst = arith.constant dense<0.000000e+00> : tensor<32x32xf32> loc(#loc1)
    %c27_i32 = arith.constant 27 : i32 loc(#loc1)
    %c28_i32 = arith.constant 28 : i32 loc(#loc1)
    %cst_0 = arith.constant dense<32> : tensor<32x1xi32> loc(#loc1)
    %c32_i32 = arith.constant 32 : i32 loc(#loc1)
    %c2_i32 = arith.constant 2 : i32 loc(#loc1)
    %0 = tt.get_program_id x : i32 loc(#loc2)
    %1 = arith.muli %arg6, %c2_i32 : i32 loc(#loc3)
    %2 = arith.subi %arg3, %1 : i32 loc(#loc4)
    %3 = arith.addi %2, %c27_i32 : i32 loc(#loc58)
    %4 = arith.divsi %3, %c28_i32 : i32 loc(#loc59)
    %5 = arith.divsi %0, %4 : i32 loc(#loc8)
    %6 = arith.remsi %0, %4 : i32 loc(#loc9)
    %7 = tt.make_range {end = 32 : i32, start = 0 : i32} : tensor<32xi32> loc(#loc10)
    %8 = tt.expand_dims %7 {axis = 1 : i32} : tensor<32xi32> -> tensor<32x1xi32> loc(#loc11)
    %9 = arith.muli %8, %cst_0 : tensor<32x1xi32> loc(#loc12)
    %10 = tt.make_range {end = 32 : i32, start = 0 : i32} : tensor<32xi32> loc(#loc13)
    %11 = tt.expand_dims %10 {axis = 0 : i32} : tensor<32xi32> -> tensor<1x32xi32> loc(#loc14)
    %12 = tt.broadcast %9 : tensor<32x1xi32> -> tensor<32x32xi32> loc(#loc14)
    %13 = tt.broadcast %11 : tensor<1x32xi32> -> tensor<32x32xi32> loc(#loc14)
    %14 = arith.addi %12, %13 : tensor<32x32xi32> loc(#loc14)
    %15 = tt.splat %arg4 : !tt.ptr<f16> -> tensor<32x32x!tt.ptr<f16>> loc(#loc15)
    %16 = tt.addptr %15, %14 : tensor<32x32x!tt.ptr<f16>>, tensor<32x32xi32> loc(#loc15)
    %17 = tt.load %16 : tensor<32x32x!tt.ptr<f16>> loc(#loc16)
    %18 = tt.make_range {end = 32 : i32, start = 0 : i32} : tensor<32xi32> loc(#loc17)
    %19 = tt.expand_dims %18 {axis = 1 : i32} : tensor<32xi32> -> tensor<32x1xi32> loc(#loc18)
    %20 = arith.muli %19, %cst_0 : tensor<32x1xi32> loc(#loc19)
    %21 = tt.make_range {end = 32 : i32, start = 0 : i32} : tensor<32xi32> loc(#loc20)
    %22 = tt.expand_dims %21 {axis = 0 : i32} : tensor<32xi32> -> tensor<1x32xi32> loc(#loc21)
    %23 = tt.broadcast %20 : tensor<32x1xi32> -> tensor<32x32xi32> loc(#loc21)
    %24 = tt.broadcast %22 : tensor<1x32xi32> -> tensor<32x32xi32> loc(#loc21)
    %25 = arith.addi %23, %24 : tensor<32x32xi32> loc(#loc21)
    %26 = tt.splat %arg5 : !tt.ptr<f16> -> tensor<32x32x!tt.ptr<f16>> loc(#loc22)
    %27 = tt.addptr %26, %25 : tensor<32x32x!tt.ptr<f16>>, tensor<32x32xi32> loc(#loc22)
    %28 = tt.load %27 : tensor<32x32x!tt.ptr<f16>> loc(#loc23)
    %29 = arith.muli %5, %c28_i32 : i32 loc(#loc24)
    %30 = tt.make_range {end = 32 : i32, start = 0 : i32} : tensor<32xi32> loc(#loc25)
    %31 = tt.splat %29 : i32 -> tensor<32xi32> loc(#loc26)
    %32 = arith.addi %31, %30 : tensor<32xi32> loc(#loc26)
    %33 = arith.muli %6, %c28_i32 : i32 loc(#loc27)
    %34 = tt.make_range {end = 32 : i32, start = 0 : i32} : tensor<32xi32> loc(#loc28)
    %35 = tt.splat %33 : i32 -> tensor<32xi32> loc(#loc29)
    %36 = arith.addi %35, %34 : tensor<32xi32> loc(#loc29)
    %37 = tt.expand_dims %32 {axis = 1 : i32} : tensor<32xi32> -> tensor<32x1xi32> loc(#loc30)
    %38 = tt.splat %arg3 : i32 -> tensor<32x1xi32> loc(#loc31)
    %39 = arith.muli %37, %38 : tensor<32x1xi32> loc(#loc31)
    %40 = tt.expand_dims %36 {axis = 0 : i32} : tensor<32xi32> -> tensor<1x32xi32> loc(#loc32)
    %41 = tt.broadcast %39 : tensor<32x1xi32> -> tensor<32x32xi32> loc(#loc32)
    %42 = tt.broadcast %40 : tensor<1x32xi32> -> tensor<32x32xi32> loc(#loc32)
    %43 = arith.addi %41, %42 : tensor<32x32xi32> loc(#loc32)
    %44 = tt.splat %arg0 : !tt.ptr<f16> -> tensor<32x32x!tt.ptr<f16>> loc(#loc33)
    %45 = tt.addptr %44, %43 : tensor<32x32x!tt.ptr<f16>>, tensor<32x32xi32> loc(#loc33)
    %46 = tt.load %45 : tensor<32x32x!tt.ptr<f16>> loc(#loc34)
    %47 = tt.dot %46, %17, %cst, inputPrecision = tf32 : tensor<32x32xf16> * tensor<32x32xf16> -> tensor<32x32xf32> loc(#loc35)
    %48 = tt.dot %28, %46, %47, inputPrecision = tf32 : tensor<32x32xf16> * tensor<32x32xf16> -> tensor<32x32xf32> loc(#loc36)
    %49 = tt.expand_dims %32 {axis = 1 : i32} : tensor<32xi32> -> tensor<32x1xi32> loc(#loc37)
    %50 = tt.splat %arg3 : i32 -> tensor<32x1xi32> loc(#loc38)
    %51 = arith.muli %49, %50 : tensor<32x1xi32> loc(#loc38)
    %52 = tt.expand_dims %36 {axis = 0 : i32} : tensor<32xi32> -> tensor<1x32xi32> loc(#loc39)
    %53 = tt.broadcast %51 : tensor<32x1xi32> -> tensor<32x32xi32> loc(#loc39)
    %54 = tt.broadcast %52 : tensor<1x32xi32> -> tensor<32x32xi32> loc(#loc39)
    %55 = arith.addi %53, %54 : tensor<32x32xi32> loc(#loc39)
    %56 = tt.splat %arg1 : !tt.ptr<f16> -> tensor<32x32x!tt.ptr<f16>> loc(#loc40)
    %57 = tt.addptr %56, %55 : tensor<32x32x!tt.ptr<f16>>, tensor<32x32xi32> loc(#loc40)
    %58 = tt.make_range {end = 32 : i32, start = 0 : i32} : tensor<32xi32> loc(#loc41)
    %59 = tt.make_range {end = 32 : i32, start = 0 : i32} : tensor<32xi32> loc(#loc42)
    %60 = tt.splat %arg6 : i32 -> tensor<32xi32> loc(#loc43)
    %61 = arith.cmpi sge, %58, %60 : tensor<32xi32> loc(#loc43)
    %62 = tt.expand_dims %61 {axis = 1 : i32} : tensor<32xi1> -> tensor<32x1xi1> loc(#loc44)
    %63 = arith.subi %c32_i32, %arg6 : i32 loc(#loc45)
    %64 = tt.splat %63 : i32 -> tensor<32xi32> loc(#loc46)
    %65 = arith.cmpi slt, %58, %64 : tensor<32xi32> loc(#loc46)
    %66 = tt.expand_dims %65 {axis = 1 : i32} : tensor<32xi1> -> tensor<32x1xi1> loc(#loc47)
    %67 = arith.andi %62, %66 : tensor<32x1xi1> loc(#loc48)
    %68 = tt.splat %arg6 : i32 -> tensor<32xi32> loc(#loc49)
    %69 = arith.cmpi sge, %59, %68 : tensor<32xi32> loc(#loc49)
    %70 = tt.expand_dims %69 {axis = 0 : i32} : tensor<32xi1> -> tensor<1x32xi1> loc(#loc50)
    %71 = tt.broadcast %67 : tensor<32x1xi1> -> tensor<32x32xi1> loc(#loc51)
    %72 = tt.broadcast %70 : tensor<1x32xi1> -> tensor<32x32xi1> loc(#loc51)
    %73 = arith.andi %71, %72 : tensor<32x32xi1> loc(#loc51)
    %74 = arith.subi %c32_i32, %arg6 : i32 loc(#loc52)
    %75 = tt.splat %74 : i32 -> tensor<32xi32> loc(#loc53)
    %76 = arith.cmpi slt, %59, %75 : tensor<32xi32> loc(#loc53)
    %77 = tt.expand_dims %76 {axis = 0 : i32} : tensor<32xi1> -> tensor<1x32xi1> loc(#loc54)
    %78 = tt.broadcast %77 : tensor<1x32xi1> -> tensor<32x32xi1> loc(#loc55)
    %79 = arith.andi %73, %78 : tensor<32x32xi1> loc(#loc55)
    %80 = arith.truncf %48 : tensor<32x32xf32> to tensor<32x32xf16> loc(#loc56)
    tt.store %57, %80, %79 : tensor<32x32x!tt.ptr<f16>> loc(#loc56)
    tt.return loc(#loc57)
  } loc(#loc)
} loc(#loc)
#loc1 = loc(unknown)
#loc2 = loc("2d9pt_tcstencil.py":34:10)
#loc3 = loc("2d9pt_tcstencil.py":36:28)
#loc4 = loc("2d9pt_tcstencil.py":36:26)
#loc5 = loc("/usr/local/lib/python3.8/dist-packages/triton/language/standard.py":44:22)
#loc6 = loc("2d9pt_tcstencil.py":36:31)
#loc7 = loc("/usr/local/lib/python3.8/dist-packages/triton/language/standard.py":44:28)
#loc8 = loc("2d9pt_tcstencil.py":38:19)
#loc9 = loc("2d9pt_tcstencil.py":39:18)
#loc10 = loc("2d9pt_tcstencil.py":43:45)
#loc11 = loc("2d9pt_tcstencil.py":43:32)
#loc12 = loc("2d9pt_tcstencil.py":43:68)
#loc13 = loc("2d9pt_tcstencil.py":43:96)
#loc14 = loc("2d9pt_tcstencil.py":43:83)
#loc15 = loc("2d9pt_tcstencil.py":43:31)
#loc16 = loc("2d9pt_tcstencil.py":44:26)
#loc17 = loc("2d9pt_tcstencil.py":46:45)
#loc18 = loc("2d9pt_tcstencil.py":46:32)
#loc19 = loc("2d9pt_tcstencil.py":46:68)
#loc20 = loc("2d9pt_tcstencil.py":46:96)
#loc21 = loc("2d9pt_tcstencil.py":46:83)
#loc22 = loc("2d9pt_tcstencil.py":46:31)
#loc23 = loc("2d9pt_tcstencil.py":47:26)
#loc24 = loc("2d9pt_tcstencil.py":50:22)
#loc25 = loc("2d9pt_tcstencil.py":50:50)
#loc26 = loc("2d9pt_tcstencil.py":50:37)
#loc27 = loc("2d9pt_tcstencil.py":51:22)
#loc28 = loc("2d9pt_tcstencil.py":51:50)
#loc29 = loc("2d9pt_tcstencil.py":51:37)
#loc30 = loc("2d9pt_tcstencil.py":52:19)
#loc31 = loc("2d9pt_tcstencil.py":52:36)
#loc32 = loc("2d9pt_tcstencil.py":52:40)
#loc33 = loc("2d9pt_tcstencil.py":52:18)
#loc34 = loc("2d9pt_tcstencil.py":53:21)
#loc35 = loc("2d9pt_tcstencil.py":57:46)
#loc36 = loc("2d9pt_tcstencil.py":58:46)
#loc37 = loc("2d9pt_tcstencil.py":60:19)
#loc38 = loc("2d9pt_tcstencil.py":60:36)
#loc39 = loc("2d9pt_tcstencil.py":60:40)
#loc40 = loc("2d9pt_tcstencil.py":60:18)
#loc41 = loc("2d9pt_tcstencil.py":61:24)
#loc42 = loc("2d9pt_tcstencil.py":62:24)
#loc43 = loc("2d9pt_tcstencil.py":64:48)
#loc44 = loc("2d9pt_tcstencil.py":64:42)
#loc45 = loc("2d9pt_tcstencil.py":64:81)
#loc46 = loc("2d9pt_tcstencil.py":64:68)
#loc47 = loc("2d9pt_tcstencil.py":64:62)
#loc48 = loc("2d9pt_tcstencil.py":64:61)
#loc49 = loc("2d9pt_tcstencil.py":64:102)
#loc50 = loc("2d9pt_tcstencil.py":64:96)
#loc51 = loc("2d9pt_tcstencil.py":64:95)
#loc52 = loc("2d9pt_tcstencil.py":64:135)
#loc53 = loc("2d9pt_tcstencil.py":64:122)
#loc54 = loc("2d9pt_tcstencil.py":64:116)
#loc55 = loc("2d9pt_tcstencil.py":64:115)
#loc56 = loc("2d9pt_tcstencil.py":64:21)
#loc57 = loc("2d9pt_tcstencil.py":64:4)
#loc58 = loc(callsite(#loc5 at #loc6))
#loc59 = loc(callsite(#loc7 at #loc6))


// -----// IR Dump Before TritonCombineOps (triton-combine) ('builtin.module' operation) //----- //
#loc = loc("2d9pt_tcstencil.py":18:0)
module {
  tt.func public @stencil_kernel(%arg0: !tt.ptr<f16> {tt.divisibility = 16 : i32} loc("2d9pt_tcstencil.py":18:0), %arg1: !tt.ptr<f16> {tt.divisibility = 16 : i32} loc("2d9pt_tcstencil.py":18:0), %arg2: i32 loc("2d9pt_tcstencil.py":18:0), %arg3: i32 loc("2d9pt_tcstencil.py":18:0), %arg4: !tt.ptr<f16> {tt.divisibility = 16 : i32} loc("2d9pt_tcstencil.py":18:0), %arg5: !tt.ptr<f16> {tt.divisibility = 16 : i32} loc("2d9pt_tcstencil.py":18:0), %arg6: i32 loc("2d9pt_tcstencil.py":18:0)) attributes {noinline = false} {
    %cst = arith.constant dense<0.000000e+00> : tensor<32x32xf32> loc(#loc1)
    %c27_i32 = arith.constant 27 : i32 loc(#loc1)
    %c28_i32 = arith.constant 28 : i32 loc(#loc1)
    %cst_0 = arith.constant dense<32> : tensor<32x1xi32> loc(#loc1)
    %c32_i32 = arith.constant 32 : i32 loc(#loc1)
    %c2_i32 = arith.constant 2 : i32 loc(#loc1)
    %0 = tt.get_program_id x : i32 loc(#loc2)
    %1 = arith.muli %arg6, %c2_i32 : i32 loc(#loc3)
    %2 = arith.subi %arg3, %1 : i32 loc(#loc4)
    %3 = arith.addi %2, %c27_i32 : i32 loc(#loc58)
    %4 = arith.divsi %3, %c28_i32 : i32 loc(#loc59)
    %5 = arith.divsi %0, %4 : i32 loc(#loc8)
    %6 = arith.remsi %0, %4 : i32 loc(#loc9)
    %7 = tt.make_range {end = 32 : i32, start = 0 : i32} : tensor<32xi32> loc(#loc10)
    %8 = tt.expand_dims %7 {axis = 1 : i32} : tensor<32xi32> -> tensor<32x1xi32> loc(#loc11)
    %9 = arith.muli %8, %cst_0 : tensor<32x1xi32> loc(#loc12)
    %10 = tt.make_range {end = 32 : i32, start = 0 : i32} : tensor<32xi32> loc(#loc13)
    %11 = tt.expand_dims %10 {axis = 0 : i32} : tensor<32xi32> -> tensor<1x32xi32> loc(#loc14)
    %12 = tt.broadcast %9 : tensor<32x1xi32> -> tensor<32x32xi32> loc(#loc14)
    %13 = tt.broadcast %11 : tensor<1x32xi32> -> tensor<32x32xi32> loc(#loc14)
    %14 = arith.addi %12, %13 : tensor<32x32xi32> loc(#loc14)
    %15 = tt.splat %arg4 : !tt.ptr<f16> -> tensor<32x32x!tt.ptr<f16>> loc(#loc15)
    %16 = tt.addptr %15, %14 : tensor<32x32x!tt.ptr<f16>>, tensor<32x32xi32> loc(#loc15)
    %17 = tt.load %16 : tensor<32x32x!tt.ptr<f16>> loc(#loc16)
    %18 = tt.make_range {end = 32 : i32, start = 0 : i32} : tensor<32xi32> loc(#loc17)
    %19 = tt.expand_dims %18 {axis = 1 : i32} : tensor<32xi32> -> tensor<32x1xi32> loc(#loc18)
    %20 = arith.muli %19, %cst_0 : tensor<32x1xi32> loc(#loc19)
    %21 = tt.make_range {end = 32 : i32, start = 0 : i32} : tensor<32xi32> loc(#loc20)
    %22 = tt.expand_dims %21 {axis = 0 : i32} : tensor<32xi32> -> tensor<1x32xi32> loc(#loc21)
    %23 = tt.broadcast %20 : tensor<32x1xi32> -> tensor<32x32xi32> loc(#loc21)
    %24 = tt.broadcast %22 : tensor<1x32xi32> -> tensor<32x32xi32> loc(#loc21)
    %25 = arith.addi %23, %24 : tensor<32x32xi32> loc(#loc21)
    %26 = tt.splat %arg5 : !tt.ptr<f16> -> tensor<32x32x!tt.ptr<f16>> loc(#loc22)
    %27 = tt.addptr %26, %25 : tensor<32x32x!tt.ptr<f16>>, tensor<32x32xi32> loc(#loc22)
    %28 = tt.load %27 : tensor<32x32x!tt.ptr<f16>> loc(#loc23)
    %29 = arith.muli %5, %c28_i32 : i32 loc(#loc24)
    %30 = tt.make_range {end = 32 : i32, start = 0 : i32} : tensor<32xi32> loc(#loc25)
    %31 = tt.splat %29 : i32 -> tensor<32xi32> loc(#loc26)
    %32 = arith.addi %31, %30 : tensor<32xi32> loc(#loc26)
    %33 = arith.muli %6, %c28_i32 : i32 loc(#loc27)
    %34 = tt.make_range {end = 32 : i32, start = 0 : i32} : tensor<32xi32> loc(#loc28)
    %35 = tt.splat %33 : i32 -> tensor<32xi32> loc(#loc29)
    %36 = arith.addi %35, %34 : tensor<32xi32> loc(#loc29)
    %37 = tt.expand_dims %32 {axis = 1 : i32} : tensor<32xi32> -> tensor<32x1xi32> loc(#loc30)
    %38 = tt.splat %arg3 : i32 -> tensor<32x1xi32> loc(#loc31)
    %39 = arith.muli %37, %38 : tensor<32x1xi32> loc(#loc31)
    %40 = tt.expand_dims %36 {axis = 0 : i32} : tensor<32xi32> -> tensor<1x32xi32> loc(#loc32)
    %41 = tt.broadcast %39 : tensor<32x1xi32> -> tensor<32x32xi32> loc(#loc32)
    %42 = tt.broadcast %40 : tensor<1x32xi32> -> tensor<32x32xi32> loc(#loc32)
    %43 = arith.addi %41, %42 : tensor<32x32xi32> loc(#loc32)
    %44 = tt.splat %arg0 : !tt.ptr<f16> -> tensor<32x32x!tt.ptr<f16>> loc(#loc33)
    %45 = tt.addptr %44, %43 : tensor<32x32x!tt.ptr<f16>>, tensor<32x32xi32> loc(#loc33)
    %46 = tt.load %45 : tensor<32x32x!tt.ptr<f16>> loc(#loc34)
    %47 = tt.dot %46, %17, %cst, inputPrecision = tf32 : tensor<32x32xf16> * tensor<32x32xf16> -> tensor<32x32xf32> loc(#loc35)
    %48 = tt.dot %28, %46, %47, inputPrecision = tf32 : tensor<32x32xf16> * tensor<32x32xf16> -> tensor<32x32xf32> loc(#loc36)
    %49 = tt.expand_dims %32 {axis = 1 : i32} : tensor<32xi32> -> tensor<32x1xi32> loc(#loc37)
    %50 = tt.splat %arg3 : i32 -> tensor<32x1xi32> loc(#loc38)
    %51 = arith.muli %49, %50 : tensor<32x1xi32> loc(#loc38)
    %52 = tt.expand_dims %36 {axis = 0 : i32} : tensor<32xi32> -> tensor<1x32xi32> loc(#loc39)
    %53 = tt.broadcast %51 : tensor<32x1xi32> -> tensor<32x32xi32> loc(#loc39)
    %54 = tt.broadcast %52 : tensor<1x32xi32> -> tensor<32x32xi32> loc(#loc39)
    %55 = arith.addi %53, %54 : tensor<32x32xi32> loc(#loc39)
    %56 = tt.splat %arg1 : !tt.ptr<f16> -> tensor<32x32x!tt.ptr<f16>> loc(#loc40)
    %57 = tt.addptr %56, %55 : tensor<32x32x!tt.ptr<f16>>, tensor<32x32xi32> loc(#loc40)
    %58 = tt.make_range {end = 32 : i32, start = 0 : i32} : tensor<32xi32> loc(#loc41)
    %59 = tt.make_range {end = 32 : i32, start = 0 : i32} : tensor<32xi32> loc(#loc42)
    %60 = tt.splat %arg6 : i32 -> tensor<32xi32> loc(#loc43)
    %61 = arith.cmpi sge, %58, %60 : tensor<32xi32> loc(#loc43)
    %62 = tt.expand_dims %61 {axis = 1 : i32} : tensor<32xi1> -> tensor<32x1xi1> loc(#loc44)
    %63 = arith.subi %c32_i32, %arg6 : i32 loc(#loc45)
    %64 = tt.splat %63 : i32 -> tensor<32xi32> loc(#loc46)
    %65 = arith.cmpi slt, %58, %64 : tensor<32xi32> loc(#loc46)
    %66 = tt.expand_dims %65 {axis = 1 : i32} : tensor<32xi1> -> tensor<32x1xi1> loc(#loc47)
    %67 = arith.andi %62, %66 : tensor<32x1xi1> loc(#loc48)
    %68 = tt.splat %arg6 : i32 -> tensor<32xi32> loc(#loc49)
    %69 = arith.cmpi sge, %59, %68 : tensor<32xi32> loc(#loc49)
    %70 = tt.expand_dims %69 {axis = 0 : i32} : tensor<32xi1> -> tensor<1x32xi1> loc(#loc50)
    %71 = tt.broadcast %67 : tensor<32x1xi1> -> tensor<32x32xi1> loc(#loc51)
    %72 = tt.broadcast %70 : tensor<1x32xi1> -> tensor<32x32xi1> loc(#loc51)
    %73 = arith.andi %71, %72 : tensor<32x32xi1> loc(#loc51)
    %74 = arith.subi %c32_i32, %arg6 : i32 loc(#loc52)
    %75 = tt.splat %74 : i32 -> tensor<32xi32> loc(#loc53)
    %76 = arith.cmpi slt, %59, %75 : tensor<32xi32> loc(#loc53)
    %77 = tt.expand_dims %76 {axis = 0 : i32} : tensor<32xi1> -> tensor<1x32xi1> loc(#loc54)
    %78 = tt.broadcast %77 : tensor<1x32xi1> -> tensor<32x32xi1> loc(#loc55)
    %79 = arith.andi %73, %78 : tensor<32x32xi1> loc(#loc55)
    %80 = arith.truncf %48 : tensor<32x32xf32> to tensor<32x32xf16> loc(#loc56)
    tt.store %57, %80, %79 : tensor<32x32x!tt.ptr<f16>> loc(#loc56)
    tt.return loc(#loc57)
  } loc(#loc)
} loc(#loc)
#loc1 = loc(unknown)
#loc2 = loc("2d9pt_tcstencil.py":34:10)
#loc3 = loc("2d9pt_tcstencil.py":36:28)
#loc4 = loc("2d9pt_tcstencil.py":36:26)
#loc5 = loc("/usr/local/lib/python3.8/dist-packages/triton/language/standard.py":44:22)
#loc6 = loc("2d9pt_tcstencil.py":36:31)
#loc7 = loc("/usr/local/lib/python3.8/dist-packages/triton/language/standard.py":44:28)
#loc8 = loc("2d9pt_tcstencil.py":38:19)
#loc9 = loc("2d9pt_tcstencil.py":39:18)
#loc10 = loc("2d9pt_tcstencil.py":43:45)
#loc11 = loc("2d9pt_tcstencil.py":43:32)
#loc12 = loc("2d9pt_tcstencil.py":43:68)
#loc13 = loc("2d9pt_tcstencil.py":43:96)
#loc14 = loc("2d9pt_tcstencil.py":43:83)
#loc15 = loc("2d9pt_tcstencil.py":43:31)
#loc16 = loc("2d9pt_tcstencil.py":44:26)
#loc17 = loc("2d9pt_tcstencil.py":46:45)
#loc18 = loc("2d9pt_tcstencil.py":46:32)
#loc19 = loc("2d9pt_tcstencil.py":46:68)
#loc20 = loc("2d9pt_tcstencil.py":46:96)
#loc21 = loc("2d9pt_tcstencil.py":46:83)
#loc22 = loc("2d9pt_tcstencil.py":46:31)
#loc23 = loc("2d9pt_tcstencil.py":47:26)
#loc24 = loc("2d9pt_tcstencil.py":50:22)
#loc25 = loc("2d9pt_tcstencil.py":50:50)
#loc26 = loc("2d9pt_tcstencil.py":50:37)
#loc27 = loc("2d9pt_tcstencil.py":51:22)
#loc28 = loc("2d9pt_tcstencil.py":51:50)
#loc29 = loc("2d9pt_tcstencil.py":51:37)
#loc30 = loc("2d9pt_tcstencil.py":52:19)
#loc31 = loc("2d9pt_tcstencil.py":52:36)
#loc32 = loc("2d9pt_tcstencil.py":52:40)
#loc33 = loc("2d9pt_tcstencil.py":52:18)
#loc34 = loc("2d9pt_tcstencil.py":53:21)
#loc35 = loc("2d9pt_tcstencil.py":57:46)
#loc36 = loc("2d9pt_tcstencil.py":58:46)
#loc37 = loc("2d9pt_tcstencil.py":60:19)
#loc38 = loc("2d9pt_tcstencil.py":60:36)
#loc39 = loc("2d9pt_tcstencil.py":60:40)
#loc40 = loc("2d9pt_tcstencil.py":60:18)
#loc41 = loc("2d9pt_tcstencil.py":61:24)
#loc42 = loc("2d9pt_tcstencil.py":62:24)
#loc43 = loc("2d9pt_tcstencil.py":64:48)
#loc44 = loc("2d9pt_tcstencil.py":64:42)
#loc45 = loc("2d9pt_tcstencil.py":64:81)
#loc46 = loc("2d9pt_tcstencil.py":64:68)
#loc47 = loc("2d9pt_tcstencil.py":64:62)
#loc48 = loc("2d9pt_tcstencil.py":64:61)
#loc49 = loc("2d9pt_tcstencil.py":64:102)
#loc50 = loc("2d9pt_tcstencil.py":64:96)
#loc51 = loc("2d9pt_tcstencil.py":64:95)
#loc52 = loc("2d9pt_tcstencil.py":64:135)
#loc53 = loc("2d9pt_tcstencil.py":64:122)
#loc54 = loc("2d9pt_tcstencil.py":64:116)
#loc55 = loc("2d9pt_tcstencil.py":64:115)
#loc56 = loc("2d9pt_tcstencil.py":64:21)
#loc57 = loc("2d9pt_tcstencil.py":64:4)
#loc58 = loc(callsite(#loc5 at #loc6))
#loc59 = loc(callsite(#loc7 at #loc6))


// -----// IR Dump Before Canonicalizer (canonicalize) ('builtin.module' operation) //----- //
#loc = loc("2d9pt_tcstencil.py":18:0)
module {
  tt.func public @stencil_kernel(%arg0: !tt.ptr<f16> {tt.divisibility = 16 : i32} loc("2d9pt_tcstencil.py":18:0), %arg1: !tt.ptr<f16> {tt.divisibility = 16 : i32} loc("2d9pt_tcstencil.py":18:0), %arg2: i32 loc("2d9pt_tcstencil.py":18:0), %arg3: i32 loc("2d9pt_tcstencil.py":18:0), %arg4: !tt.ptr<f16> {tt.divisibility = 16 : i32} loc("2d9pt_tcstencil.py":18:0), %arg5: !tt.ptr<f16> {tt.divisibility = 16 : i32} loc("2d9pt_tcstencil.py":18:0), %arg6: i32 loc("2d9pt_tcstencil.py":18:0)) attributes {noinline = false} {
    %cst = arith.constant dense<0.000000e+00> : tensor<32x32xf32> loc(#loc1)
    %c27_i32 = arith.constant 27 : i32 loc(#loc1)
    %c28_i32 = arith.constant 28 : i32 loc(#loc1)
    %cst_0 = arith.constant dense<32> : tensor<32x1xi32> loc(#loc1)
    %c32_i32 = arith.constant 32 : i32 loc(#loc1)
    %c2_i32 = arith.constant 2 : i32 loc(#loc1)
    %0 = tt.get_program_id x : i32 loc(#loc2)
    %1 = arith.muli %arg6, %c2_i32 : i32 loc(#loc3)
    %2 = arith.subi %arg3, %1 : i32 loc(#loc4)
    %3 = arith.addi %2, %c27_i32 : i32 loc(#loc58)
    %4 = arith.divsi %3, %c28_i32 : i32 loc(#loc59)
    %5 = arith.divsi %0, %4 : i32 loc(#loc8)
    %6 = arith.remsi %0, %4 : i32 loc(#loc9)
    %7 = tt.make_range {end = 32 : i32, start = 0 : i32} : tensor<32xi32> loc(#loc10)
    %8 = tt.expand_dims %7 {axis = 1 : i32} : tensor<32xi32> -> tensor<32x1xi32> loc(#loc11)
    %9 = arith.muli %8, %cst_0 : tensor<32x1xi32> loc(#loc12)
    %10 = tt.make_range {end = 32 : i32, start = 0 : i32} : tensor<32xi32> loc(#loc13)
    %11 = tt.expand_dims %10 {axis = 0 : i32} : tensor<32xi32> -> tensor<1x32xi32> loc(#loc14)
    %12 = tt.broadcast %9 : tensor<32x1xi32> -> tensor<32x32xi32> loc(#loc14)
    %13 = tt.broadcast %11 : tensor<1x32xi32> -> tensor<32x32xi32> loc(#loc14)
    %14 = arith.addi %12, %13 : tensor<32x32xi32> loc(#loc14)
    %15 = tt.splat %arg4 : !tt.ptr<f16> -> tensor<32x32x!tt.ptr<f16>> loc(#loc15)
    %16 = tt.addptr %15, %14 : tensor<32x32x!tt.ptr<f16>>, tensor<32x32xi32> loc(#loc15)
    %17 = tt.load %16 : tensor<32x32x!tt.ptr<f16>> loc(#loc16)
    %18 = tt.make_range {end = 32 : i32, start = 0 : i32} : tensor<32xi32> loc(#loc17)
    %19 = tt.expand_dims %18 {axis = 1 : i32} : tensor<32xi32> -> tensor<32x1xi32> loc(#loc18)
    %20 = arith.muli %19, %cst_0 : tensor<32x1xi32> loc(#loc19)
    %21 = tt.make_range {end = 32 : i32, start = 0 : i32} : tensor<32xi32> loc(#loc20)
    %22 = tt.expand_dims %21 {axis = 0 : i32} : tensor<32xi32> -> tensor<1x32xi32> loc(#loc21)
    %23 = tt.broadcast %20 : tensor<32x1xi32> -> tensor<32x32xi32> loc(#loc21)
    %24 = tt.broadcast %22 : tensor<1x32xi32> -> tensor<32x32xi32> loc(#loc21)
    %25 = arith.addi %23, %24 : tensor<32x32xi32> loc(#loc21)
    %26 = tt.splat %arg5 : !tt.ptr<f16> -> tensor<32x32x!tt.ptr<f16>> loc(#loc22)
    %27 = tt.addptr %26, %25 : tensor<32x32x!tt.ptr<f16>>, tensor<32x32xi32> loc(#loc22)
    %28 = tt.load %27 : tensor<32x32x!tt.ptr<f16>> loc(#loc23)
    %29 = arith.muli %5, %c28_i32 : i32 loc(#loc24)
    %30 = tt.make_range {end = 32 : i32, start = 0 : i32} : tensor<32xi32> loc(#loc25)
    %31 = tt.splat %29 : i32 -> tensor<32xi32> loc(#loc26)
    %32 = arith.addi %31, %30 : tensor<32xi32> loc(#loc26)
    %33 = arith.muli %6, %c28_i32 : i32 loc(#loc27)
    %34 = tt.make_range {end = 32 : i32, start = 0 : i32} : tensor<32xi32> loc(#loc28)
    %35 = tt.splat %33 : i32 -> tensor<32xi32> loc(#loc29)
    %36 = arith.addi %35, %34 : tensor<32xi32> loc(#loc29)
    %37 = tt.expand_dims %32 {axis = 1 : i32} : tensor<32xi32> -> tensor<32x1xi32> loc(#loc30)
    %38 = tt.splat %arg3 : i32 -> tensor<32x1xi32> loc(#loc31)
    %39 = arith.muli %37, %38 : tensor<32x1xi32> loc(#loc31)
    %40 = tt.expand_dims %36 {axis = 0 : i32} : tensor<32xi32> -> tensor<1x32xi32> loc(#loc32)
    %41 = tt.broadcast %39 : tensor<32x1xi32> -> tensor<32x32xi32> loc(#loc32)
    %42 = tt.broadcast %40 : tensor<1x32xi32> -> tensor<32x32xi32> loc(#loc32)
    %43 = arith.addi %41, %42 : tensor<32x32xi32> loc(#loc32)
    %44 = tt.splat %arg0 : !tt.ptr<f16> -> tensor<32x32x!tt.ptr<f16>> loc(#loc33)
    %45 = tt.addptr %44, %43 : tensor<32x32x!tt.ptr<f16>>, tensor<32x32xi32> loc(#loc33)
    %46 = tt.load %45 : tensor<32x32x!tt.ptr<f16>> loc(#loc34)
    %47 = tt.dot %46, %17, %cst, inputPrecision = tf32 : tensor<32x32xf16> * tensor<32x32xf16> -> tensor<32x32xf32> loc(#loc35)
    %48 = tt.dot %28, %46, %47, inputPrecision = tf32 : tensor<32x32xf16> * tensor<32x32xf16> -> tensor<32x32xf32> loc(#loc36)
    %49 = tt.expand_dims %32 {axis = 1 : i32} : tensor<32xi32> -> tensor<32x1xi32> loc(#loc37)
    %50 = tt.splat %arg3 : i32 -> tensor<32x1xi32> loc(#loc38)
    %51 = arith.muli %49, %50 : tensor<32x1xi32> loc(#loc38)
    %52 = tt.expand_dims %36 {axis = 0 : i32} : tensor<32xi32> -> tensor<1x32xi32> loc(#loc39)
    %53 = tt.broadcast %51 : tensor<32x1xi32> -> tensor<32x32xi32> loc(#loc39)
    %54 = tt.broadcast %52 : tensor<1x32xi32> -> tensor<32x32xi32> loc(#loc39)
    %55 = arith.addi %53, %54 : tensor<32x32xi32> loc(#loc39)
    %56 = tt.splat %arg1 : !tt.ptr<f16> -> tensor<32x32x!tt.ptr<f16>> loc(#loc40)
    %57 = tt.addptr %56, %55 : tensor<32x32x!tt.ptr<f16>>, tensor<32x32xi32> loc(#loc40)
    %58 = tt.make_range {end = 32 : i32, start = 0 : i32} : tensor<32xi32> loc(#loc41)
    %59 = tt.make_range {end = 32 : i32, start = 0 : i32} : tensor<32xi32> loc(#loc42)
    %60 = tt.splat %arg6 : i32 -> tensor<32xi32> loc(#loc43)
    %61 = arith.cmpi sge, %58, %60 : tensor<32xi32> loc(#loc43)
    %62 = tt.expand_dims %61 {axis = 1 : i32} : tensor<32xi1> -> tensor<32x1xi1> loc(#loc44)
    %63 = arith.subi %c32_i32, %arg6 : i32 loc(#loc45)
    %64 = tt.splat %63 : i32 -> tensor<32xi32> loc(#loc46)
    %65 = arith.cmpi slt, %58, %64 : tensor<32xi32> loc(#loc46)
    %66 = tt.expand_dims %65 {axis = 1 : i32} : tensor<32xi1> -> tensor<32x1xi1> loc(#loc47)
    %67 = arith.andi %62, %66 : tensor<32x1xi1> loc(#loc48)
    %68 = tt.splat %arg6 : i32 -> tensor<32xi32> loc(#loc49)
    %69 = arith.cmpi sge, %59, %68 : tensor<32xi32> loc(#loc49)
    %70 = tt.expand_dims %69 {axis = 0 : i32} : tensor<32xi1> -> tensor<1x32xi1> loc(#loc50)
    %71 = tt.broadcast %67 : tensor<32x1xi1> -> tensor<32x32xi1> loc(#loc51)
    %72 = tt.broadcast %70 : tensor<1x32xi1> -> tensor<32x32xi1> loc(#loc51)
    %73 = arith.andi %71, %72 : tensor<32x32xi1> loc(#loc51)
    %74 = arith.subi %c32_i32, %arg6 : i32 loc(#loc52)
    %75 = tt.splat %74 : i32 -> tensor<32xi32> loc(#loc53)
    %76 = arith.cmpi slt, %59, %75 : tensor<32xi32> loc(#loc53)
    %77 = tt.expand_dims %76 {axis = 0 : i32} : tensor<32xi1> -> tensor<1x32xi1> loc(#loc54)
    %78 = tt.broadcast %77 : tensor<1x32xi1> -> tensor<32x32xi1> loc(#loc55)
    %79 = arith.andi %73, %78 : tensor<32x32xi1> loc(#loc55)
    %80 = arith.truncf %48 : tensor<32x32xf32> to tensor<32x32xf16> loc(#loc56)
    tt.store %57, %80, %79 : tensor<32x32x!tt.ptr<f16>> loc(#loc56)
    tt.return loc(#loc57)
  } loc(#loc)
} loc(#loc)
#loc1 = loc(unknown)
#loc2 = loc("2d9pt_tcstencil.py":34:10)
#loc3 = loc("2d9pt_tcstencil.py":36:28)
#loc4 = loc("2d9pt_tcstencil.py":36:26)
#loc5 = loc("/usr/local/lib/python3.8/dist-packages/triton/language/standard.py":44:22)
#loc6 = loc("2d9pt_tcstencil.py":36:31)
#loc7 = loc("/usr/local/lib/python3.8/dist-packages/triton/language/standard.py":44:28)
#loc8 = loc("2d9pt_tcstencil.py":38:19)
#loc9 = loc("2d9pt_tcstencil.py":39:18)
#loc10 = loc("2d9pt_tcstencil.py":43:45)
#loc11 = loc("2d9pt_tcstencil.py":43:32)
#loc12 = loc("2d9pt_tcstencil.py":43:68)
#loc13 = loc("2d9pt_tcstencil.py":43:96)
#loc14 = loc("2d9pt_tcstencil.py":43:83)
#loc15 = loc("2d9pt_tcstencil.py":43:31)
#loc16 = loc("2d9pt_tcstencil.py":44:26)
#loc17 = loc("2d9pt_tcstencil.py":46:45)
#loc18 = loc("2d9pt_tcstencil.py":46:32)
#loc19 = loc("2d9pt_tcstencil.py":46:68)
#loc20 = loc("2d9pt_tcstencil.py":46:96)
#loc21 = loc("2d9pt_tcstencil.py":46:83)
#loc22 = loc("2d9pt_tcstencil.py":46:31)
#loc23 = loc("2d9pt_tcstencil.py":47:26)
#loc24 = loc("2d9pt_tcstencil.py":50:22)
#loc25 = loc("2d9pt_tcstencil.py":50:50)
#loc26 = loc("2d9pt_tcstencil.py":50:37)
#loc27 = loc("2d9pt_tcstencil.py":51:22)
#loc28 = loc("2d9pt_tcstencil.py":51:50)
#loc29 = loc("2d9pt_tcstencil.py":51:37)
#loc30 = loc("2d9pt_tcstencil.py":52:19)
#loc31 = loc("2d9pt_tcstencil.py":52:36)
#loc32 = loc("2d9pt_tcstencil.py":52:40)
#loc33 = loc("2d9pt_tcstencil.py":52:18)
#loc34 = loc("2d9pt_tcstencil.py":53:21)
#loc35 = loc("2d9pt_tcstencil.py":57:46)
#loc36 = loc("2d9pt_tcstencil.py":58:46)
#loc37 = loc("2d9pt_tcstencil.py":60:19)
#loc38 = loc("2d9pt_tcstencil.py":60:36)
#loc39 = loc("2d9pt_tcstencil.py":60:40)
#loc40 = loc("2d9pt_tcstencil.py":60:18)
#loc41 = loc("2d9pt_tcstencil.py":61:24)
#loc42 = loc("2d9pt_tcstencil.py":62:24)
#loc43 = loc("2d9pt_tcstencil.py":64:48)
#loc44 = loc("2d9pt_tcstencil.py":64:42)
#loc45 = loc("2d9pt_tcstencil.py":64:81)
#loc46 = loc("2d9pt_tcstencil.py":64:68)
#loc47 = loc("2d9pt_tcstencil.py":64:62)
#loc48 = loc("2d9pt_tcstencil.py":64:61)
#loc49 = loc("2d9pt_tcstencil.py":64:102)
#loc50 = loc("2d9pt_tcstencil.py":64:96)
#loc51 = loc("2d9pt_tcstencil.py":64:95)
#loc52 = loc("2d9pt_tcstencil.py":64:135)
#loc53 = loc("2d9pt_tcstencil.py":64:122)
#loc54 = loc("2d9pt_tcstencil.py":64:116)
#loc55 = loc("2d9pt_tcstencil.py":64:115)
#loc56 = loc("2d9pt_tcstencil.py":64:21)
#loc57 = loc("2d9pt_tcstencil.py":64:4)
#loc58 = loc(callsite(#loc5 at #loc6))
#loc59 = loc(callsite(#loc7 at #loc6))


// -----// IR Dump Before TritonReorderBroadcast (triton-reorder-broadcast) ('builtin.module' operation) //----- //
#loc = loc("2d9pt_tcstencil.py":18:0)
module {
  tt.func public @stencil_kernel(%arg0: !tt.ptr<f16> {tt.divisibility = 16 : i32} loc("2d9pt_tcstencil.py":18:0), %arg1: !tt.ptr<f16> {tt.divisibility = 16 : i32} loc("2d9pt_tcstencil.py":18:0), %arg2: i32 loc("2d9pt_tcstencil.py":18:0), %arg3: i32 loc("2d9pt_tcstencil.py":18:0), %arg4: !tt.ptr<f16> {tt.divisibility = 16 : i32} loc("2d9pt_tcstencil.py":18:0), %arg5: !tt.ptr<f16> {tt.divisibility = 16 : i32} loc("2d9pt_tcstencil.py":18:0), %arg6: i32 loc("2d9pt_tcstencil.py":18:0)) attributes {noinline = false} {
    %cst = arith.constant dense<0.000000e+00> : tensor<32x32xf32> loc(#loc1)
    %c27_i32 = arith.constant 27 : i32 loc(#loc1)
    %c28_i32 = arith.constant 28 : i32 loc(#loc1)
    %cst_0 = arith.constant dense<32> : tensor<32x1xi32> loc(#loc1)
    %c32_i32 = arith.constant 32 : i32 loc(#loc1)
    %c2_i32 = arith.constant 2 : i32 loc(#loc1)
    %0 = tt.get_program_id x : i32 loc(#loc2)
    %1 = arith.muli %arg6, %c2_i32 : i32 loc(#loc3)
    %2 = arith.subi %arg3, %1 : i32 loc(#loc4)
    %3 = arith.addi %2, %c27_i32 : i32 loc(#loc58)
    %4 = arith.divsi %3, %c28_i32 : i32 loc(#loc59)
    %5 = arith.divsi %0, %4 : i32 loc(#loc8)
    %6 = arith.remsi %0, %4 : i32 loc(#loc9)
    %7 = tt.make_range {end = 32 : i32, start = 0 : i32} : tensor<32xi32> loc(#loc10)
    %8 = tt.expand_dims %7 {axis = 1 : i32} : tensor<32xi32> -> tensor<32x1xi32> loc(#loc11)
    %9 = arith.muli %8, %cst_0 : tensor<32x1xi32> loc(#loc12)
    %10 = tt.make_range {end = 32 : i32, start = 0 : i32} : tensor<32xi32> loc(#loc13)
    %11 = tt.expand_dims %10 {axis = 0 : i32} : tensor<32xi32> -> tensor<1x32xi32> loc(#loc14)
    %12 = tt.broadcast %9 : tensor<32x1xi32> -> tensor<32x32xi32> loc(#loc14)
    %13 = tt.broadcast %11 : tensor<1x32xi32> -> tensor<32x32xi32> loc(#loc14)
    %14 = arith.addi %12, %13 : tensor<32x32xi32> loc(#loc14)
    %15 = tt.splat %arg4 : !tt.ptr<f16> -> tensor<32x32x!tt.ptr<f16>> loc(#loc15)
    %16 = tt.addptr %15, %14 : tensor<32x32x!tt.ptr<f16>>, tensor<32x32xi32> loc(#loc15)
    %17 = tt.load %16 : tensor<32x32x!tt.ptr<f16>> loc(#loc16)
    %18 = tt.make_range {end = 32 : i32, start = 0 : i32} : tensor<32xi32> loc(#loc17)
    %19 = tt.expand_dims %18 {axis = 1 : i32} : tensor<32xi32> -> tensor<32x1xi32> loc(#loc18)
    %20 = arith.muli %19, %cst_0 : tensor<32x1xi32> loc(#loc19)
    %21 = tt.make_range {end = 32 : i32, start = 0 : i32} : tensor<32xi32> loc(#loc20)
    %22 = tt.expand_dims %21 {axis = 0 : i32} : tensor<32xi32> -> tensor<1x32xi32> loc(#loc21)
    %23 = tt.broadcast %20 : tensor<32x1xi32> -> tensor<32x32xi32> loc(#loc21)
    %24 = tt.broadcast %22 : tensor<1x32xi32> -> tensor<32x32xi32> loc(#loc21)
    %25 = arith.addi %23, %24 : tensor<32x32xi32> loc(#loc21)
    %26 = tt.splat %arg5 : !tt.ptr<f16> -> tensor<32x32x!tt.ptr<f16>> loc(#loc22)
    %27 = tt.addptr %26, %25 : tensor<32x32x!tt.ptr<f16>>, tensor<32x32xi32> loc(#loc22)
    %28 = tt.load %27 : tensor<32x32x!tt.ptr<f16>> loc(#loc23)
    %29 = arith.muli %5, %c28_i32 : i32 loc(#loc24)
    %30 = tt.make_range {end = 32 : i32, start = 0 : i32} : tensor<32xi32> loc(#loc25)
    %31 = tt.splat %29 : i32 -> tensor<32xi32> loc(#loc26)
    %32 = arith.addi %31, %30 : tensor<32xi32> loc(#loc26)
    %33 = arith.muli %6, %c28_i32 : i32 loc(#loc27)
    %34 = tt.make_range {end = 32 : i32, start = 0 : i32} : tensor<32xi32> loc(#loc28)
    %35 = tt.splat %33 : i32 -> tensor<32xi32> loc(#loc29)
    %36 = arith.addi %35, %34 : tensor<32xi32> loc(#loc29)
    %37 = tt.expand_dims %32 {axis = 1 : i32} : tensor<32xi32> -> tensor<32x1xi32> loc(#loc30)
    %38 = tt.splat %arg3 : i32 -> tensor<32x1xi32> loc(#loc31)
    %39 = arith.muli %37, %38 : tensor<32x1xi32> loc(#loc31)
    %40 = tt.expand_dims %36 {axis = 0 : i32} : tensor<32xi32> -> tensor<1x32xi32> loc(#loc32)
    %41 = tt.broadcast %39 : tensor<32x1xi32> -> tensor<32x32xi32> loc(#loc32)
    %42 = tt.broadcast %40 : tensor<1x32xi32> -> tensor<32x32xi32> loc(#loc32)
    %43 = arith.addi %41, %42 : tensor<32x32xi32> loc(#loc32)
    %44 = tt.splat %arg0 : !tt.ptr<f16> -> tensor<32x32x!tt.ptr<f16>> loc(#loc33)
    %45 = tt.addptr %44, %43 : tensor<32x32x!tt.ptr<f16>>, tensor<32x32xi32> loc(#loc33)
    %46 = tt.load %45 : tensor<32x32x!tt.ptr<f16>> loc(#loc34)
    %47 = tt.dot %46, %17, %cst, inputPrecision = tf32 : tensor<32x32xf16> * tensor<32x32xf16> -> tensor<32x32xf32> loc(#loc35)
    %48 = tt.dot %28, %46, %47, inputPrecision = tf32 : tensor<32x32xf16> * tensor<32x32xf16> -> tensor<32x32xf32> loc(#loc36)
    %49 = tt.expand_dims %32 {axis = 1 : i32} : tensor<32xi32> -> tensor<32x1xi32> loc(#loc37)
    %50 = tt.splat %arg3 : i32 -> tensor<32x1xi32> loc(#loc38)
    %51 = arith.muli %49, %50 : tensor<32x1xi32> loc(#loc38)
    %52 = tt.expand_dims %36 {axis = 0 : i32} : tensor<32xi32> -> tensor<1x32xi32> loc(#loc39)
    %53 = tt.broadcast %51 : tensor<32x1xi32> -> tensor<32x32xi32> loc(#loc39)
    %54 = tt.broadcast %52 : tensor<1x32xi32> -> tensor<32x32xi32> loc(#loc39)
    %55 = arith.addi %53, %54 : tensor<32x32xi32> loc(#loc39)
    %56 = tt.splat %arg1 : !tt.ptr<f16> -> tensor<32x32x!tt.ptr<f16>> loc(#loc40)
    %57 = tt.addptr %56, %55 : tensor<32x32x!tt.ptr<f16>>, tensor<32x32xi32> loc(#loc40)
    %58 = tt.make_range {end = 32 : i32, start = 0 : i32} : tensor<32xi32> loc(#loc41)
    %59 = tt.make_range {end = 32 : i32, start = 0 : i32} : tensor<32xi32> loc(#loc42)
    %60 = tt.splat %arg6 : i32 -> tensor<32xi32> loc(#loc43)
    %61 = arith.cmpi sge, %58, %60 : tensor<32xi32> loc(#loc43)
    %62 = tt.expand_dims %61 {axis = 1 : i32} : tensor<32xi1> -> tensor<32x1xi1> loc(#loc44)
    %63 = arith.subi %c32_i32, %arg6 : i32 loc(#loc45)
    %64 = tt.splat %63 : i32 -> tensor<32xi32> loc(#loc46)
    %65 = arith.cmpi slt, %58, %64 : tensor<32xi32> loc(#loc46)
    %66 = tt.expand_dims %65 {axis = 1 : i32} : tensor<32xi1> -> tensor<32x1xi1> loc(#loc47)
    %67 = arith.andi %62, %66 : tensor<32x1xi1> loc(#loc48)
    %68 = tt.splat %arg6 : i32 -> tensor<32xi32> loc(#loc49)
    %69 = arith.cmpi sge, %59, %68 : tensor<32xi32> loc(#loc49)
    %70 = tt.expand_dims %69 {axis = 0 : i32} : tensor<32xi1> -> tensor<1x32xi1> loc(#loc50)
    %71 = tt.broadcast %67 : tensor<32x1xi1> -> tensor<32x32xi1> loc(#loc51)
    %72 = tt.broadcast %70 : tensor<1x32xi1> -> tensor<32x32xi1> loc(#loc51)
    %73 = arith.andi %71, %72 : tensor<32x32xi1> loc(#loc51)
    %74 = arith.subi %c32_i32, %arg6 : i32 loc(#loc52)
    %75 = tt.splat %74 : i32 -> tensor<32xi32> loc(#loc53)
    %76 = arith.cmpi slt, %59, %75 : tensor<32xi32> loc(#loc53)
    %77 = tt.expand_dims %76 {axis = 0 : i32} : tensor<32xi1> -> tensor<1x32xi1> loc(#loc54)
    %78 = tt.broadcast %77 : tensor<1x32xi1> -> tensor<32x32xi1> loc(#loc55)
    %79 = arith.andi %73, %78 : tensor<32x32xi1> loc(#loc55)
    %80 = arith.truncf %48 : tensor<32x32xf32> to tensor<32x32xf16> loc(#loc56)
    tt.store %57, %80, %79 : tensor<32x32x!tt.ptr<f16>> loc(#loc56)
    tt.return loc(#loc57)
  } loc(#loc)
} loc(#loc)
#loc1 = loc(unknown)
#loc2 = loc("2d9pt_tcstencil.py":34:10)
#loc3 = loc("2d9pt_tcstencil.py":36:28)
#loc4 = loc("2d9pt_tcstencil.py":36:26)
#loc5 = loc("/usr/local/lib/python3.8/dist-packages/triton/language/standard.py":44:22)
#loc6 = loc("2d9pt_tcstencil.py":36:31)
#loc7 = loc("/usr/local/lib/python3.8/dist-packages/triton/language/standard.py":44:28)
#loc8 = loc("2d9pt_tcstencil.py":38:19)
#loc9 = loc("2d9pt_tcstencil.py":39:18)
#loc10 = loc("2d9pt_tcstencil.py":43:45)
#loc11 = loc("2d9pt_tcstencil.py":43:32)
#loc12 = loc("2d9pt_tcstencil.py":43:68)
#loc13 = loc("2d9pt_tcstencil.py":43:96)
#loc14 = loc("2d9pt_tcstencil.py":43:83)
#loc15 = loc("2d9pt_tcstencil.py":43:31)
#loc16 = loc("2d9pt_tcstencil.py":44:26)
#loc17 = loc("2d9pt_tcstencil.py":46:45)
#loc18 = loc("2d9pt_tcstencil.py":46:32)
#loc19 = loc("2d9pt_tcstencil.py":46:68)
#loc20 = loc("2d9pt_tcstencil.py":46:96)
#loc21 = loc("2d9pt_tcstencil.py":46:83)
#loc22 = loc("2d9pt_tcstencil.py":46:31)
#loc23 = loc("2d9pt_tcstencil.py":47:26)
#loc24 = loc("2d9pt_tcstencil.py":50:22)
#loc25 = loc("2d9pt_tcstencil.py":50:50)
#loc26 = loc("2d9pt_tcstencil.py":50:37)
#loc27 = loc("2d9pt_tcstencil.py":51:22)
#loc28 = loc("2d9pt_tcstencil.py":51:50)
#loc29 = loc("2d9pt_tcstencil.py":51:37)
#loc30 = loc("2d9pt_tcstencil.py":52:19)
#loc31 = loc("2d9pt_tcstencil.py":52:36)
#loc32 = loc("2d9pt_tcstencil.py":52:40)
#loc33 = loc("2d9pt_tcstencil.py":52:18)
#loc34 = loc("2d9pt_tcstencil.py":53:21)
#loc35 = loc("2d9pt_tcstencil.py":57:46)
#loc36 = loc("2d9pt_tcstencil.py":58:46)
#loc37 = loc("2d9pt_tcstencil.py":60:19)
#loc38 = loc("2d9pt_tcstencil.py":60:36)
#loc39 = loc("2d9pt_tcstencil.py":60:40)
#loc40 = loc("2d9pt_tcstencil.py":60:18)
#loc41 = loc("2d9pt_tcstencil.py":61:24)
#loc42 = loc("2d9pt_tcstencil.py":62:24)
#loc43 = loc("2d9pt_tcstencil.py":64:48)
#loc44 = loc("2d9pt_tcstencil.py":64:42)
#loc45 = loc("2d9pt_tcstencil.py":64:81)
#loc46 = loc("2d9pt_tcstencil.py":64:68)
#loc47 = loc("2d9pt_tcstencil.py":64:62)
#loc48 = loc("2d9pt_tcstencil.py":64:61)
#loc49 = loc("2d9pt_tcstencil.py":64:102)
#loc50 = loc("2d9pt_tcstencil.py":64:96)
#loc51 = loc("2d9pt_tcstencil.py":64:95)
#loc52 = loc("2d9pt_tcstencil.py":64:135)
#loc53 = loc("2d9pt_tcstencil.py":64:122)
#loc54 = loc("2d9pt_tcstencil.py":64:116)
#loc55 = loc("2d9pt_tcstencil.py":64:115)
#loc56 = loc("2d9pt_tcstencil.py":64:21)
#loc57 = loc("2d9pt_tcstencil.py":64:4)
#loc58 = loc(callsite(#loc5 at #loc6))
#loc59 = loc(callsite(#loc7 at #loc6))


// -----// IR Dump Before CSE (cse) ('builtin.module' operation) //----- //
#loc = loc("2d9pt_tcstencil.py":18:0)
module {
  tt.func public @stencil_kernel(%arg0: !tt.ptr<f16> {tt.divisibility = 16 : i32} loc("2d9pt_tcstencil.py":18:0), %arg1: !tt.ptr<f16> {tt.divisibility = 16 : i32} loc("2d9pt_tcstencil.py":18:0), %arg2: i32 loc("2d9pt_tcstencil.py":18:0), %arg3: i32 loc("2d9pt_tcstencil.py":18:0), %arg4: !tt.ptr<f16> {tt.divisibility = 16 : i32} loc("2d9pt_tcstencil.py":18:0), %arg5: !tt.ptr<f16> {tt.divisibility = 16 : i32} loc("2d9pt_tcstencil.py":18:0), %arg6: i32 loc("2d9pt_tcstencil.py":18:0)) attributes {noinline = false} {
    %cst = arith.constant dense<0.000000e+00> : tensor<32x32xf32> loc(#loc1)
    %c27_i32 = arith.constant 27 : i32 loc(#loc1)
    %c28_i32 = arith.constant 28 : i32 loc(#loc1)
    %cst_0 = arith.constant dense<32> : tensor<32x1xi32> loc(#loc1)
    %c32_i32 = arith.constant 32 : i32 loc(#loc1)
    %c2_i32 = arith.constant 2 : i32 loc(#loc1)
    %0 = tt.get_program_id x : i32 loc(#loc2)
    %1 = arith.muli %arg6, %c2_i32 : i32 loc(#loc3)
    %2 = arith.subi %arg3, %1 : i32 loc(#loc4)
    %3 = arith.addi %2, %c27_i32 : i32 loc(#loc58)
    %4 = arith.divsi %3, %c28_i32 : i32 loc(#loc59)
    %5 = arith.divsi %0, %4 : i32 loc(#loc8)
    %6 = arith.remsi %0, %4 : i32 loc(#loc9)
    %7 = tt.make_range {end = 32 : i32, start = 0 : i32} : tensor<32xi32> loc(#loc10)
    %8 = tt.expand_dims %7 {axis = 1 : i32} : tensor<32xi32> -> tensor<32x1xi32> loc(#loc11)
    %9 = arith.muli %8, %cst_0 : tensor<32x1xi32> loc(#loc12)
    %10 = tt.make_range {end = 32 : i32, start = 0 : i32} : tensor<32xi32> loc(#loc13)
    %11 = tt.expand_dims %10 {axis = 0 : i32} : tensor<32xi32> -> tensor<1x32xi32> loc(#loc14)
    %12 = tt.broadcast %9 : tensor<32x1xi32> -> tensor<32x32xi32> loc(#loc14)
    %13 = tt.broadcast %11 : tensor<1x32xi32> -> tensor<32x32xi32> loc(#loc14)
    %14 = arith.addi %12, %13 : tensor<32x32xi32> loc(#loc14)
    %15 = tt.splat %arg4 : !tt.ptr<f16> -> tensor<32x32x!tt.ptr<f16>> loc(#loc15)
    %16 = tt.addptr %15, %14 : tensor<32x32x!tt.ptr<f16>>, tensor<32x32xi32> loc(#loc15)
    %17 = tt.load %16 : tensor<32x32x!tt.ptr<f16>> loc(#loc16)
    %18 = tt.make_range {end = 32 : i32, start = 0 : i32} : tensor<32xi32> loc(#loc17)
    %19 = tt.expand_dims %18 {axis = 1 : i32} : tensor<32xi32> -> tensor<32x1xi32> loc(#loc18)
    %20 = arith.muli %19, %cst_0 : tensor<32x1xi32> loc(#loc19)
    %21 = tt.make_range {end = 32 : i32, start = 0 : i32} : tensor<32xi32> loc(#loc20)
    %22 = tt.expand_dims %21 {axis = 0 : i32} : tensor<32xi32> -> tensor<1x32xi32> loc(#loc21)
    %23 = tt.broadcast %20 : tensor<32x1xi32> -> tensor<32x32xi32> loc(#loc21)
    %24 = tt.broadcast %22 : tensor<1x32xi32> -> tensor<32x32xi32> loc(#loc21)
    %25 = arith.addi %23, %24 : tensor<32x32xi32> loc(#loc21)
    %26 = tt.splat %arg5 : !tt.ptr<f16> -> tensor<32x32x!tt.ptr<f16>> loc(#loc22)
    %27 = tt.addptr %26, %25 : tensor<32x32x!tt.ptr<f16>>, tensor<32x32xi32> loc(#loc22)
    %28 = tt.load %27 : tensor<32x32x!tt.ptr<f16>> loc(#loc23)
    %29 = arith.muli %5, %c28_i32 : i32 loc(#loc24)
    %30 = tt.make_range {end = 32 : i32, start = 0 : i32} : tensor<32xi32> loc(#loc25)
    %31 = tt.splat %29 : i32 -> tensor<32xi32> loc(#loc26)
    %32 = arith.addi %31, %30 : tensor<32xi32> loc(#loc26)
    %33 = arith.muli %6, %c28_i32 : i32 loc(#loc27)
    %34 = tt.make_range {end = 32 : i32, start = 0 : i32} : tensor<32xi32> loc(#loc28)
    %35 = tt.splat %33 : i32 -> tensor<32xi32> loc(#loc29)
    %36 = arith.addi %35, %34 : tensor<32xi32> loc(#loc29)
    %37 = tt.expand_dims %32 {axis = 1 : i32} : tensor<32xi32> -> tensor<32x1xi32> loc(#loc30)
    %38 = tt.splat %arg3 : i32 -> tensor<32x1xi32> loc(#loc31)
    %39 = arith.muli %37, %38 : tensor<32x1xi32> loc(#loc31)
    %40 = tt.expand_dims %36 {axis = 0 : i32} : tensor<32xi32> -> tensor<1x32xi32> loc(#loc32)
    %41 = tt.broadcast %39 : tensor<32x1xi32> -> tensor<32x32xi32> loc(#loc32)
    %42 = tt.broadcast %40 : tensor<1x32xi32> -> tensor<32x32xi32> loc(#loc32)
    %43 = arith.addi %41, %42 : tensor<32x32xi32> loc(#loc32)
    %44 = tt.splat %arg0 : !tt.ptr<f16> -> tensor<32x32x!tt.ptr<f16>> loc(#loc33)
    %45 = tt.addptr %44, %43 : tensor<32x32x!tt.ptr<f16>>, tensor<32x32xi32> loc(#loc33)
    %46 = tt.load %45 : tensor<32x32x!tt.ptr<f16>> loc(#loc34)
    %47 = tt.dot %46, %17, %cst, inputPrecision = tf32 : tensor<32x32xf16> * tensor<32x32xf16> -> tensor<32x32xf32> loc(#loc35)
    %48 = tt.dot %28, %46, %47, inputPrecision = tf32 : tensor<32x32xf16> * tensor<32x32xf16> -> tensor<32x32xf32> loc(#loc36)
    %49 = tt.expand_dims %32 {axis = 1 : i32} : tensor<32xi32> -> tensor<32x1xi32> loc(#loc37)
    %50 = tt.splat %arg3 : i32 -> tensor<32x1xi32> loc(#loc38)
    %51 = arith.muli %49, %50 : tensor<32x1xi32> loc(#loc38)
    %52 = tt.expand_dims %36 {axis = 0 : i32} : tensor<32xi32> -> tensor<1x32xi32> loc(#loc39)
    %53 = tt.broadcast %51 : tensor<32x1xi32> -> tensor<32x32xi32> loc(#loc39)
    %54 = tt.broadcast %52 : tensor<1x32xi32> -> tensor<32x32xi32> loc(#loc39)
    %55 = arith.addi %53, %54 : tensor<32x32xi32> loc(#loc39)
    %56 = tt.splat %arg1 : !tt.ptr<f16> -> tensor<32x32x!tt.ptr<f16>> loc(#loc40)
    %57 = tt.addptr %56, %55 : tensor<32x32x!tt.ptr<f16>>, tensor<32x32xi32> loc(#loc40)
    %58 = tt.make_range {end = 32 : i32, start = 0 : i32} : tensor<32xi32> loc(#loc41)
    %59 = tt.make_range {end = 32 : i32, start = 0 : i32} : tensor<32xi32> loc(#loc42)
    %60 = tt.splat %arg6 : i32 -> tensor<32xi32> loc(#loc43)
    %61 = arith.cmpi sge, %58, %60 : tensor<32xi32> loc(#loc43)
    %62 = tt.expand_dims %61 {axis = 1 : i32} : tensor<32xi1> -> tensor<32x1xi1> loc(#loc44)
    %63 = arith.subi %c32_i32, %arg6 : i32 loc(#loc45)
    %64 = tt.splat %63 : i32 -> tensor<32xi32> loc(#loc46)
    %65 = arith.cmpi slt, %58, %64 : tensor<32xi32> loc(#loc46)
    %66 = tt.expand_dims %65 {axis = 1 : i32} : tensor<32xi1> -> tensor<32x1xi1> loc(#loc47)
    %67 = arith.andi %62, %66 : tensor<32x1xi1> loc(#loc48)
    %68 = tt.splat %arg6 : i32 -> tensor<32xi32> loc(#loc49)
    %69 = arith.cmpi sge, %59, %68 : tensor<32xi32> loc(#loc49)
    %70 = tt.expand_dims %69 {axis = 0 : i32} : tensor<32xi1> -> tensor<1x32xi1> loc(#loc50)
    %71 = tt.broadcast %67 : tensor<32x1xi1> -> tensor<32x32xi1> loc(#loc51)
    %72 = tt.broadcast %70 : tensor<1x32xi1> -> tensor<32x32xi1> loc(#loc51)
    %73 = arith.andi %71, %72 : tensor<32x32xi1> loc(#loc51)
    %74 = arith.subi %c32_i32, %arg6 : i32 loc(#loc52)
    %75 = tt.splat %74 : i32 -> tensor<32xi32> loc(#loc53)
    %76 = arith.cmpi slt, %59, %75 : tensor<32xi32> loc(#loc53)
    %77 = tt.expand_dims %76 {axis = 0 : i32} : tensor<32xi1> -> tensor<1x32xi1> loc(#loc54)
    %78 = tt.broadcast %77 : tensor<1x32xi1> -> tensor<32x32xi1> loc(#loc55)
    %79 = arith.andi %73, %78 : tensor<32x32xi1> loc(#loc55)
    %80 = arith.truncf %48 : tensor<32x32xf32> to tensor<32x32xf16> loc(#loc56)
    tt.store %57, %80, %79 : tensor<32x32x!tt.ptr<f16>> loc(#loc56)
    tt.return loc(#loc57)
  } loc(#loc)
} loc(#loc)
#loc1 = loc(unknown)
#loc2 = loc("2d9pt_tcstencil.py":34:10)
#loc3 = loc("2d9pt_tcstencil.py":36:28)
#loc4 = loc("2d9pt_tcstencil.py":36:26)
#loc5 = loc("/usr/local/lib/python3.8/dist-packages/triton/language/standard.py":44:22)
#loc6 = loc("2d9pt_tcstencil.py":36:31)
#loc7 = loc("/usr/local/lib/python3.8/dist-packages/triton/language/standard.py":44:28)
#loc8 = loc("2d9pt_tcstencil.py":38:19)
#loc9 = loc("2d9pt_tcstencil.py":39:18)
#loc10 = loc("2d9pt_tcstencil.py":43:45)
#loc11 = loc("2d9pt_tcstencil.py":43:32)
#loc12 = loc("2d9pt_tcstencil.py":43:68)
#loc13 = loc("2d9pt_tcstencil.py":43:96)
#loc14 = loc("2d9pt_tcstencil.py":43:83)
#loc15 = loc("2d9pt_tcstencil.py":43:31)
#loc16 = loc("2d9pt_tcstencil.py":44:26)
#loc17 = loc("2d9pt_tcstencil.py":46:45)
#loc18 = loc("2d9pt_tcstencil.py":46:32)
#loc19 = loc("2d9pt_tcstencil.py":46:68)
#loc20 = loc("2d9pt_tcstencil.py":46:96)
#loc21 = loc("2d9pt_tcstencil.py":46:83)
#loc22 = loc("2d9pt_tcstencil.py":46:31)
#loc23 = loc("2d9pt_tcstencil.py":47:26)
#loc24 = loc("2d9pt_tcstencil.py":50:22)
#loc25 = loc("2d9pt_tcstencil.py":50:50)
#loc26 = loc("2d9pt_tcstencil.py":50:37)
#loc27 = loc("2d9pt_tcstencil.py":51:22)
#loc28 = loc("2d9pt_tcstencil.py":51:50)
#loc29 = loc("2d9pt_tcstencil.py":51:37)
#loc30 = loc("2d9pt_tcstencil.py":52:19)
#loc31 = loc("2d9pt_tcstencil.py":52:36)
#loc32 = loc("2d9pt_tcstencil.py":52:40)
#loc33 = loc("2d9pt_tcstencil.py":52:18)
#loc34 = loc("2d9pt_tcstencil.py":53:21)
#loc35 = loc("2d9pt_tcstencil.py":57:46)
#loc36 = loc("2d9pt_tcstencil.py":58:46)
#loc37 = loc("2d9pt_tcstencil.py":60:19)
#loc38 = loc("2d9pt_tcstencil.py":60:36)
#loc39 = loc("2d9pt_tcstencil.py":60:40)
#loc40 = loc("2d9pt_tcstencil.py":60:18)
#loc41 = loc("2d9pt_tcstencil.py":61:24)
#loc42 = loc("2d9pt_tcstencil.py":62:24)
#loc43 = loc("2d9pt_tcstencil.py":64:48)
#loc44 = loc("2d9pt_tcstencil.py":64:42)
#loc45 = loc("2d9pt_tcstencil.py":64:81)
#loc46 = loc("2d9pt_tcstencil.py":64:68)
#loc47 = loc("2d9pt_tcstencil.py":64:62)
#loc48 = loc("2d9pt_tcstencil.py":64:61)
#loc49 = loc("2d9pt_tcstencil.py":64:102)
#loc50 = loc("2d9pt_tcstencil.py":64:96)
#loc51 = loc("2d9pt_tcstencil.py":64:95)
#loc52 = loc("2d9pt_tcstencil.py":64:135)
#loc53 = loc("2d9pt_tcstencil.py":64:122)
#loc54 = loc("2d9pt_tcstencil.py":64:116)
#loc55 = loc("2d9pt_tcstencil.py":64:115)
#loc56 = loc("2d9pt_tcstencil.py":64:21)
#loc57 = loc("2d9pt_tcstencil.py":64:4)
#loc58 = loc(callsite(#loc5 at #loc6))
#loc59 = loc(callsite(#loc7 at #loc6))


// -----// IR Dump Before LoopInvariantCodeMotion (loop-invariant-code-motion) ('builtin.module' operation) //----- //
#loc = loc("2d9pt_tcstencil.py":18:0)
module {
  tt.func public @stencil_kernel(%arg0: !tt.ptr<f16> {tt.divisibility = 16 : i32} loc("2d9pt_tcstencil.py":18:0), %arg1: !tt.ptr<f16> {tt.divisibility = 16 : i32} loc("2d9pt_tcstencil.py":18:0), %arg2: i32 loc("2d9pt_tcstencil.py":18:0), %arg3: i32 loc("2d9pt_tcstencil.py":18:0), %arg4: !tt.ptr<f16> {tt.divisibility = 16 : i32} loc("2d9pt_tcstencil.py":18:0), %arg5: !tt.ptr<f16> {tt.divisibility = 16 : i32} loc("2d9pt_tcstencil.py":18:0), %arg6: i32 loc("2d9pt_tcstencil.py":18:0)) attributes {noinline = false} {
    %cst = arith.constant dense<0.000000e+00> : tensor<32x32xf32> loc(#loc1)
    %c27_i32 = arith.constant 27 : i32 loc(#loc1)
    %c28_i32 = arith.constant 28 : i32 loc(#loc1)
    %cst_0 = arith.constant dense<32> : tensor<32x1xi32> loc(#loc1)
    %c32_i32 = arith.constant 32 : i32 loc(#loc1)
    %c2_i32 = arith.constant 2 : i32 loc(#loc1)
    %0 = tt.get_program_id x : i32 loc(#loc2)
    %1 = arith.muli %arg6, %c2_i32 : i32 loc(#loc3)
    %2 = arith.subi %arg3, %1 : i32 loc(#loc4)
    %3 = arith.addi %2, %c27_i32 : i32 loc(#loc42)
    %4 = arith.divsi %3, %c28_i32 : i32 loc(#loc43)
    %5 = arith.divsi %0, %4 : i32 loc(#loc8)
    %6 = arith.remsi %0, %4 : i32 loc(#loc9)
    %7 = tt.make_range {end = 32 : i32, start = 0 : i32} : tensor<32xi32> loc(#loc10)
    %8 = tt.expand_dims %7 {axis = 1 : i32} : tensor<32xi32> -> tensor<32x1xi32> loc(#loc11)
    %9 = arith.muli %8, %cst_0 : tensor<32x1xi32> loc(#loc12)
    %10 = tt.expand_dims %7 {axis = 0 : i32} : tensor<32xi32> -> tensor<1x32xi32> loc(#loc13)
    %11 = tt.broadcast %9 : tensor<32x1xi32> -> tensor<32x32xi32> loc(#loc13)
    %12 = tt.broadcast %10 : tensor<1x32xi32> -> tensor<32x32xi32> loc(#loc13)
    %13 = arith.addi %11, %12 : tensor<32x32xi32> loc(#loc13)
    %14 = tt.splat %arg4 : !tt.ptr<f16> -> tensor<32x32x!tt.ptr<f16>> loc(#loc14)
    %15 = tt.addptr %14, %13 : tensor<32x32x!tt.ptr<f16>>, tensor<32x32xi32> loc(#loc14)
    %16 = tt.load %15 : tensor<32x32x!tt.ptr<f16>> loc(#loc15)
    %17 = tt.splat %arg5 : !tt.ptr<f16> -> tensor<32x32x!tt.ptr<f16>> loc(#loc16)
    %18 = tt.addptr %17, %13 : tensor<32x32x!tt.ptr<f16>>, tensor<32x32xi32> loc(#loc16)
    %19 = tt.load %18 : tensor<32x32x!tt.ptr<f16>> loc(#loc17)
    %20 = arith.muli %5, %c28_i32 : i32 loc(#loc18)
    %21 = tt.splat %20 : i32 -> tensor<32xi32> loc(#loc19)
    %22 = arith.addi %21, %7 : tensor<32xi32> loc(#loc19)
    %23 = arith.muli %6, %c28_i32 : i32 loc(#loc20)
    %24 = tt.splat %23 : i32 -> tensor<32xi32> loc(#loc21)
    %25 = arith.addi %24, %7 : tensor<32xi32> loc(#loc21)
    %26 = tt.expand_dims %22 {axis = 1 : i32} : tensor<32xi32> -> tensor<32x1xi32> loc(#loc22)
    %27 = tt.splat %arg3 : i32 -> tensor<32x1xi32> loc(#loc23)
    %28 = arith.muli %26, %27 : tensor<32x1xi32> loc(#loc23)
    %29 = tt.expand_dims %25 {axis = 0 : i32} : tensor<32xi32> -> tensor<1x32xi32> loc(#loc24)
    %30 = tt.broadcast %28 : tensor<32x1xi32> -> tensor<32x32xi32> loc(#loc24)
    %31 = tt.broadcast %29 : tensor<1x32xi32> -> tensor<32x32xi32> loc(#loc24)
    %32 = arith.addi %30, %31 : tensor<32x32xi32> loc(#loc24)
    %33 = tt.splat %arg0 : !tt.ptr<f16> -> tensor<32x32x!tt.ptr<f16>> loc(#loc25)
    %34 = tt.addptr %33, %32 : tensor<32x32x!tt.ptr<f16>>, tensor<32x32xi32> loc(#loc25)
    %35 = tt.load %34 : tensor<32x32x!tt.ptr<f16>> loc(#loc26)
    %36 = tt.dot %35, %16, %cst, inputPrecision = tf32 : tensor<32x32xf16> * tensor<32x32xf16> -> tensor<32x32xf32> loc(#loc27)
    %37 = tt.dot %19, %35, %36, inputPrecision = tf32 : tensor<32x32xf16> * tensor<32x32xf16> -> tensor<32x32xf32> loc(#loc28)
    %38 = tt.splat %arg1 : !tt.ptr<f16> -> tensor<32x32x!tt.ptr<f16>> loc(#loc29)
    %39 = tt.addptr %38, %32 : tensor<32x32x!tt.ptr<f16>>, tensor<32x32xi32> loc(#loc29)
    %40 = tt.splat %arg6 : i32 -> tensor<32xi32> loc(#loc30)
    %41 = arith.cmpi sge, %7, %40 : tensor<32xi32> loc(#loc30)
    %42 = tt.expand_dims %41 {axis = 1 : i32} : tensor<32xi1> -> tensor<32x1xi1> loc(#loc31)
    %43 = arith.subi %c32_i32, %arg6 : i32 loc(#loc32)
    %44 = tt.splat %43 : i32 -> tensor<32xi32> loc(#loc33)
    %45 = arith.cmpi slt, %7, %44 : tensor<32xi32> loc(#loc33)
    %46 = tt.expand_dims %45 {axis = 1 : i32} : tensor<32xi1> -> tensor<32x1xi1> loc(#loc34)
    %47 = arith.andi %42, %46 : tensor<32x1xi1> loc(#loc35)
    %48 = tt.expand_dims %41 {axis = 0 : i32} : tensor<32xi1> -> tensor<1x32xi1> loc(#loc36)
    %49 = tt.broadcast %47 : tensor<32x1xi1> -> tensor<32x32xi1> loc(#loc37)
    %50 = tt.broadcast %48 : tensor<1x32xi1> -> tensor<32x32xi1> loc(#loc37)
    %51 = arith.andi %49, %50 : tensor<32x32xi1> loc(#loc37)
    %52 = tt.expand_dims %45 {axis = 0 : i32} : tensor<32xi1> -> tensor<1x32xi1> loc(#loc38)
    %53 = tt.broadcast %52 : tensor<1x32xi1> -> tensor<32x32xi1> loc(#loc39)
    %54 = arith.andi %51, %53 : tensor<32x32xi1> loc(#loc39)
    %55 = arith.truncf %37 : tensor<32x32xf32> to tensor<32x32xf16> loc(#loc40)
    tt.store %39, %55, %54 : tensor<32x32x!tt.ptr<f16>> loc(#loc40)
    tt.return loc(#loc41)
  } loc(#loc)
} loc(#loc)
#loc1 = loc(unknown)
#loc2 = loc("2d9pt_tcstencil.py":34:10)
#loc3 = loc("2d9pt_tcstencil.py":36:28)
#loc4 = loc("2d9pt_tcstencil.py":36:26)
#loc5 = loc("/usr/local/lib/python3.8/dist-packages/triton/language/standard.py":44:22)
#loc6 = loc("2d9pt_tcstencil.py":36:31)
#loc7 = loc("/usr/local/lib/python3.8/dist-packages/triton/language/standard.py":44:28)
#loc8 = loc("2d9pt_tcstencil.py":38:19)
#loc9 = loc("2d9pt_tcstencil.py":39:18)
#loc10 = loc("2d9pt_tcstencil.py":43:45)
#loc11 = loc("2d9pt_tcstencil.py":43:32)
#loc12 = loc("2d9pt_tcstencil.py":43:68)
#loc13 = loc("2d9pt_tcstencil.py":43:83)
#loc14 = loc("2d9pt_tcstencil.py":43:31)
#loc15 = loc("2d9pt_tcstencil.py":44:26)
#loc16 = loc("2d9pt_tcstencil.py":46:31)
#loc17 = loc("2d9pt_tcstencil.py":47:26)
#loc18 = loc("2d9pt_tcstencil.py":50:22)
#loc19 = loc("2d9pt_tcstencil.py":50:37)
#loc20 = loc("2d9pt_tcstencil.py":51:22)
#loc21 = loc("2d9pt_tcstencil.py":51:37)
#loc22 = loc("2d9pt_tcstencil.py":52:19)
#loc23 = loc("2d9pt_tcstencil.py":52:36)
#loc24 = loc("2d9pt_tcstencil.py":52:40)
#loc25 = loc("2d9pt_tcstencil.py":52:18)
#loc26 = loc("2d9pt_tcstencil.py":53:21)
#loc27 = loc("2d9pt_tcstencil.py":57:46)
#loc28 = loc("2d9pt_tcstencil.py":58:46)
#loc29 = loc("2d9pt_tcstencil.py":60:18)
#loc30 = loc("2d9pt_tcstencil.py":64:48)
#loc31 = loc("2d9pt_tcstencil.py":64:42)
#loc32 = loc("2d9pt_tcstencil.py":64:81)
#loc33 = loc("2d9pt_tcstencil.py":64:68)
#loc34 = loc("2d9pt_tcstencil.py":64:62)
#loc35 = loc("2d9pt_tcstencil.py":64:61)
#loc36 = loc("2d9pt_tcstencil.py":64:96)
#loc37 = loc("2d9pt_tcstencil.py":64:95)
#loc38 = loc("2d9pt_tcstencil.py":64:116)
#loc39 = loc("2d9pt_tcstencil.py":64:115)
#loc40 = loc("2d9pt_tcstencil.py":64:21)
#loc41 = loc("2d9pt_tcstencil.py":64:4)
#loc42 = loc(callsite(#loc5 at #loc6))
#loc43 = loc(callsite(#loc7 at #loc6))


// -----// IR Dump Before SymbolDCE (symbol-dce) ('builtin.module' operation) //----- //
#loc = loc("2d9pt_tcstencil.py":18:0)
module {
  tt.func public @stencil_kernel(%arg0: !tt.ptr<f16> {tt.divisibility = 16 : i32} loc("2d9pt_tcstencil.py":18:0), %arg1: !tt.ptr<f16> {tt.divisibility = 16 : i32} loc("2d9pt_tcstencil.py":18:0), %arg2: i32 loc("2d9pt_tcstencil.py":18:0), %arg3: i32 loc("2d9pt_tcstencil.py":18:0), %arg4: !tt.ptr<f16> {tt.divisibility = 16 : i32} loc("2d9pt_tcstencil.py":18:0), %arg5: !tt.ptr<f16> {tt.divisibility = 16 : i32} loc("2d9pt_tcstencil.py":18:0), %arg6: i32 loc("2d9pt_tcstencil.py":18:0)) attributes {noinline = false} {
    %cst = arith.constant dense<0.000000e+00> : tensor<32x32xf32> loc(#loc1)
    %c27_i32 = arith.constant 27 : i32 loc(#loc1)
    %c28_i32 = arith.constant 28 : i32 loc(#loc1)
    %cst_0 = arith.constant dense<32> : tensor<32x1xi32> loc(#loc1)
    %c32_i32 = arith.constant 32 : i32 loc(#loc1)
    %c2_i32 = arith.constant 2 : i32 loc(#loc1)
    %0 = tt.get_program_id x : i32 loc(#loc2)
    %1 = arith.muli %arg6, %c2_i32 : i32 loc(#loc3)
    %2 = arith.subi %arg3, %1 : i32 loc(#loc4)
    %3 = arith.addi %2, %c27_i32 : i32 loc(#loc42)
    %4 = arith.divsi %3, %c28_i32 : i32 loc(#loc43)
    %5 = arith.divsi %0, %4 : i32 loc(#loc8)
    %6 = arith.remsi %0, %4 : i32 loc(#loc9)
    %7 = tt.make_range {end = 32 : i32, start = 0 : i32} : tensor<32xi32> loc(#loc10)
    %8 = tt.expand_dims %7 {axis = 1 : i32} : tensor<32xi32> -> tensor<32x1xi32> loc(#loc11)
    %9 = arith.muli %8, %cst_0 : tensor<32x1xi32> loc(#loc12)
    %10 = tt.expand_dims %7 {axis = 0 : i32} : tensor<32xi32> -> tensor<1x32xi32> loc(#loc13)
    %11 = tt.broadcast %9 : tensor<32x1xi32> -> tensor<32x32xi32> loc(#loc13)
    %12 = tt.broadcast %10 : tensor<1x32xi32> -> tensor<32x32xi32> loc(#loc13)
    %13 = arith.addi %11, %12 : tensor<32x32xi32> loc(#loc13)
    %14 = tt.splat %arg4 : !tt.ptr<f16> -> tensor<32x32x!tt.ptr<f16>> loc(#loc14)
    %15 = tt.addptr %14, %13 : tensor<32x32x!tt.ptr<f16>>, tensor<32x32xi32> loc(#loc14)
    %16 = tt.load %15 : tensor<32x32x!tt.ptr<f16>> loc(#loc15)
    %17 = tt.splat %arg5 : !tt.ptr<f16> -> tensor<32x32x!tt.ptr<f16>> loc(#loc16)
    %18 = tt.addptr %17, %13 : tensor<32x32x!tt.ptr<f16>>, tensor<32x32xi32> loc(#loc16)
    %19 = tt.load %18 : tensor<32x32x!tt.ptr<f16>> loc(#loc17)
    %20 = arith.muli %5, %c28_i32 : i32 loc(#loc18)
    %21 = tt.splat %20 : i32 -> tensor<32xi32> loc(#loc19)
    %22 = arith.addi %21, %7 : tensor<32xi32> loc(#loc19)
    %23 = arith.muli %6, %c28_i32 : i32 loc(#loc20)
    %24 = tt.splat %23 : i32 -> tensor<32xi32> loc(#loc21)
    %25 = arith.addi %24, %7 : tensor<32xi32> loc(#loc21)
    %26 = tt.expand_dims %22 {axis = 1 : i32} : tensor<32xi32> -> tensor<32x1xi32> loc(#loc22)
    %27 = tt.splat %arg3 : i32 -> tensor<32x1xi32> loc(#loc23)
    %28 = arith.muli %26, %27 : tensor<32x1xi32> loc(#loc23)
    %29 = tt.expand_dims %25 {axis = 0 : i32} : tensor<32xi32> -> tensor<1x32xi32> loc(#loc24)
    %30 = tt.broadcast %28 : tensor<32x1xi32> -> tensor<32x32xi32> loc(#loc24)
    %31 = tt.broadcast %29 : tensor<1x32xi32> -> tensor<32x32xi32> loc(#loc24)
    %32 = arith.addi %30, %31 : tensor<32x32xi32> loc(#loc24)
    %33 = tt.splat %arg0 : !tt.ptr<f16> -> tensor<32x32x!tt.ptr<f16>> loc(#loc25)
    %34 = tt.addptr %33, %32 : tensor<32x32x!tt.ptr<f16>>, tensor<32x32xi32> loc(#loc25)
    %35 = tt.load %34 : tensor<32x32x!tt.ptr<f16>> loc(#loc26)
    %36 = tt.dot %35, %16, %cst, inputPrecision = tf32 : tensor<32x32xf16> * tensor<32x32xf16> -> tensor<32x32xf32> loc(#loc27)
    %37 = tt.dot %19, %35, %36, inputPrecision = tf32 : tensor<32x32xf16> * tensor<32x32xf16> -> tensor<32x32xf32> loc(#loc28)
    %38 = tt.splat %arg1 : !tt.ptr<f16> -> tensor<32x32x!tt.ptr<f16>> loc(#loc29)
    %39 = tt.addptr %38, %32 : tensor<32x32x!tt.ptr<f16>>, tensor<32x32xi32> loc(#loc29)
    %40 = tt.splat %arg6 : i32 -> tensor<32xi32> loc(#loc30)
    %41 = arith.cmpi sge, %7, %40 : tensor<32xi32> loc(#loc30)
    %42 = tt.expand_dims %41 {axis = 1 : i32} : tensor<32xi1> -> tensor<32x1xi1> loc(#loc31)
    %43 = arith.subi %c32_i32, %arg6 : i32 loc(#loc32)
    %44 = tt.splat %43 : i32 -> tensor<32xi32> loc(#loc33)
    %45 = arith.cmpi slt, %7, %44 : tensor<32xi32> loc(#loc33)
    %46 = tt.expand_dims %45 {axis = 1 : i32} : tensor<32xi1> -> tensor<32x1xi1> loc(#loc34)
    %47 = arith.andi %42, %46 : tensor<32x1xi1> loc(#loc35)
    %48 = tt.expand_dims %41 {axis = 0 : i32} : tensor<32xi1> -> tensor<1x32xi1> loc(#loc36)
    %49 = tt.broadcast %47 : tensor<32x1xi1> -> tensor<32x32xi1> loc(#loc37)
    %50 = tt.broadcast %48 : tensor<1x32xi1> -> tensor<32x32xi1> loc(#loc37)
    %51 = arith.andi %49, %50 : tensor<32x32xi1> loc(#loc37)
    %52 = tt.expand_dims %45 {axis = 0 : i32} : tensor<32xi1> -> tensor<1x32xi1> loc(#loc38)
    %53 = tt.broadcast %52 : tensor<1x32xi1> -> tensor<32x32xi1> loc(#loc39)
    %54 = arith.andi %51, %53 : tensor<32x32xi1> loc(#loc39)
    %55 = arith.truncf %37 : tensor<32x32xf32> to tensor<32x32xf16> loc(#loc40)
    tt.store %39, %55, %54 : tensor<32x32x!tt.ptr<f16>> loc(#loc40)
    tt.return loc(#loc41)
  } loc(#loc)
} loc(#loc)
#loc1 = loc(unknown)
#loc2 = loc("2d9pt_tcstencil.py":34:10)
#loc3 = loc("2d9pt_tcstencil.py":36:28)
#loc4 = loc("2d9pt_tcstencil.py":36:26)
#loc5 = loc("/usr/local/lib/python3.8/dist-packages/triton/language/standard.py":44:22)
#loc6 = loc("2d9pt_tcstencil.py":36:31)
#loc7 = loc("/usr/local/lib/python3.8/dist-packages/triton/language/standard.py":44:28)
#loc8 = loc("2d9pt_tcstencil.py":38:19)
#loc9 = loc("2d9pt_tcstencil.py":39:18)
#loc10 = loc("2d9pt_tcstencil.py":43:45)
#loc11 = loc("2d9pt_tcstencil.py":43:32)
#loc12 = loc("2d9pt_tcstencil.py":43:68)
#loc13 = loc("2d9pt_tcstencil.py":43:83)
#loc14 = loc("2d9pt_tcstencil.py":43:31)
#loc15 = loc("2d9pt_tcstencil.py":44:26)
#loc16 = loc("2d9pt_tcstencil.py":46:31)
#loc17 = loc("2d9pt_tcstencil.py":47:26)
#loc18 = loc("2d9pt_tcstencil.py":50:22)
#loc19 = loc("2d9pt_tcstencil.py":50:37)
#loc20 = loc("2d9pt_tcstencil.py":51:22)
#loc21 = loc("2d9pt_tcstencil.py":51:37)
#loc22 = loc("2d9pt_tcstencil.py":52:19)
#loc23 = loc("2d9pt_tcstencil.py":52:36)
#loc24 = loc("2d9pt_tcstencil.py":52:40)
#loc25 = loc("2d9pt_tcstencil.py":52:18)
#loc26 = loc("2d9pt_tcstencil.py":53:21)
#loc27 = loc("2d9pt_tcstencil.py":57:46)
#loc28 = loc("2d9pt_tcstencil.py":58:46)
#loc29 = loc("2d9pt_tcstencil.py":60:18)
#loc30 = loc("2d9pt_tcstencil.py":64:48)
#loc31 = loc("2d9pt_tcstencil.py":64:42)
#loc32 = loc("2d9pt_tcstencil.py":64:81)
#loc33 = loc("2d9pt_tcstencil.py":64:68)
#loc34 = loc("2d9pt_tcstencil.py":64:62)
#loc35 = loc("2d9pt_tcstencil.py":64:61)
#loc36 = loc("2d9pt_tcstencil.py":64:96)
#loc37 = loc("2d9pt_tcstencil.py":64:95)
#loc38 = loc("2d9pt_tcstencil.py":64:116)
#loc39 = loc("2d9pt_tcstencil.py":64:115)
#loc40 = loc("2d9pt_tcstencil.py":64:21)
#loc41 = loc("2d9pt_tcstencil.py":64:4)
#loc42 = loc(callsite(#loc5 at #loc6))
#loc43 = loc(callsite(#loc7 at #loc6))


// -----// IR Dump Before ConvertTritonToTritonGPU (convert-triton-to-tritongpu) ('builtin.module' operation) //----- //
#loc = loc("2d9pt_tcstencil.py":18:0)
module {
  tt.func public @stencil_kernel(%arg0: !tt.ptr<f16> {tt.divisibility = 16 : i32} loc("2d9pt_tcstencil.py":18:0), %arg1: !tt.ptr<f16> {tt.divisibility = 16 : i32} loc("2d9pt_tcstencil.py":18:0), %arg2: i32 loc("2d9pt_tcstencil.py":18:0), %arg3: i32 loc("2d9pt_tcstencil.py":18:0), %arg4: !tt.ptr<f16> {tt.divisibility = 16 : i32} loc("2d9pt_tcstencil.py":18:0), %arg5: !tt.ptr<f16> {tt.divisibility = 16 : i32} loc("2d9pt_tcstencil.py":18:0), %arg6: i32 loc("2d9pt_tcstencil.py":18:0)) attributes {noinline = false} {
    %cst = arith.constant dense<0.000000e+00> : tensor<32x32xf32> loc(#loc1)
    %c27_i32 = arith.constant 27 : i32 loc(#loc1)
    %c28_i32 = arith.constant 28 : i32 loc(#loc1)
    %cst_0 = arith.constant dense<32> : tensor<32x1xi32> loc(#loc1)
    %c32_i32 = arith.constant 32 : i32 loc(#loc1)
    %c2_i32 = arith.constant 2 : i32 loc(#loc1)
    %0 = tt.get_program_id x : i32 loc(#loc2)
    %1 = arith.muli %arg6, %c2_i32 : i32 loc(#loc3)
    %2 = arith.subi %arg3, %1 : i32 loc(#loc4)
    %3 = arith.addi %2, %c27_i32 : i32 loc(#loc42)
    %4 = arith.divsi %3, %c28_i32 : i32 loc(#loc43)
    %5 = arith.divsi %0, %4 : i32 loc(#loc8)
    %6 = arith.remsi %0, %4 : i32 loc(#loc9)
    %7 = tt.make_range {end = 32 : i32, start = 0 : i32} : tensor<32xi32> loc(#loc10)
    %8 = tt.expand_dims %7 {axis = 1 : i32} : tensor<32xi32> -> tensor<32x1xi32> loc(#loc11)
    %9 = arith.muli %8, %cst_0 : tensor<32x1xi32> loc(#loc12)
    %10 = tt.expand_dims %7 {axis = 0 : i32} : tensor<32xi32> -> tensor<1x32xi32> loc(#loc13)
    %11 = tt.broadcast %9 : tensor<32x1xi32> -> tensor<32x32xi32> loc(#loc13)
    %12 = tt.broadcast %10 : tensor<1x32xi32> -> tensor<32x32xi32> loc(#loc13)
    %13 = arith.addi %11, %12 : tensor<32x32xi32> loc(#loc13)
    %14 = tt.splat %arg4 : !tt.ptr<f16> -> tensor<32x32x!tt.ptr<f16>> loc(#loc14)
    %15 = tt.addptr %14, %13 : tensor<32x32x!tt.ptr<f16>>, tensor<32x32xi32> loc(#loc14)
    %16 = tt.load %15 : tensor<32x32x!tt.ptr<f16>> loc(#loc15)
    %17 = tt.splat %arg5 : !tt.ptr<f16> -> tensor<32x32x!tt.ptr<f16>> loc(#loc16)
    %18 = tt.addptr %17, %13 : tensor<32x32x!tt.ptr<f16>>, tensor<32x32xi32> loc(#loc16)
    %19 = tt.load %18 : tensor<32x32x!tt.ptr<f16>> loc(#loc17)
    %20 = arith.muli %5, %c28_i32 : i32 loc(#loc18)
    %21 = tt.splat %20 : i32 -> tensor<32xi32> loc(#loc19)
    %22 = arith.addi %21, %7 : tensor<32xi32> loc(#loc19)
    %23 = arith.muli %6, %c28_i32 : i32 loc(#loc20)
    %24 = tt.splat %23 : i32 -> tensor<32xi32> loc(#loc21)
    %25 = arith.addi %24, %7 : tensor<32xi32> loc(#loc21)
    %26 = tt.expand_dims %22 {axis = 1 : i32} : tensor<32xi32> -> tensor<32x1xi32> loc(#loc22)
    %27 = tt.splat %arg3 : i32 -> tensor<32x1xi32> loc(#loc23)
    %28 = arith.muli %26, %27 : tensor<32x1xi32> loc(#loc23)
    %29 = tt.expand_dims %25 {axis = 0 : i32} : tensor<32xi32> -> tensor<1x32xi32> loc(#loc24)
    %30 = tt.broadcast %28 : tensor<32x1xi32> -> tensor<32x32xi32> loc(#loc24)
    %31 = tt.broadcast %29 : tensor<1x32xi32> -> tensor<32x32xi32> loc(#loc24)
    %32 = arith.addi %30, %31 : tensor<32x32xi32> loc(#loc24)
    %33 = tt.splat %arg0 : !tt.ptr<f16> -> tensor<32x32x!tt.ptr<f16>> loc(#loc25)
    %34 = tt.addptr %33, %32 : tensor<32x32x!tt.ptr<f16>>, tensor<32x32xi32> loc(#loc25)
    %35 = tt.load %34 : tensor<32x32x!tt.ptr<f16>> loc(#loc26)
    %36 = tt.dot %35, %16, %cst, inputPrecision = tf32 : tensor<32x32xf16> * tensor<32x32xf16> -> tensor<32x32xf32> loc(#loc27)
    %37 = tt.dot %19, %35, %36, inputPrecision = tf32 : tensor<32x32xf16> * tensor<32x32xf16> -> tensor<32x32xf32> loc(#loc28)
    %38 = tt.splat %arg1 : !tt.ptr<f16> -> tensor<32x32x!tt.ptr<f16>> loc(#loc29)
    %39 = tt.addptr %38, %32 : tensor<32x32x!tt.ptr<f16>>, tensor<32x32xi32> loc(#loc29)
    %40 = tt.splat %arg6 : i32 -> tensor<32xi32> loc(#loc30)
    %41 = arith.cmpi sge, %7, %40 : tensor<32xi32> loc(#loc30)
    %42 = tt.expand_dims %41 {axis = 1 : i32} : tensor<32xi1> -> tensor<32x1xi1> loc(#loc31)
    %43 = arith.subi %c32_i32, %arg6 : i32 loc(#loc32)
    %44 = tt.splat %43 : i32 -> tensor<32xi32> loc(#loc33)
    %45 = arith.cmpi slt, %7, %44 : tensor<32xi32> loc(#loc33)
    %46 = tt.expand_dims %45 {axis = 1 : i32} : tensor<32xi1> -> tensor<32x1xi1> loc(#loc34)
    %47 = arith.andi %42, %46 : tensor<32x1xi1> loc(#loc35)
    %48 = tt.expand_dims %41 {axis = 0 : i32} : tensor<32xi1> -> tensor<1x32xi1> loc(#loc36)
    %49 = tt.broadcast %47 : tensor<32x1xi1> -> tensor<32x32xi1> loc(#loc37)
    %50 = tt.broadcast %48 : tensor<1x32xi1> -> tensor<32x32xi1> loc(#loc37)
    %51 = arith.andi %49, %50 : tensor<32x32xi1> loc(#loc37)
    %52 = tt.expand_dims %45 {axis = 0 : i32} : tensor<32xi1> -> tensor<1x32xi1> loc(#loc38)
    %53 = tt.broadcast %52 : tensor<1x32xi1> -> tensor<32x32xi1> loc(#loc39)
    %54 = arith.andi %51, %53 : tensor<32x32xi1> loc(#loc39)
    %55 = arith.truncf %37 : tensor<32x32xf32> to tensor<32x32xf16> loc(#loc40)
    tt.store %39, %55, %54 : tensor<32x32x!tt.ptr<f16>> loc(#loc40)
    tt.return loc(#loc41)
  } loc(#loc)
} loc(#loc)
#loc1 = loc(unknown)
#loc2 = loc("2d9pt_tcstencil.py":34:10)
#loc3 = loc("2d9pt_tcstencil.py":36:28)
#loc4 = loc("2d9pt_tcstencil.py":36:26)
#loc5 = loc("/usr/local/lib/python3.8/dist-packages/triton/language/standard.py":44:22)
#loc6 = loc("2d9pt_tcstencil.py":36:31)
#loc7 = loc("/usr/local/lib/python3.8/dist-packages/triton/language/standard.py":44:28)
#loc8 = loc("2d9pt_tcstencil.py":38:19)
#loc9 = loc("2d9pt_tcstencil.py":39:18)
#loc10 = loc("2d9pt_tcstencil.py":43:45)
#loc11 = loc("2d9pt_tcstencil.py":43:32)
#loc12 = loc("2d9pt_tcstencil.py":43:68)
#loc13 = loc("2d9pt_tcstencil.py":43:83)
#loc14 = loc("2d9pt_tcstencil.py":43:31)
#loc15 = loc("2d9pt_tcstencil.py":44:26)
#loc16 = loc("2d9pt_tcstencil.py":46:31)
#loc17 = loc("2d9pt_tcstencil.py":47:26)
#loc18 = loc("2d9pt_tcstencil.py":50:22)
#loc19 = loc("2d9pt_tcstencil.py":50:37)
#loc20 = loc("2d9pt_tcstencil.py":51:22)
#loc21 = loc("2d9pt_tcstencil.py":51:37)
#loc22 = loc("2d9pt_tcstencil.py":52:19)
#loc23 = loc("2d9pt_tcstencil.py":52:36)
#loc24 = loc("2d9pt_tcstencil.py":52:40)
#loc25 = loc("2d9pt_tcstencil.py":52:18)
#loc26 = loc("2d9pt_tcstencil.py":53:21)
#loc27 = loc("2d9pt_tcstencil.py":57:46)
#loc28 = loc("2d9pt_tcstencil.py":58:46)
#loc29 = loc("2d9pt_tcstencil.py":60:18)
#loc30 = loc("2d9pt_tcstencil.py":64:48)
#loc31 = loc("2d9pt_tcstencil.py":64:42)
#loc32 = loc("2d9pt_tcstencil.py":64:81)
#loc33 = loc("2d9pt_tcstencil.py":64:68)
#loc34 = loc("2d9pt_tcstencil.py":64:62)
#loc35 = loc("2d9pt_tcstencil.py":64:61)
#loc36 = loc("2d9pt_tcstencil.py":64:96)
#loc37 = loc("2d9pt_tcstencil.py":64:95)
#loc38 = loc("2d9pt_tcstencil.py":64:116)
#loc39 = loc("2d9pt_tcstencil.py":64:115)
#loc40 = loc("2d9pt_tcstencil.py":64:21)
#loc41 = loc("2d9pt_tcstencil.py":64:4)
#loc42 = loc(callsite(#loc5 at #loc6))
#loc43 = loc(callsite(#loc7 at #loc6))


// -----// IR Dump Before TritonGPUCoalesce (tritongpu-coalesce) ('builtin.module' operation) //----- //
#blocked = #triton_gpu.blocked<{sizePerThread = [1, 1], threadsPerWarp = [1, 32], warpsPerCTA = [4, 1], order = [1, 0]}>
#blocked1 = #triton_gpu.blocked<{sizePerThread = [1, 1], threadsPerWarp = [32, 1], warpsPerCTA = [4, 1], order = [1, 0]}>
#blocked2 = #triton_gpu.blocked<{sizePerThread = [1], threadsPerWarp = [32], warpsPerCTA = [4], order = [0]}>
#blocked3 = #triton_gpu.blocked<{sizePerThread = [1, 1], threadsPerWarp = [32, 1], warpsPerCTA = [4, 1], order = [0, 1]}>
#blocked4 = #triton_gpu.blocked<{sizePerThread = [1, 1], threadsPerWarp = [1, 32], warpsPerCTA = [1, 4], order = [0, 1]}>
#blocked5 = #triton_gpu.blocked<{sizePerThread = [2, 2], threadsPerWarp = [2, 16], warpsPerCTA = [4, 1], order = [1, 0]}>
#loc = loc("2d9pt_tcstencil.py":18:0)
module attributes {"triton_gpu.num-ctas" = 1 : i32, "triton_gpu.num-warps" = 4 : i32, triton_gpu.target = "cuda:70", "triton_gpu.threads-per-warp" = 32 : i32} {
  tt.func public @stencil_kernel(%arg0: !tt.ptr<f16> {tt.divisibility = 16 : i32} loc("2d9pt_tcstencil.py":18:0), %arg1: !tt.ptr<f16> {tt.divisibility = 16 : i32} loc("2d9pt_tcstencil.py":18:0), %arg2: i32 loc("2d9pt_tcstencil.py":18:0), %arg3: i32 loc("2d9pt_tcstencil.py":18:0), %arg4: !tt.ptr<f16> {tt.divisibility = 16 : i32} loc("2d9pt_tcstencil.py":18:0), %arg5: !tt.ptr<f16> {tt.divisibility = 16 : i32} loc("2d9pt_tcstencil.py":18:0), %arg6: i32 loc("2d9pt_tcstencil.py":18:0)) attributes {noinline = false} {
    %cst = arith.constant dense<0.000000e+00> : tensor<32x32xf32, #blocked> loc(#loc1)
    %c27_i32 = arith.constant 27 : i32 loc(#loc1)
    %c28_i32 = arith.constant 28 : i32 loc(#loc1)
    %cst_0 = arith.constant dense<32> : tensor<32x1xi32, #blocked1> loc(#loc1)
    %c32_i32 = arith.constant 32 : i32 loc(#loc1)
    %c2_i32 = arith.constant 2 : i32 loc(#loc1)
    %0 = tt.get_program_id x : i32 loc(#loc2)
    %1 = arith.muli %arg6, %c2_i32 : i32 loc(#loc3)
    %2 = arith.subi %arg3, %1 : i32 loc(#loc4)
    %3 = arith.addi %2, %c27_i32 : i32 loc(#loc42)
    %4 = arith.divsi %3, %c28_i32 : i32 loc(#loc43)
    %5 = arith.divsi %0, %4 : i32 loc(#loc8)
    %6 = arith.remsi %0, %4 : i32 loc(#loc9)
    %7 = tt.make_range {end = 32 : i32, start = 0 : i32} : tensor<32xi32, #blocked2> loc(#loc10)
    %8 = triton_gpu.convert_layout %7 : tensor<32xi32, #blocked2> -> tensor<32xi32, #triton_gpu.slice<{dim = 1, parent = #blocked3}>> loc(#loc11)
    %9 = tt.expand_dims %8 {axis = 1 : i32} : tensor<32xi32, #triton_gpu.slice<{dim = 1, parent = #blocked3}>> -> tensor<32x1xi32, #blocked3> loc(#loc11)
    %10 = triton_gpu.convert_layout %9 : tensor<32x1xi32, #blocked3> -> tensor<32x1xi32, #blocked1> loc(#loc12)
    %11 = arith.muli %10, %cst_0 : tensor<32x1xi32, #blocked1> loc(#loc12)
    %12 = triton_gpu.convert_layout %7 : tensor<32xi32, #blocked2> -> tensor<32xi32, #triton_gpu.slice<{dim = 0, parent = #blocked4}>> loc(#loc13)
    %13 = tt.expand_dims %12 {axis = 0 : i32} : tensor<32xi32, #triton_gpu.slice<{dim = 0, parent = #blocked4}>> -> tensor<1x32xi32, #blocked4> loc(#loc13)
    %14 = triton_gpu.convert_layout %13 : tensor<1x32xi32, #blocked4> -> tensor<1x32xi32, #blocked> loc(#loc13)
    %15 = tt.broadcast %11 : tensor<32x1xi32, #blocked1> -> tensor<32x32xi32, #blocked1> loc(#loc13)
    %16 = triton_gpu.convert_layout %15 : tensor<32x32xi32, #blocked1> -> tensor<32x32xi32, #blocked> loc(#loc13)
    %17 = tt.broadcast %14 : tensor<1x32xi32, #blocked> -> tensor<32x32xi32, #blocked> loc(#loc13)
    %18 = arith.addi %16, %17 : tensor<32x32xi32, #blocked> loc(#loc13)
    %19 = tt.splat %arg4 : !tt.ptr<f16> -> tensor<32x32x!tt.ptr<f16>, #blocked> loc(#loc14)
    %20 = tt.addptr %19, %18 : tensor<32x32x!tt.ptr<f16>, #blocked>, tensor<32x32xi32, #blocked> loc(#loc14)
    %21 = tt.load %20 : tensor<32x32x!tt.ptr<f16>, #blocked> loc(#loc15)
    %22 = tt.splat %arg5 : !tt.ptr<f16> -> tensor<32x32x!tt.ptr<f16>, #blocked> loc(#loc16)
    %23 = tt.addptr %22, %18 : tensor<32x32x!tt.ptr<f16>, #blocked>, tensor<32x32xi32, #blocked> loc(#loc16)
    %24 = tt.load %23 : tensor<32x32x!tt.ptr<f16>, #blocked> loc(#loc17)
    %25 = arith.muli %5, %c28_i32 : i32 loc(#loc18)
    %26 = tt.splat %25 : i32 -> tensor<32xi32, #blocked2> loc(#loc19)
    %27 = arith.addi %26, %7 : tensor<32xi32, #blocked2> loc(#loc19)
    %28 = arith.muli %6, %c28_i32 : i32 loc(#loc20)
    %29 = tt.splat %28 : i32 -> tensor<32xi32, #blocked2> loc(#loc21)
    %30 = arith.addi %29, %7 : tensor<32xi32, #blocked2> loc(#loc21)
    %31 = triton_gpu.convert_layout %27 : tensor<32xi32, #blocked2> -> tensor<32xi32, #triton_gpu.slice<{dim = 1, parent = #blocked3}>> loc(#loc22)
    %32 = tt.expand_dims %31 {axis = 1 : i32} : tensor<32xi32, #triton_gpu.slice<{dim = 1, parent = #blocked3}>> -> tensor<32x1xi32, #blocked3> loc(#loc22)
    %33 = triton_gpu.convert_layout %32 : tensor<32x1xi32, #blocked3> -> tensor<32x1xi32, #blocked1> loc(#loc23)
    %34 = tt.splat %arg3 : i32 -> tensor<32x1xi32, #blocked1> loc(#loc23)
    %35 = arith.muli %33, %34 : tensor<32x1xi32, #blocked1> loc(#loc23)
    %36 = triton_gpu.convert_layout %30 : tensor<32xi32, #blocked2> -> tensor<32xi32, #triton_gpu.slice<{dim = 0, parent = #blocked4}>> loc(#loc24)
    %37 = tt.expand_dims %36 {axis = 0 : i32} : tensor<32xi32, #triton_gpu.slice<{dim = 0, parent = #blocked4}>> -> tensor<1x32xi32, #blocked4> loc(#loc24)
    %38 = triton_gpu.convert_layout %37 : tensor<1x32xi32, #blocked4> -> tensor<1x32xi32, #blocked> loc(#loc24)
    %39 = tt.broadcast %35 : tensor<32x1xi32, #blocked1> -> tensor<32x32xi32, #blocked1> loc(#loc24)
    %40 = triton_gpu.convert_layout %39 : tensor<32x32xi32, #blocked1> -> tensor<32x32xi32, #blocked> loc(#loc24)
    %41 = tt.broadcast %38 : tensor<1x32xi32, #blocked> -> tensor<32x32xi32, #blocked> loc(#loc24)
    %42 = arith.addi %40, %41 : tensor<32x32xi32, #blocked> loc(#loc24)
    %43 = tt.splat %arg0 : !tt.ptr<f16> -> tensor<32x32x!tt.ptr<f16>, #blocked> loc(#loc25)
    %44 = tt.addptr %43, %42 : tensor<32x32x!tt.ptr<f16>, #blocked>, tensor<32x32xi32, #blocked> loc(#loc25)
    %45 = tt.load %44 : tensor<32x32x!tt.ptr<f16>, #blocked> loc(#loc26)
    %46 = triton_gpu.convert_layout %45 : tensor<32x32xf16, #blocked> -> tensor<32x32xf16, #triton_gpu.dot_op<{opIdx = 0, parent = #blocked5}>> loc(#loc26)
    %47 = triton_gpu.convert_layout %21 : tensor<32x32xf16, #blocked> -> tensor<32x32xf16, #triton_gpu.dot_op<{opIdx = 1, parent = #blocked5}>> loc(#loc15)
    %48 = triton_gpu.convert_layout %cst : tensor<32x32xf32, #blocked> -> tensor<32x32xf32, #blocked5> loc(#loc1)
    %49 = tt.dot %46, %47, %48, inputPrecision = tf32 : tensor<32x32xf16, #triton_gpu.dot_op<{opIdx = 0, parent = #blocked5}>> * tensor<32x32xf16, #triton_gpu.dot_op<{opIdx = 1, parent = #blocked5}>> -> tensor<32x32xf32, #blocked5> loc(#loc27)
    %50 = triton_gpu.convert_layout %49 : tensor<32x32xf32, #blocked5> -> tensor<32x32xf32, #blocked> loc(#loc28)
    %51 = triton_gpu.convert_layout %24 : tensor<32x32xf16, #blocked> -> tensor<32x32xf16, #triton_gpu.dot_op<{opIdx = 0, parent = #blocked5}>> loc(#loc17)
    %52 = triton_gpu.convert_layout %45 : tensor<32x32xf16, #blocked> -> tensor<32x32xf16, #triton_gpu.dot_op<{opIdx = 1, parent = #blocked5}>> loc(#loc26)
    %53 = triton_gpu.convert_layout %50 : tensor<32x32xf32, #blocked> -> tensor<32x32xf32, #blocked5> loc(#loc28)
    %54 = tt.dot %51, %52, %53, inputPrecision = tf32 : tensor<32x32xf16, #triton_gpu.dot_op<{opIdx = 0, parent = #blocked5}>> * tensor<32x32xf16, #triton_gpu.dot_op<{opIdx = 1, parent = #blocked5}>> -> tensor<32x32xf32, #blocked5> loc(#loc28)
    %55 = triton_gpu.convert_layout %54 : tensor<32x32xf32, #blocked5> -> tensor<32x32xf32, #blocked> loc(#loc29)
    %56 = tt.splat %arg1 : !tt.ptr<f16> -> tensor<32x32x!tt.ptr<f16>, #blocked> loc(#loc30)
    %57 = tt.addptr %56, %42 : tensor<32x32x!tt.ptr<f16>, #blocked>, tensor<32x32xi32, #blocked> loc(#loc30)
    %58 = tt.splat %arg6 : i32 -> tensor<32xi32, #blocked2> loc(#loc31)
    %59 = arith.cmpi sge, %7, %58 : tensor<32xi32, #blocked2> loc(#loc31)
    %60 = triton_gpu.convert_layout %59 : tensor<32xi1, #blocked2> -> tensor<32xi1, #triton_gpu.slice<{dim = 1, parent = #blocked3}>> loc(#loc32)
    %61 = tt.expand_dims %60 {axis = 1 : i32} : tensor<32xi1, #triton_gpu.slice<{dim = 1, parent = #blocked3}>> -> tensor<32x1xi1, #blocked3> loc(#loc32)
    %62 = triton_gpu.convert_layout %61 : tensor<32x1xi1, #blocked3> -> tensor<32x1xi1, #blocked1> loc(#loc33)
    %63 = arith.subi %c32_i32, %arg6 : i32 loc(#loc34)
    %64 = tt.splat %63 : i32 -> tensor<32xi32, #blocked2> loc(#loc35)
    %65 = arith.cmpi slt, %7, %64 : tensor<32xi32, #blocked2> loc(#loc35)
    %66 = triton_gpu.convert_layout %65 : tensor<32xi1, #blocked2> -> tensor<32xi1, #triton_gpu.slice<{dim = 1, parent = #blocked3}>> loc(#loc36)
    %67 = tt.expand_dims %66 {axis = 1 : i32} : tensor<32xi1, #triton_gpu.slice<{dim = 1, parent = #blocked3}>> -> tensor<32x1xi1, #blocked3> loc(#loc36)
    %68 = triton_gpu.convert_layout %67 : tensor<32x1xi1, #blocked3> -> tensor<32x1xi1, #blocked1> loc(#loc33)
    %69 = arith.andi %62, %68 : tensor<32x1xi1, #blocked1> loc(#loc33)
    %70 = triton_gpu.convert_layout %59 : tensor<32xi1, #blocked2> -> tensor<32xi1, #triton_gpu.slice<{dim = 0, parent = #blocked4}>> loc(#loc37)
    %71 = tt.expand_dims %70 {axis = 0 : i32} : tensor<32xi1, #triton_gpu.slice<{dim = 0, parent = #blocked4}>> -> tensor<1x32xi1, #blocked4> loc(#loc37)
    %72 = triton_gpu.convert_layout %71 : tensor<1x32xi1, #blocked4> -> tensor<1x32xi1, #blocked> loc(#loc38)
    %73 = tt.broadcast %69 : tensor<32x1xi1, #blocked1> -> tensor<32x32xi1, #blocked1> loc(#loc38)
    %74 = triton_gpu.convert_layout %73 : tensor<32x32xi1, #blocked1> -> tensor<32x32xi1, #blocked> loc(#loc38)
    %75 = tt.broadcast %72 : tensor<1x32xi1, #blocked> -> tensor<32x32xi1, #blocked> loc(#loc38)
    %76 = arith.andi %74, %75 : tensor<32x32xi1, #blocked> loc(#loc38)
    %77 = triton_gpu.convert_layout %65 : tensor<32xi1, #blocked2> -> tensor<32xi1, #triton_gpu.slice<{dim = 0, parent = #blocked4}>> loc(#loc39)
    %78 = tt.expand_dims %77 {axis = 0 : i32} : tensor<32xi1, #triton_gpu.slice<{dim = 0, parent = #blocked4}>> -> tensor<1x32xi1, #blocked4> loc(#loc39)
    %79 = triton_gpu.convert_layout %78 : tensor<1x32xi1, #blocked4> -> tensor<1x32xi1, #blocked> loc(#loc40)
    %80 = tt.broadcast %79 : tensor<1x32xi1, #blocked> -> tensor<32x32xi1, #blocked> loc(#loc40)
    %81 = arith.andi %76, %80 : tensor<32x32xi1, #blocked> loc(#loc40)
    %82 = arith.truncf %55 : tensor<32x32xf32, #blocked> to tensor<32x32xf16, #blocked> loc(#loc29)
    tt.store %57, %82, %81 : tensor<32x32x!tt.ptr<f16>, #blocked> loc(#loc29)
    tt.return loc(#loc41)
  } loc(#loc)
} loc(#loc)
#loc1 = loc(unknown)
#loc2 = loc("2d9pt_tcstencil.py":34:10)
#loc3 = loc("2d9pt_tcstencil.py":36:28)
#loc4 = loc("2d9pt_tcstencil.py":36:26)
#loc5 = loc("/usr/local/lib/python3.8/dist-packages/triton/language/standard.py":44:22)
#loc6 = loc("2d9pt_tcstencil.py":36:31)
#loc7 = loc("/usr/local/lib/python3.8/dist-packages/triton/language/standard.py":44:28)
#loc8 = loc("2d9pt_tcstencil.py":38:19)
#loc9 = loc("2d9pt_tcstencil.py":39:18)
#loc10 = loc("2d9pt_tcstencil.py":43:45)
#loc11 = loc("2d9pt_tcstencil.py":43:32)
#loc12 = loc("2d9pt_tcstencil.py":43:68)
#loc13 = loc("2d9pt_tcstencil.py":43:83)
#loc14 = loc("2d9pt_tcstencil.py":43:31)
#loc15 = loc("2d9pt_tcstencil.py":44:26)
#loc16 = loc("2d9pt_tcstencil.py":46:31)
#loc17 = loc("2d9pt_tcstencil.py":47:26)
#loc18 = loc("2d9pt_tcstencil.py":50:22)
#loc19 = loc("2d9pt_tcstencil.py":50:37)
#loc20 = loc("2d9pt_tcstencil.py":51:22)
#loc21 = loc("2d9pt_tcstencil.py":51:37)
#loc22 = loc("2d9pt_tcstencil.py":52:19)
#loc23 = loc("2d9pt_tcstencil.py":52:36)
#loc24 = loc("2d9pt_tcstencil.py":52:40)
#loc25 = loc("2d9pt_tcstencil.py":52:18)
#loc26 = loc("2d9pt_tcstencil.py":53:21)
#loc27 = loc("2d9pt_tcstencil.py":57:46)
#loc28 = loc("2d9pt_tcstencil.py":58:46)
#loc29 = loc("2d9pt_tcstencil.py":64:21)
#loc30 = loc("2d9pt_tcstencil.py":60:18)
#loc31 = loc("2d9pt_tcstencil.py":64:48)
#loc32 = loc("2d9pt_tcstencil.py":64:42)
#loc33 = loc("2d9pt_tcstencil.py":64:61)
#loc34 = loc("2d9pt_tcstencil.py":64:81)
#loc35 = loc("2d9pt_tcstencil.py":64:68)
#loc36 = loc("2d9pt_tcstencil.py":64:62)
#loc37 = loc("2d9pt_tcstencil.py":64:96)
#loc38 = loc("2d9pt_tcstencil.py":64:95)
#loc39 = loc("2d9pt_tcstencil.py":64:116)
#loc40 = loc("2d9pt_tcstencil.py":64:115)
#loc41 = loc("2d9pt_tcstencil.py":64:4)
#loc42 = loc(callsite(#loc5 at #loc6))
#loc43 = loc(callsite(#loc7 at #loc6))


// -----// IR Dump Before TritonGPUPlanCTAPass (triton-nvidia-gpu-plan-cta) ('builtin.module' operation) //----- //
#blocked = #triton_gpu.blocked<{sizePerThread = [1, 1], threadsPerWarp = [1, 32], warpsPerCTA = [4, 1], order = [1, 0]}>
#blocked1 = #triton_gpu.blocked<{sizePerThread = [1, 1], threadsPerWarp = [32, 1], warpsPerCTA = [4, 1], order = [1, 0]}>
#blocked2 = #triton_gpu.blocked<{sizePerThread = [1], threadsPerWarp = [32], warpsPerCTA = [4], order = [0]}>
#blocked3 = #triton_gpu.blocked<{sizePerThread = [1, 1], threadsPerWarp = [32, 1], warpsPerCTA = [4, 1], order = [0, 1]}>
#blocked4 = #triton_gpu.blocked<{sizePerThread = [1, 1], threadsPerWarp = [1, 32], warpsPerCTA = [1, 4], order = [0, 1]}>
#blocked5 = #triton_gpu.blocked<{sizePerThread = [1, 8], threadsPerWarp = [8, 4], warpsPerCTA = [4, 1], order = [1, 0]}>
#blocked6 = #triton_gpu.blocked<{sizePerThread = [2, 2], threadsPerWarp = [2, 16], warpsPerCTA = [4, 1], order = [1, 0]}>
#loc = loc("2d9pt_tcstencil.py":18:0)
module attributes {"triton_gpu.num-ctas" = 1 : i32, "triton_gpu.num-warps" = 4 : i32, triton_gpu.target = "cuda:70", "triton_gpu.threads-per-warp" = 32 : i32} {
  tt.func public @stencil_kernel(%arg0: !tt.ptr<f16> {tt.divisibility = 16 : i32} loc("2d9pt_tcstencil.py":18:0), %arg1: !tt.ptr<f16> {tt.divisibility = 16 : i32} loc("2d9pt_tcstencil.py":18:0), %arg2: i32 loc("2d9pt_tcstencil.py":18:0), %arg3: i32 loc("2d9pt_tcstencil.py":18:0), %arg4: !tt.ptr<f16> {tt.divisibility = 16 : i32} loc("2d9pt_tcstencil.py":18:0), %arg5: !tt.ptr<f16> {tt.divisibility = 16 : i32} loc("2d9pt_tcstencil.py":18:0), %arg6: i32 loc("2d9pt_tcstencil.py":18:0)) attributes {noinline = false} {
    %cst = arith.constant dense<0.000000e+00> : tensor<32x32xf32, #blocked> loc(#loc1)
    %c27_i32 = arith.constant 27 : i32 loc(#loc1)
    %c28_i32 = arith.constant 28 : i32 loc(#loc1)
    %cst_0 = arith.constant dense<32> : tensor<32x1xi32, #blocked1> loc(#loc1)
    %c32_i32 = arith.constant 32 : i32 loc(#loc1)
    %c2_i32 = arith.constant 2 : i32 loc(#loc1)
    %0 = tt.get_program_id x : i32 loc(#loc2)
    %1 = arith.muli %arg6, %c2_i32 : i32 loc(#loc3)
    %2 = arith.subi %arg3, %1 : i32 loc(#loc4)
    %3 = arith.addi %2, %c27_i32 : i32 loc(#loc42)
    %4 = arith.divsi %3, %c28_i32 : i32 loc(#loc43)
    %5 = arith.divsi %0, %4 : i32 loc(#loc8)
    %6 = arith.remsi %0, %4 : i32 loc(#loc9)
    %7 = tt.make_range {end = 32 : i32, start = 0 : i32} : tensor<32xi32, #blocked2> loc(#loc10)
    %8 = triton_gpu.convert_layout %7 : tensor<32xi32, #blocked2> -> tensor<32xi32, #triton_gpu.slice<{dim = 1, parent = #blocked3}>> loc(#loc11)
    %9 = tt.expand_dims %8 {axis = 1 : i32} : tensor<32xi32, #triton_gpu.slice<{dim = 1, parent = #blocked3}>> -> tensor<32x1xi32, #blocked3> loc(#loc11)
    %10 = triton_gpu.convert_layout %9 : tensor<32x1xi32, #blocked3> -> tensor<32x1xi32, #blocked1> loc(#loc12)
    %11 = arith.muli %10, %cst_0 : tensor<32x1xi32, #blocked1> loc(#loc12)
    %12 = triton_gpu.convert_layout %7 : tensor<32xi32, #blocked2> -> tensor<32xi32, #triton_gpu.slice<{dim = 0, parent = #blocked4}>> loc(#loc13)
    %13 = tt.expand_dims %12 {axis = 0 : i32} : tensor<32xi32, #triton_gpu.slice<{dim = 0, parent = #blocked4}>> -> tensor<1x32xi32, #blocked4> loc(#loc13)
    %14 = triton_gpu.convert_layout %13 : tensor<1x32xi32, #blocked4> -> tensor<1x32xi32, #blocked> loc(#loc13)
    %15 = tt.broadcast %11 : tensor<32x1xi32, #blocked1> -> tensor<32x32xi32, #blocked1> loc(#loc13)
    %16 = triton_gpu.convert_layout %15 : tensor<32x32xi32, #blocked1> -> tensor<32x32xi32, #blocked> loc(#loc13)
    %17 = tt.broadcast %14 : tensor<1x32xi32, #blocked> -> tensor<32x32xi32, #blocked> loc(#loc13)
    %18 = arith.addi %16, %17 : tensor<32x32xi32, #blocked> loc(#loc13)
    %19 = tt.splat %arg4 : !tt.ptr<f16> -> tensor<32x32x!tt.ptr<f16>, #blocked> loc(#loc14)
    %20 = tt.addptr %19, %18 : tensor<32x32x!tt.ptr<f16>, #blocked>, tensor<32x32xi32, #blocked> loc(#loc14)
    %21 = triton_gpu.convert_layout %20 : tensor<32x32x!tt.ptr<f16>, #blocked> -> tensor<32x32x!tt.ptr<f16>, #blocked5> loc(#loc15)
    %22 = tt.load %21 : tensor<32x32x!tt.ptr<f16>, #blocked5> loc(#loc15)
    %23 = triton_gpu.convert_layout %22 : tensor<32x32xf16, #blocked5> -> tensor<32x32xf16, #blocked> loc(#loc15)
    %24 = tt.splat %arg5 : !tt.ptr<f16> -> tensor<32x32x!tt.ptr<f16>, #blocked> loc(#loc16)
    %25 = tt.addptr %24, %18 : tensor<32x32x!tt.ptr<f16>, #blocked>, tensor<32x32xi32, #blocked> loc(#loc16)
    %26 = triton_gpu.convert_layout %25 : tensor<32x32x!tt.ptr<f16>, #blocked> -> tensor<32x32x!tt.ptr<f16>, #blocked5> loc(#loc17)
    %27 = tt.load %26 : tensor<32x32x!tt.ptr<f16>, #blocked5> loc(#loc17)
    %28 = triton_gpu.convert_layout %27 : tensor<32x32xf16, #blocked5> -> tensor<32x32xf16, #blocked> loc(#loc17)
    %29 = arith.muli %5, %c28_i32 : i32 loc(#loc18)
    %30 = tt.splat %29 : i32 -> tensor<32xi32, #blocked2> loc(#loc19)
    %31 = arith.addi %30, %7 : tensor<32xi32, #blocked2> loc(#loc19)
    %32 = arith.muli %6, %c28_i32 : i32 loc(#loc20)
    %33 = tt.splat %32 : i32 -> tensor<32xi32, #blocked2> loc(#loc21)
    %34 = arith.addi %33, %7 : tensor<32xi32, #blocked2> loc(#loc21)
    %35 = triton_gpu.convert_layout %31 : tensor<32xi32, #blocked2> -> tensor<32xi32, #triton_gpu.slice<{dim = 1, parent = #blocked3}>> loc(#loc22)
    %36 = tt.expand_dims %35 {axis = 1 : i32} : tensor<32xi32, #triton_gpu.slice<{dim = 1, parent = #blocked3}>> -> tensor<32x1xi32, #blocked3> loc(#loc22)
    %37 = triton_gpu.convert_layout %36 : tensor<32x1xi32, #blocked3> -> tensor<32x1xi32, #blocked1> loc(#loc23)
    %38 = tt.splat %arg3 : i32 -> tensor<32x1xi32, #blocked1> loc(#loc23)
    %39 = arith.muli %37, %38 : tensor<32x1xi32, #blocked1> loc(#loc23)
    %40 = triton_gpu.convert_layout %34 : tensor<32xi32, #blocked2> -> tensor<32xi32, #triton_gpu.slice<{dim = 0, parent = #blocked4}>> loc(#loc24)
    %41 = tt.expand_dims %40 {axis = 0 : i32} : tensor<32xi32, #triton_gpu.slice<{dim = 0, parent = #blocked4}>> -> tensor<1x32xi32, #blocked4> loc(#loc24)
    %42 = triton_gpu.convert_layout %41 : tensor<1x32xi32, #blocked4> -> tensor<1x32xi32, #blocked> loc(#loc24)
    %43 = tt.broadcast %39 : tensor<32x1xi32, #blocked1> -> tensor<32x32xi32, #blocked1> loc(#loc24)
    %44 = triton_gpu.convert_layout %43 : tensor<32x32xi32, #blocked1> -> tensor<32x32xi32, #blocked> loc(#loc24)
    %45 = tt.broadcast %42 : tensor<1x32xi32, #blocked> -> tensor<32x32xi32, #blocked> loc(#loc24)
    %46 = arith.addi %44, %45 : tensor<32x32xi32, #blocked> loc(#loc24)
    %47 = tt.splat %arg0 : !tt.ptr<f16> -> tensor<32x32x!tt.ptr<f16>, #blocked> loc(#loc25)
    %48 = tt.addptr %47, %46 : tensor<32x32x!tt.ptr<f16>, #blocked>, tensor<32x32xi32, #blocked> loc(#loc25)
    %49 = triton_gpu.convert_layout %48 : tensor<32x32x!tt.ptr<f16>, #blocked> -> tensor<32x32x!tt.ptr<f16>, #blocked5> loc(#loc26)
    %50 = tt.load %49 : tensor<32x32x!tt.ptr<f16>, #blocked5> loc(#loc26)
    %51 = triton_gpu.convert_layout %50 : tensor<32x32xf16, #blocked5> -> tensor<32x32xf16, #blocked> loc(#loc26)
    %52 = triton_gpu.convert_layout %51 : tensor<32x32xf16, #blocked> -> tensor<32x32xf16, #triton_gpu.dot_op<{opIdx = 0, parent = #blocked6}>> loc(#loc26)
    %53 = triton_gpu.convert_layout %23 : tensor<32x32xf16, #blocked> -> tensor<32x32xf16, #triton_gpu.dot_op<{opIdx = 1, parent = #blocked6}>> loc(#loc15)
    %54 = triton_gpu.convert_layout %cst : tensor<32x32xf32, #blocked> -> tensor<32x32xf32, #blocked6> loc(#loc1)
    %55 = tt.dot %52, %53, %54, inputPrecision = tf32 : tensor<32x32xf16, #triton_gpu.dot_op<{opIdx = 0, parent = #blocked6}>> * tensor<32x32xf16, #triton_gpu.dot_op<{opIdx = 1, parent = #blocked6}>> -> tensor<32x32xf32, #blocked6> loc(#loc27)
    %56 = triton_gpu.convert_layout %55 : tensor<32x32xf32, #blocked6> -> tensor<32x32xf32, #blocked> loc(#loc28)
    %57 = triton_gpu.convert_layout %28 : tensor<32x32xf16, #blocked> -> tensor<32x32xf16, #triton_gpu.dot_op<{opIdx = 0, parent = #blocked6}>> loc(#loc17)
    %58 = triton_gpu.convert_layout %51 : tensor<32x32xf16, #blocked> -> tensor<32x32xf16, #triton_gpu.dot_op<{opIdx = 1, parent = #blocked6}>> loc(#loc26)
    %59 = triton_gpu.convert_layout %56 : tensor<32x32xf32, #blocked> -> tensor<32x32xf32, #blocked6> loc(#loc28)
    %60 = tt.dot %57, %58, %59, inputPrecision = tf32 : tensor<32x32xf16, #triton_gpu.dot_op<{opIdx = 0, parent = #blocked6}>> * tensor<32x32xf16, #triton_gpu.dot_op<{opIdx = 1, parent = #blocked6}>> -> tensor<32x32xf32, #blocked6> loc(#loc28)
    %61 = triton_gpu.convert_layout %60 : tensor<32x32xf32, #blocked6> -> tensor<32x32xf32, #blocked> loc(#loc29)
    %62 = tt.splat %arg1 : !tt.ptr<f16> -> tensor<32x32x!tt.ptr<f16>, #blocked> loc(#loc30)
    %63 = tt.addptr %62, %46 : tensor<32x32x!tt.ptr<f16>, #blocked>, tensor<32x32xi32, #blocked> loc(#loc30)
    %64 = tt.splat %arg6 : i32 -> tensor<32xi32, #blocked2> loc(#loc31)
    %65 = arith.cmpi sge, %7, %64 : tensor<32xi32, #blocked2> loc(#loc31)
    %66 = triton_gpu.convert_layout %65 : tensor<32xi1, #blocked2> -> tensor<32xi1, #triton_gpu.slice<{dim = 1, parent = #blocked3}>> loc(#loc32)
    %67 = tt.expand_dims %66 {axis = 1 : i32} : tensor<32xi1, #triton_gpu.slice<{dim = 1, parent = #blocked3}>> -> tensor<32x1xi1, #blocked3> loc(#loc32)
    %68 = triton_gpu.convert_layout %67 : tensor<32x1xi1, #blocked3> -> tensor<32x1xi1, #blocked1> loc(#loc33)
    %69 = arith.subi %c32_i32, %arg6 : i32 loc(#loc34)
    %70 = tt.splat %69 : i32 -> tensor<32xi32, #blocked2> loc(#loc35)
    %71 = arith.cmpi slt, %7, %70 : tensor<32xi32, #blocked2> loc(#loc35)
    %72 = triton_gpu.convert_layout %71 : tensor<32xi1, #blocked2> -> tensor<32xi1, #triton_gpu.slice<{dim = 1, parent = #blocked3}>> loc(#loc36)
    %73 = tt.expand_dims %72 {axis = 1 : i32} : tensor<32xi1, #triton_gpu.slice<{dim = 1, parent = #blocked3}>> -> tensor<32x1xi1, #blocked3> loc(#loc36)
    %74 = triton_gpu.convert_layout %73 : tensor<32x1xi1, #blocked3> -> tensor<32x1xi1, #blocked1> loc(#loc33)
    %75 = arith.andi %68, %74 : tensor<32x1xi1, #blocked1> loc(#loc33)
    %76 = triton_gpu.convert_layout %65 : tensor<32xi1, #blocked2> -> tensor<32xi1, #triton_gpu.slice<{dim = 0, parent = #blocked4}>> loc(#loc37)
    %77 = tt.expand_dims %76 {axis = 0 : i32} : tensor<32xi1, #triton_gpu.slice<{dim = 0, parent = #blocked4}>> -> tensor<1x32xi1, #blocked4> loc(#loc37)
    %78 = triton_gpu.convert_layout %77 : tensor<1x32xi1, #blocked4> -> tensor<1x32xi1, #blocked> loc(#loc38)
    %79 = tt.broadcast %75 : tensor<32x1xi1, #blocked1> -> tensor<32x32xi1, #blocked1> loc(#loc38)
    %80 = triton_gpu.convert_layout %79 : tensor<32x32xi1, #blocked1> -> tensor<32x32xi1, #blocked> loc(#loc38)
    %81 = tt.broadcast %78 : tensor<1x32xi1, #blocked> -> tensor<32x32xi1, #blocked> loc(#loc38)
    %82 = arith.andi %80, %81 : tensor<32x32xi1, #blocked> loc(#loc38)
…
    %628 = llvm.inline_asm has_side_effects asm_dialect = att operand_attrs = [] "mma.sync.aligned.m8n8k4.row.row.f32.f16.f16.f32 { $0, $1, $2, $3, $4, $5, $6, $7 }, { $8, $9 }, { $10, $11 }, { $12, $13, $14, $15, $16, $17, $18, $19 };", "=f,=f,=f,=f,=f,=f,=f,=f,r,r,r,r,0,1,2,3,4,5,6,7" %428, %429, %508, %509, %611, %612, %613, %614, %615, %616, %617, %618 : (i32, i32, i32, i32, f32, f32, f32, f32, f32, f32, f32, f32) -> !llvm.struct<(f32, f32, f32, f32, f32, f32, f32, f32)> loc(#loc25)
    %629 = llvm.extractvalue %628[0] : !llvm.struct<(f32, f32, f32, f32, f32, f32, f32, f32)>  loc(#loc25)
    %630 = llvm.extractvalue %628[1] : !llvm.struct<(f32, f32, f32, f32, f32, f32, f32, f32)>  loc(#loc25)
    %631 = llvm.extractvalue %628[2] : !llvm.struct<(f32, f32, f32, f32, f32, f32, f32, f32)>  loc(#loc25)
    %632 = llvm.extractvalue %628[3] : !llvm.struct<(f32, f32, f32, f32, f32, f32, f32, f32)>  loc(#loc25)
    %633 = llvm.extractvalue %628[4] : !llvm.struct<(f32, f32, f32, f32, f32, f32, f32, f32)>  loc(#loc25)
    %634 = llvm.extractvalue %628[5] : !llvm.struct<(f32, f32, f32, f32, f32, f32, f32, f32)>  loc(#loc25)
    %635 = llvm.extractvalue %628[6] : !llvm.struct<(f32, f32, f32, f32, f32, f32, f32, f32)>  loc(#loc25)
    %636 = llvm.extractvalue %628[7] : !llvm.struct<(f32, f32, f32, f32, f32, f32, f32, f32)>  loc(#loc25)
    %637 = llvm.inline_asm has_side_effects asm_dialect = att operand_attrs = [] "mma.sync.aligned.m8n8k4.row.row.f32.f16.f16.f32 { $0, $1, $2, $3, $4, $5, $6, $7 }, { $8, $9 }, { $10, $11 }, { $12, $13, $14, $15, $16, $17, $18, $19 };", "=f,=f,=f,=f,=f,=f,=f,=f,r,r,r,r,0,1,2,3,4,5,6,7" %428, %429, %510, %511, %620, %621, %622, %623, %624, %625, %626, %627 : (i32, i32, i32, i32, f32, f32, f32, f32, f32, f32, f32, f32) -> !llvm.struct<(f32, f32, f32, f32, f32, f32, f32, f32)> loc(#loc25)
    %638 = llvm.extractvalue %637[0] : !llvm.struct<(f32, f32, f32, f32, f32, f32, f32, f32)>  loc(#loc25)
    %639 = llvm.extractvalue %637[1] : !llvm.struct<(f32, f32, f32, f32, f32, f32, f32, f32)>  loc(#loc25)
    %640 = llvm.extractvalue %637[2] : !llvm.struct<(f32, f32, f32, f32, f32, f32, f32, f32)>  loc(#loc25)
    %641 = llvm.extractvalue %637[3] : !llvm.struct<(f32, f32, f32, f32, f32, f32, f32, f32)>  loc(#loc25)
    %642 = llvm.extractvalue %637[4] : !llvm.struct<(f32, f32, f32, f32, f32, f32, f32, f32)>  loc(#loc25)
    %643 = llvm.extractvalue %637[5] : !llvm.struct<(f32, f32, f32, f32, f32, f32, f32, f32)>  loc(#loc25)
    %644 = llvm.extractvalue %637[6] : !llvm.struct<(f32, f32, f32, f32, f32, f32, f32, f32)>  loc(#loc25)
    %645 = llvm.extractvalue %637[7] : !llvm.struct<(f32, f32, f32, f32, f32, f32, f32, f32)>  loc(#loc25)
    %646 = llvm.inline_asm has_side_effects asm_dialect = att operand_attrs = [] "mma.sync.aligned.m8n8k4.row.row.f32.f16.f16.f32 { $0, $1, $2, $3, $4, $5, $6, $7 }, { $8, $9 }, { $10, $11 }, { $12, $13, $14, $15, $16, $17, $18, $19 };", "=f,=f,=f,=f,=f,=f,=f,=f,r,r,r,r,0,1,2,3,4,5,6,7" %433, %434, %516, %517, %629, %630, %631, %632, %633, %634, %635, %636 : (i32, i32, i32, i32, f32, f32, f32, f32, f32, f32, f32, f32) -> !llvm.struct<(f32, f32, f32, f32, f32, f32, f32, f32)> loc(#loc25)
    %647 = llvm.extractvalue %646[0] : !llvm.struct<(f32, f32, f32, f32, f32, f32, f32, f32)>  loc(#loc25)
    %648 = llvm.extractvalue %646[1] : !llvm.struct<(f32, f32, f32, f32, f32, f32, f32, f32)>  loc(#loc25)
    %649 = llvm.extractvalue %646[2] : !llvm.struct<(f32, f32, f32, f32, f32, f32, f32, f32)>  loc(#loc25)
    %650 = llvm.extractvalue %646[3] : !llvm.struct<(f32, f32, f32, f32, f32, f32, f32, f32)>  loc(#loc25)
    %651 = llvm.extractvalue %646[4] : !llvm.struct<(f32, f32, f32, f32, f32, f32, f32, f32)>  loc(#loc25)
    %652 = llvm.extractvalue %646[5] : !llvm.struct<(f32, f32, f32, f32, f32, f32, f32, f32)>  loc(#loc25)
    %653 = llvm.extractvalue %646[6] : !llvm.struct<(f32, f32, f32, f32, f32, f32, f32, f32)>  loc(#loc25)
    %654 = llvm.extractvalue %646[7] : !llvm.struct<(f32, f32, f32, f32, f32, f32, f32, f32)>  loc(#loc25)
    %655 = llvm.inline_asm has_side_effects asm_dialect = att operand_attrs = [] "mma.sync.aligned.m8n8k4.row.row.f32.f16.f16.f32 { $0, $1, $2, $3, $4, $5, $6, $7 }, { $8, $9 }, { $10, $11 }, { $12, $13, $14, $15, $16, $17, $18, $19 };", "=f,=f,=f,=f,=f,=f,=f,=f,r,r,r,r,0,1,2,3,4,5,6,7" %433, %434, %518, %519, %638, %639, %640, %641, %642, %643, %644, %645 : (i32, i32, i32, i32, f32, f32, f32, f32, f32, f32, f32, f32) -> !llvm.struct<(f32, f32, f32, f32, f32, f32, f32, f32)> loc(#loc25)
    %656 = llvm.extractvalue %655[0] : !llvm.struct<(f32, f32, f32, f32, f32, f32, f32, f32)>  loc(#loc25)
    %657 = llvm.extractvalue %655[1] : !llvm.struct<(f32, f32, f32, f32, f32, f32, f32, f32)>  loc(#loc25)
    %658 = llvm.extractvalue %655[2] : !llvm.struct<(f32, f32, f32, f32, f32, f32, f32, f32)>  loc(#loc25)
    %659 = llvm.extractvalue %655[3] : !llvm.struct<(f32, f32, f32, f32, f32, f32, f32, f32)>  loc(#loc25)
    %660 = llvm.extractvalue %655[4] : !llvm.struct<(f32, f32, f32, f32, f32, f32, f32, f32)>  loc(#loc25)
    %661 = llvm.extractvalue %655[5] : !llvm.struct<(f32, f32, f32, f32, f32, f32, f32, f32)>  loc(#loc25)
    %662 = llvm.extractvalue %655[6] : !llvm.struct<(f32, f32, f32, f32, f32, f32, f32, f32)>  loc(#loc25)
    %663 = llvm.extractvalue %655[7] : !llvm.struct<(f32, f32, f32, f32, f32, f32, f32, f32)>  loc(#loc25)
    %664 = llvm.getelementptr %187[%326] : (!llvm.ptr<3>, i32) -> !llvm.ptr<3>, f16 loc(#loc16)
    %665 = llvm.getelementptr %664[%351] : (!llvm.ptr<3>, i32) -> !llvm.ptr<3>, f16 loc(#loc16)
    %666 = llvm.getelementptr %665[%395] : (!llvm.ptr<3>, i32) -> !llvm.ptr<3>, f16 loc(#loc16)
    %667 = llvm.load %666 : !llvm.ptr<3> -> vector<2xi32> loc(#loc16)
    %668 = llvm.extractelement %667[%15 : i32] : vector<2xi32> loc(#loc16)
    %669 = llvm.extractelement %667[%14 : i32] : vector<2xi32> loc(#loc16)
    %670 = llvm.getelementptr %664[%357] : (!llvm.ptr<3>, i32) -> !llvm.ptr<3>, f16 loc(#loc16)
    %671 = llvm.getelementptr %670[%395] : (!llvm.ptr<3>, i32) -> !llvm.ptr<3>, f16 loc(#loc16)
    %672 = llvm.load %671 : !llvm.ptr<3> -> vector<2xi32> loc(#loc16)
    %673 = llvm.extractelement %672[%15 : i32] : vector<2xi32> loc(#loc16)
    %674 = llvm.extractelement %672[%14 : i32] : vector<2xi32> loc(#loc16)
    %675 = llvm.getelementptr %664[%363] : (!llvm.ptr<3>, i32) -> !llvm.ptr<3>, f16 loc(#loc16)
    %676 = llvm.getelementptr %675[%395] : (!llvm.ptr<3>, i32) -> !llvm.ptr<3>, f16 loc(#loc16)
    %677 = llvm.load %676 : !llvm.ptr<3> -> vector<2xi32> loc(#loc16)
    %678 = llvm.extractelement %677[%15 : i32] : vector<2xi32> loc(#loc16)
    %679 = llvm.extractelement %677[%14 : i32] : vector<2xi32> loc(#loc16)
    %680 = llvm.getelementptr %664[%369] : (!llvm.ptr<3>, i32) -> !llvm.ptr<3>, f16 loc(#loc16)
    %681 = llvm.getelementptr %680[%395] : (!llvm.ptr<3>, i32) -> !llvm.ptr<3>, f16 loc(#loc16)
    %682 = llvm.load %681 : !llvm.ptr<3> -> vector<2xi32> loc(#loc16)
    %683 = llvm.extractelement %682[%15 : i32] : vector<2xi32> loc(#loc16)
    %684 = llvm.extractelement %682[%14 : i32] : vector<2xi32> loc(#loc16)
    %685 = llvm.getelementptr %664[%375] : (!llvm.ptr<3>, i32) -> !llvm.ptr<3>, f16 loc(#loc16)
    %686 = llvm.getelementptr %685[%395] : (!llvm.ptr<3>, i32) -> !llvm.ptr<3>, f16 loc(#loc16)
    %687 = llvm.load %686 : !llvm.ptr<3> -> vector<2xi32> loc(#loc16)
    %688 = llvm.extractelement %687[%15 : i32] : vector<2xi32> loc(#loc16)
    %689 = llvm.extractelement %687[%14 : i32] : vector<2xi32> loc(#loc16)
    %690 = llvm.getelementptr %664[%381] : (!llvm.ptr<3>, i32) -> !llvm.ptr<3>, f16 loc(#loc16)
    %691 = llvm.getelementptr %690[%395] : (!llvm.ptr<3>, i32) -> !llvm.ptr<3>, f16 loc(#loc16)
    %692 = llvm.load %691 : !llvm.ptr<3> -> vector<2xi32> loc(#loc16)
    %693 = llvm.extractelement %692[%15 : i32] : vector<2xi32> loc(#loc16)
    %694 = llvm.extractelement %692[%14 : i32] : vector<2xi32> loc(#loc16)
    %695 = llvm.getelementptr %664[%387] : (!llvm.ptr<3>, i32) -> !llvm.ptr<3>, f16 loc(#loc16)
    %696 = llvm.getelementptr %695[%395] : (!llvm.ptr<3>, i32) -> !llvm.ptr<3>, f16 loc(#loc16)
    %697 = llvm.load %696 : !llvm.ptr<3> -> vector<2xi32> loc(#loc16)
    %698 = llvm.extractelement %697[%15 : i32] : vector<2xi32> loc(#loc16)
    %699 = llvm.extractelement %697[%14 : i32] : vector<2xi32> loc(#loc16)
    %700 = llvm.getelementptr %664[%393] : (!llvm.ptr<3>, i32) -> !llvm.ptr<3>, f16 loc(#loc16)
    %701 = llvm.getelementptr %700[%395] : (!llvm.ptr<3>, i32) -> !llvm.ptr<3>, f16 loc(#loc16)
    %702 = llvm.load %701 : !llvm.ptr<3> -> vector<2xi32> loc(#loc16)
    %703 = llvm.extractelement %702[%15 : i32] : vector<2xi32> loc(#loc16)
    %704 = llvm.extractelement %702[%14 : i32] : vector<2xi32> loc(#loc16)
    %705 = llvm.getelementptr %300[%326] : (!llvm.ptr<3>, i32) -> !llvm.ptr<3>, f16 loc(#loc24)
    %706 = llvm.getelementptr %705[%456] : (!llvm.ptr<3>, i32) -> !llvm.ptr<3>, f16 loc(#loc24)
    %707 = llvm.getelementptr %706[%395] : (!llvm.ptr<3>, i32) -> !llvm.ptr<3>, f16 loc(#loc24)
    %708 = llvm.load %707 : !llvm.ptr<3> -> vector<4xi32> loc(#loc24)
    %709 = llvm.extractelement %708[%15 : i32] : vector<4xi32> loc(#loc24)
    %710 = llvm.extractelement %708[%14 : i32] : vector<4xi32> loc(#loc24)
    %711 = llvm.extractelement %708[%20 : i32] : vector<4xi32> loc(#loc24)
    %712 = llvm.extractelement %708[%10 : i32] : vector<4xi32> loc(#loc24)
    %713 = llvm.getelementptr %706[%465] : (!llvm.ptr<3>, i32) -> !llvm.ptr<3>, f16 loc(#loc24)
    %714 = llvm.load %713 : !llvm.ptr<3> -> vector<4xi32> loc(#loc24)
    %715 = llvm.extractelement %714[%15 : i32] : vector<4xi32> loc(#loc24)
    %716 = llvm.extractelement %714[%14 : i32] : vector<4xi32> loc(#loc24)
    %717 = llvm.extractelement %714[%20 : i32] : vector<4xi32> loc(#loc24)
    %718 = llvm.extractelement %714[%10 : i32] : vector<4xi32> loc(#loc24)
    %719 = llvm.getelementptr %706[%473] : (!llvm.ptr<3>, i32) -> !llvm.ptr<3>, f16 loc(#loc24)
    %720 = llvm.load %719 : !llvm.ptr<3> -> vector<4xi32> loc(#loc24)
    %721 = llvm.extractelement %720[%15 : i32] : vector<4xi32> loc(#loc24)
    %722 = llvm.extractelement %720[%14 : i32] : vector<4xi32> loc(#loc24)
    %723 = llvm.extractelement %720[%20 : i32] : vector<4xi32> loc(#loc24)
    %724 = llvm.extractelement %720[%10 : i32] : vector<4xi32> loc(#loc24)
    %725 = llvm.getelementptr %706[%481] : (!llvm.ptr<3>, i32) -> !llvm.ptr<3>, f16 loc(#loc24)
    %726 = llvm.load %725 : !llvm.ptr<3> -> vector<4xi32> loc(#loc24)
    %727 = llvm.extractelement %726[%15 : i32] : vector<4xi32> loc(#loc24)
    %728 = llvm.extractelement %726[%14 : i32] : vector<4xi32> loc(#loc24)
    %729 = llvm.extractelement %726[%20 : i32] : vector<4xi32> loc(#loc24)
    %730 = llvm.extractelement %726[%10 : i32] : vector<4xi32> loc(#loc24)
    %731 = llvm.getelementptr %706[%489] : (!llvm.ptr<3>, i32) -> !llvm.ptr<3>, f16 loc(#loc24)
    %732 = llvm.load %731 : !llvm.ptr<3> -> vector<4xi32> loc(#loc24)
    %733 = llvm.extractelement %732[%15 : i32] : vector<4xi32> loc(#loc24)
    %734 = llvm.extractelement %732[%14 : i32] : vector<4xi32> loc(#loc24)
    %735 = llvm.extractelement %732[%20 : i32] : vector<4xi32> loc(#loc24)
    %736 = llvm.extractelement %732[%10 : i32] : vector<4xi32> loc(#loc24)
    %737 = llvm.getelementptr %706[%497] : (!llvm.ptr<3>, i32) -> !llvm.ptr<3>, f16 loc(#loc24)
    %738 = llvm.load %737 : !llvm.ptr<3> -> vector<4xi32> loc(#loc24)
    %739 = llvm.extractelement %738[%15 : i32] : vector<4xi32> loc(#loc24)
    %740 = llvm.extractelement %738[%14 : i32] : vector<4xi32> loc(#loc24)
    %741 = llvm.extractelement %738[%20 : i32] : vector<4xi32> loc(#loc24)
    %742 = llvm.extractelement %738[%10 : i32] : vector<4xi32> loc(#loc24)
    %743 = llvm.getelementptr %706[%505] : (!llvm.ptr<3>, i32) -> !llvm.ptr<3>, f16 loc(#loc24)
    %744 = llvm.load %743 : !llvm.ptr<3> -> vector<4xi32> loc(#loc24)
    %745 = llvm.extractelement %744[%15 : i32] : vector<4xi32> loc(#loc24)
    %746 = llvm.extractelement %744[%14 : i32] : vector<4xi32> loc(#loc24)
    %747 = llvm.extractelement %744[%20 : i32] : vector<4xi32> loc(#loc24)
    %748 = llvm.extractelement %744[%10 : i32] : vector<4xi32> loc(#loc24)
    %749 = llvm.getelementptr %706[%513] : (!llvm.ptr<3>, i32) -> !llvm.ptr<3>, f16 loc(#loc24)
    %750 = llvm.load %749 : !llvm.ptr<3> -> vector<4xi32> loc(#loc24)
    %751 = llvm.extractelement %750[%15 : i32] : vector<4xi32> loc(#loc24)
    %752 = llvm.extractelement %750[%14 : i32] : vector<4xi32> loc(#loc24)
    %753 = llvm.extractelement %750[%20 : i32] : vector<4xi32> loc(#loc24)
    %754 = llvm.extractelement %750[%10 : i32] : vector<4xi32> loc(#loc24)
    %755 = llvm.inline_asm has_side_effects asm_dialect = att operand_attrs = [] "mma.sync.aligned.m8n8k4.row.row.f32.f16.f16.f32 { $0, $1, $2, $3, $4, $5, $6, $7 }, { $8, $9 }, { $10, $11 }, { $12, $13, $14, $15, $16, $17, $18, $19 };", "=f,=f,=f,=f,=f,=f,=f,=f,r,r,r,r,0,1,2,3,4,5,6,7" %668, %669, %709, %710, %647, %648, %649, %650, %651, %652, %653, %654 : (i32, i32, i32, i32, f32, f32, f32, f32, f32, f32, f32, f32) -> !llvm.struct<(f32, f32, f32, f32, f32, f32, f32, f32)> loc(#loc26)
    %756 = llvm.extractvalue %755[0] : !llvm.struct<(f32, f32, f32, f32, f32, f32, f32, f32)>  loc(#loc26)
    %757 = llvm.extractvalue %755[1] : !llvm.struct<(f32, f32, f32, f32, f32, f32, f32, f32)>  loc(#loc26)
    %758 = llvm.extractvalue %755[2] : !llvm.struct<(f32, f32, f32, f32, f32, f32, f32, f32)>  loc(#loc26)
    %759 = llvm.extractvalue %755[3] : !llvm.struct<(f32, f32, f32, f32, f32, f32, f32, f32)>  loc(#loc26)
    %760 = llvm.extractvalue %755[4] : !llvm.struct<(f32, f32, f32, f32, f32, f32, f32, f32)>  loc(#loc26)
    %761 = llvm.extractvalue %755[5] : !llvm.struct<(f32, f32, f32, f32, f32, f32, f32, f32)>  loc(#loc26)
    %762 = llvm.extractvalue %755[6] : !llvm.struct<(f32, f32, f32, f32, f32, f32, f32, f32)>  loc(#loc26)
    %763 = llvm.extractvalue %755[7] : !llvm.struct<(f32, f32, f32, f32, f32, f32, f32, f32)>  loc(#loc26)
    %764 = llvm.inline_asm has_side_effects asm_dialect = att operand_attrs = [] "mma.sync.aligned.m8n8k4.row.row.f32.f16.f16.f32 { $0, $1, $2, $3, $4, $5, $6, $7 }, { $8, $9 }, { $10, $11 }, { $12, $13, $14, $15, $16, $17, $18, $19 };", "=f,=f,=f,=f,=f,=f,=f,=f,r,r,r,r,0,1,2,3,4,5,6,7" %668, %669, %711, %712, %656, %657, %658, %659, %660, %661, %662, %663 : (i32, i32, i32, i32, f32, f32, f32, f32, f32, f32, f32, f32) -> !llvm.struct<(f32, f32, f32, f32, f32, f32, f32, f32)> loc(#loc26)
    %765 = llvm.extractvalue %764[0] : !llvm.struct<(f32, f32, f32, f32, f32, f32, f32, f32)>  loc(#loc26)
    %766 = llvm.extractvalue %764[1] : !llvm.struct<(f32, f32, f32, f32, f32, f32, f32, f32)>  loc(#loc26)
    %767 = llvm.extractvalue %764[2] : !llvm.struct<(f32, f32, f32, f32, f32, f32, f32, f32)>  loc(#loc26)
    %768 = llvm.extractvalue %764[3] : !llvm.struct<(f32, f32, f32, f32, f32, f32, f32, f32)>  loc(#loc26)
    %769 = llvm.extractvalue %764[4] : !llvm.struct<(f32, f32, f32, f32, f32, f32, f32, f32)>  loc(#loc26)
    %770 = llvm.extractvalue %764[5] : !llvm.struct<(f32, f32, f32, f32, f32, f32, f32, f32)>  loc(#loc26)
    %771 = llvm.extractvalue %764[6] : !llvm.struct<(f32, f32, f32, f32, f32, f32, f32, f32)>  loc(#loc26)
    %772 = llvm.extractvalue %764[7] : !llvm.struct<(f32, f32, f32, f32, f32, f32, f32, f32)>  loc(#loc26)
    %773 = llvm.inline_asm has_side_effects asm_dialect = att operand_attrs = [] "mma.sync.aligned.m8n8k4.row.row.f32.f16.f16.f32 { $0, $1, $2, $3, $4, $5, $6, $7 }, { $8, $9 }, { $10, $11 }, { $12, $13, $14, $15, $16, $17, $18, $19 };", "=f,=f,=f,=f,=f,=f,=f,=f,r,r,r,r,0,1,2,3,4,5,6,7" %673, %674, %715, %716, %756, %757, %758, %759, %760, %761, %762, %763 : (i32, i32, i32, i32, f32, f32, f32, f32, f32, f32, f32, f32) -> !llvm.struct<(f32, f32, f32, f32, f32, f32, f32, f32)> loc(#loc26)
    %774 = llvm.extractvalue %773[0] : !llvm.struct<(f32, f32, f32, f32, f32, f32, f32, f32)>  loc(#loc26)
    %775 = llvm.extractvalue %773[1] : !llvm.struct<(f32, f32, f32, f32, f32, f32, f32, f32)>  loc(#loc26)
    %776 = llvm.extractvalue %773[2] : !llvm.struct<(f32, f32, f32, f32, f32, f32, f32, f32)>  loc(#loc26)
    %777 = llvm.extractvalue %773[3] : !llvm.struct<(f32, f32, f32, f32, f32, f32, f32, f32)>  loc(#loc26)
    %778 = llvm.extractvalue %773[4] : !llvm.struct<(f32, f32, f32, f32, f32, f32, f32, f32)>  loc(#loc26)
    %779 = llvm.extractvalue %773[5] : !llvm.struct<(f32, f32, f32, f32, f32, f32, f32, f32)>  loc(#loc26)
    %780 = llvm.extractvalue %773[6] : !llvm.struct<(f32, f32, f32, f32, f32, f32, f32, f32)>  loc(#loc26)
    %781 = llvm.extractvalue %773[7] : !llvm.struct<(f32, f32, f32, f32, f32, f32, f32, f32)>  loc(#loc26)
    %782 = llvm.inline_asm has_side_effects asm_dialect = att operand_attrs = [] "mma.sync.aligned.m8n8k4.row.row.f32.f16.f16.f32 { $0, $1, $2, $3, $4, $5, $6, $7 }, { $8, $9 }, { $10, $11 }, { $12, $13, $14, $15, $16, $17, $18, $19 };", "=f,=f,=f,=f,=f,=f,=f,=f,r,r,r,r,0,1,2,3,4,5,6,7" %673, %674, %717, %718, %765, %766, %767, %768, %769, %770, %771, %772 : (i32, i32, i32, i32, f32, f32, f32, f32, f32, f32, f32, f32) -> !llvm.struct<(f32, f32, f32, f32, f32, f32, f32, f32)> loc(#loc26)
    %783 = llvm.extractvalue %782[0] : !llvm.struct<(f32, f32, f32, f32, f32, f32, f32, f32)>  loc(#loc26)
    %784 = llvm.extractvalue %782[1] : !llvm.struct<(f32, f32, f32, f32, f32, f32, f32, f32)>  loc(#loc26)
    %785 = llvm.extractvalue %782[2] : !llvm.struct<(f32, f32, f32, f32, f32, f32, f32, f32)>  loc(#loc26)
    %786 = llvm.extractvalue %782[3] : !llvm.struct<(f32, f32, f32, f32, f32, f32, f32, f32)>  loc(#loc26)
    %787 = llvm.extractvalue %782[4] : !llvm.struct<(f32, f32, f32, f32, f32, f32, f32, f32)>  loc(#loc26)
    %788 = llvm.extractvalue %782[5] : !llvm.struct<(f32, f32, f32, f32, f32, f32, f32, f32)>  loc(#loc26)
    %789 = llvm.extractvalue %782[6] : !llvm.struct<(f32, f32, f32, f32, f32, f32, f32, f32)>  loc(#loc26)
    %790 = llvm.extractvalue %782[7] : !llvm.struct<(f32, f32, f32, f32, f32, f32, f32, f32)>  loc(#loc26)
    %791 = llvm.inline_asm has_side_effects asm_dialect = att operand_attrs = [] "mma.sync.aligned.m8n8k4.row.row.f32.f16.f16.f32 { $0, $1, $2, $3, $4, $5, $6, $7 }, { $8, $9 }, { $10, $11 }, { $12, $13, $14, $15, $16, $17, $18, $19 };", "=f,=f,=f,=f,=f,=f,=f,=f,r,r,r,r,0,1,2,3,4,5,6,7" %678, %679, %721, %722, %774, %775, %776, %777, %778, %779, %780, %781 : (i32, i32, i32, i32, f32, f32, f32, f32, f32, f32, f32, f32) -> !llvm.struct<(f32, f32, f32, f32, f32, f32, f32, f32)> loc(#loc26)
    %792 = llvm.extractvalue %791[0] : !llvm.struct<(f32, f32, f32, f32, f32, f32, f32, f32)>  loc(#loc26)
    %793 = llvm.extractvalue %791[1] : !llvm.struct<(f32, f32, f32, f32, f32, f32, f32, f32)>  loc(#loc26)
    %794 = llvm.extractvalue %791[2] : !llvm.struct<(f32, f32, f32, f32, f32, f32, f32, f32)>  loc(#loc26)
    %795 = llvm.extractvalue %791[3] : !llvm.struct<(f32, f32, f32, f32, f32, f32, f32, f32)>  loc(#loc26)
    %796 = llvm.extractvalue %791[4] : !llvm.struct<(f32, f32, f32, f32, f32, f32, f32, f32)>  loc(#loc26)
    %797 = llvm.extractvalue %791[5] : !llvm.struct<(f32, f32, f32, f32, f32, f32, f32, f32)>  loc(#loc26)
    %798 = llvm.extractvalue %791[6] : !llvm.struct<(f32, f32, f32, f32, f32, f32, f32, f32)>  loc(#loc26)
    %799 = llvm.extractvalue %791[7] : !llvm.struct<(f32, f32, f32, f32, f32, f32, f32, f32)>  loc(#loc26)
    %800 = llvm.inline_asm has_side_effects asm_dialect = att operand_attrs = [] "mma.sync.aligned.m8n8k4.row.row.f32.f16.f16.f32 { $0, $1, $2, $3, $4, $5, $6, $7 }, { $8, $9 }, { $10, $11 }, { $12, $13, $14, $15, $16, $17, $18, $19 };", "=f,=f,=f,=f,=f,=f,=f,=f,r,r,r,r,0,1,2,3,4,5,6,7" %678, %679, %723, %724, %783, %784, %785, %786, %787, %788, %789, %790 : (i32, i32, i32, i32, f32, f32, f32, f32, f32, f32, f32, f32) -> !llvm.struct<(f32, f32, f32, f32, f32, f32, f32, f32)> loc(#loc26)
    %801 = llvm.extractvalue %800[0] : !llvm.struct<(f32, f32, f32, f32, f32, f32, f32, f32)>  loc(#loc26)
    %802 = llvm.extractvalue %800[1] : !llvm.struct<(f32, f32, f32, f32, f32, f32, f32, f32)>  loc(#loc26)
    %803 = llvm.extractvalue %800[2] : !llvm.struct<(f32, f32, f32, f32, f32, f32, f32, f32)>  loc(#loc26)
    %804 = llvm.extractvalue %800[3] : !llvm.struct<(f32, f32, f32, f32, f32, f32, f32, f32)>  loc(#loc26)
    %805 = llvm.extractvalue %800[4] : !llvm.struct<(f32, f32, f32, f32, f32, f32, f32, f32)>  loc(#loc26)
    %806 = llvm.extractvalue %800[5] : !llvm.struct<(f32, f32, f32, f32, f32, f32, f32, f32)>  loc(#loc26)
    %807 = llvm.extractvalue %800[6] : !llvm.struct<(f32, f32, f32, f32, f32, f32, f32, f32)>  loc(#loc26)
    %808 = llvm.extractvalue %800[7] : !llvm.struct<(f32, f32, f32, f32, f32, f32, f32, f32)>  loc(#loc26)
    %809 = llvm.inline_asm has_side_effects asm_dialect = att operand_attrs = [] "mma.sync.aligned.m8n8k4.row.row.f32.f16.f16.f32 { $0, $1, $2, $3, $4, $5, $6, $7 }, { $8, $9 }, { $10, $11 }, { $12, $13, $14, $15, $16, $17, $18, $19 };", "=f,=f,=f,=f,=f,=f,=f,=f,r,r,r,r,0,1,2,3,4,5,6,7" %683, %684, %727, %728, %792, %793, %794, %795, %796, %797, %798, %799 : (i32, i32, i32, i32, f32, f32, f32, f32, f32, f32, f32, f32) -> !llvm.struct<(f32, f32, f32, f32, f32, f32, f32, f32)> loc(#loc26)
    %810 = llvm.extractvalue %809[0] : !llvm.struct<(f32, f32, f32, f32, f32, f32, f32, f32)>  loc(#loc26)
    %811 = llvm.extractvalue %809[1] : !llvm.struct<(f32, f32, f32, f32, f32, f32, f32, f32)>  loc(#loc26)
    %812 = llvm.extractvalue %809[2] : !llvm.struct<(f32, f32, f32, f32, f32, f32, f32, f32)>  loc(#loc26)
    %813 = llvm.extractvalue %809[3] : !llvm.struct<(f32, f32, f32, f32, f32, f32, f32, f32)>  loc(#loc26)
    %814 = llvm.extractvalue %809[4] : !llvm.struct<(f32, f32, f32, f32, f32, f32, f32, f32)>  loc(#loc26)
    %815 = llvm.extractvalue %809[5] : !llvm.struct<(f32, f32, f32, f32, f32, f32, f32, f32)>  loc(#loc26)
    %816 = llvm.extractvalue %809[6] : !llvm.struct<(f32, f32, f32, f32, f32, f32, f32, f32)>  loc(#loc26)
    %817 = llvm.extractvalue %809[7] : !llvm.struct<(f32, f32, f32, f32, f32, f32, f32, f32)>  loc(#loc26)
    %818 = llvm.inline_asm has_side_effects asm_dialect = att operand_attrs = [] "mma.sync.aligned.m8n8k4.row.row.f32.f16.f16.f32 { $0, $1, $2, $3, $4, $5, $6, $7 }, { $8, $9 }, { $10, $11 }, { $12, $13, $14, $15, $16, $17, $18, $19 };", "=f,=f,=f,=f,=f,=f,=f,=f,r,r,r,r,0,1,2,3,4,5,6,7" %683, %684, %729, %730, %801, %802, %803, %804, %805, %806, %807, %808 : (i32, i32, i32, i32, f32, f32, f32, f32, f32, f32, f32, f32) -> !llvm.struct<(f32, f32, f32, f32, f32, f32, f32, f32)> loc(#loc26)
    %819 = llvm.extractvalue %818[0] : !llvm.struct<(f32, f32, f32, f32, f32, f32, f32, f32)>  loc(#loc26)
    %820 = llvm.extractvalue %818[1] : !llvm.struct<(f32, f32, f32, f32, f32, f32, f32, f32)>  loc(#loc26)
    %821 = llvm.extractvalue %818[2] : !llvm.struct<(f32, f32, f32, f32, f32, f32, f32, f32)>  loc(#loc26)
    %822 = llvm.extractvalue %818[3] : !llvm.struct<(f32, f32, f32, f32, f32, f32, f32, f32)>  loc(#loc26)
    %823 = llvm.extractvalue %818[4] : !llvm.struct<(f32, f32, f32, f32, f32, f32, f32, f32)>  loc(#loc26)
    %824 = llvm.extractvalue %818[5] : !llvm.struct<(f32, f32, f32, f32, f32, f32, f32, f32)>  loc(#loc26)
    %825 = llvm.extractvalue %818[6] : !llvm.struct<(f32, f32, f32, f32, f32, f32, f32, f32)>  loc(#loc26)
    %826 = llvm.extractvalue %818[7] : !llvm.struct<(f32, f32, f32, f32, f32, f32, f32, f32)>  loc(#loc26)
    %827 = llvm.inline_asm has_side_effects asm_dialect = att operand_attrs = [] "mma.sync.aligned.m8n8k4.row.row.f32.f16.f16.f32 { $0, $1, $2, $3, $4, $5, $6, $7 }, { $8, $9 }, { $10, $11 }, { $12, $13, $14, $15, $16, $17, $18, $19 };", "=f,=f,=f,=f,=f,=f,=f,=f,r,r,r,r,0,1,2,3,4,5,6,7" %688, %689, %733, %734, %810, %811, %812, %813, %814, %815, %816, %817 : (i32, i32, i32, i32, f32, f32, f32, f32, f32, f32, f32, f32) -> !llvm.struct<(f32, f32, f32, f32, f32, f32, f32, f32)> loc(#loc26)
    %828 = llvm.extractvalue %827[0] : !llvm.struct<(f32, f32, f32, f32, f32, f32, f32, f32)>  loc(#loc26)
    %829 = llvm.extractvalue %827[1] : !llvm.struct<(f32, f32, f32, f32, f32, f32, f32, f32)>  loc(#loc26)
    %830 = llvm.extractvalue %827[2] : !llvm.struct<(f32, f32, f32, f32, f32, f32, f32, f32)>  loc(#loc26)
    %831 = llvm.extractvalue %827[3] : !llvm.struct<(f32, f32, f32, f32, f32, f32, f32, f32)>  loc(#loc26)
    %832 = llvm.extractvalue %827[4] : !llvm.struct<(f32, f32, f32, f32, f32, f32, f32, f32)>  loc(#loc26)
    %833 = llvm.extractvalue %827[5] : !llvm.struct<(f32, f32, f32, f32, f32, f32, f32, f32)>  loc(#loc26)
    %834 = llvm.extractvalue %827[6] : !llvm.struct<(f32, f32, f32, f32, f32, f32, f32, f32)>  loc(#loc26)
    %835 = llvm.extractvalue %827[7] : !llvm.struct<(f32, f32, f32, f32, f32, f32, f32, f32)>  loc(#loc26)
    %836 = llvm.inline_asm has_side_effects asm_dialect = att operand_attrs = [] "mma.sync.aligned.m8n8k4.row.row.f32.f16.f16.f32 { $0, $1, $2, $3, $4, $5, $6, $7 }, { $8, $9 }, { $10, $11 }, { $12, $13, $14, $15, $16, $17, $18, $19 };", "=f,=f,=f,=f,=f,=f,=f,=f,r,r,r,r,0,1,2,3,4,5,6,7" %688, %689, %735, %736, %819, %820, %821, %822, %823, %824, %825, %826 : (i32, i32, i32, i32, f32, f32, f32, f32, f32, f32, f32, f32) -> !llvm.struct<(f32, f32, f32, f32, f32, f32, f32, f32)> loc(#loc26)
    %837 = llvm.extractvalue %836[0] : !llvm.struct<(f32, f32, f32, f32, f32, f32, f32, f32)>  loc(#loc26)
    %838 = llvm.extractvalue %836[1] : !llvm.struct<(f32, f32, f32, f32, f32, f32, f32, f32)>  loc(#loc26)
    %839 = llvm.extractvalue %836[2] : !llvm.struct<(f32, f32, f32, f32, f32, f32, f32, f32)>  loc(#loc26)
    %840 = llvm.extractvalue %836[3] : !llvm.struct<(f32, f32, f32, f32, f32, f32, f32, f32)>  loc(#loc26)
    %841 = llvm.extractvalue %836[4] : !llvm.struct<(f32, f32, f32, f32, f32, f32, f32, f32)>  loc(#loc26)
    %842 = llvm.extractvalue %836[5] : !llvm.struct<(f32, f32, f32, f32, f32, f32, f32, f32)>  loc(#loc26)
    %843 = llvm.extractvalue %836[6] : !llvm.struct<(f32, f32, f32, f32, f32, f32, f32, f32)>  loc(#loc26)
    %844 = llvm.extractvalue %836[7] : !llvm.struct<(f32, f32, f32, f32, f32, f32, f32, f32)>  loc(#loc26)
    %845 = llvm.inline_asm has_side_effects asm_dialect = att operand_attrs = [] "mma.sync.aligned.m8n8k4.row.row.f32.f16.f16.f32 { $0, $1, $2, $3, $4, $5, $6, $7 }, { $8, $9 }, { $10, $11 }, { $12, $13, $14, $15, $16, $17, $18, $19 };", "=f,=f,=f,=f,=f,=f,=f,=f,r,r,r,r,0,1,2,3,4,5,6,7" %693, %694, %739, %740, %828, %829, %830, %831, %832, %833, %834, %835 : (i32, i32, i32, i32, f32, f32, f32, f32, f32, f32, f32, f32) -> !llvm.struct<(f32, f32, f32, f32, f32, f32, f32, f32)> loc(#loc26)
    %846 = llvm.extractvalue %845[0] : !llvm.struct<(f32, f32, f32, f32, f32, f32, f32, f32)>  loc(#loc26)
    %847 = llvm.extractvalue %845[1] : !llvm.struct<(f32, f32, f32, f32, f32, f32, f32, f32)>  loc(#loc26)
    %848 = llvm.extractvalue %845[2] : !llvm.struct<(f32, f32, f32, f32, f32, f32, f32, f32)>  loc(#loc26)
    %849 = llvm.extractvalue %845[3] : !llvm.struct<(f32, f32, f32, f32, f32, f32, f32, f32)>  loc(#loc26)
    %850 = llvm.extractvalue %845[4] : !llvm.struct<(f32, f32, f32, f32, f32, f32, f32, f32)>  loc(#loc26)
    %851 = llvm.extractvalue %845[5] : !llvm.struct<(f32, f32, f32, f32, f32, f32, f32, f32)>  loc(#loc26)
    %852 = llvm.extractvalue %845[6] : !llvm.struct<(f32, f32, f32, f32, f32, f32, f32, f32)>  loc(#loc26)
    %853 = llvm.extractvalue %845[7] : !llvm.struct<(f32, f32, f32, f32, f32, f32, f32, f32)>  loc(#loc26)
    %854 = llvm.inline_asm has_side_effects asm_dialect = att operand_attrs = [] "mma.sync.aligned.m8n8k4.row.row.f32.f16.f16.f32 { $0, $1, $2, $3, $4, $5, $6, $7 }, { $8, $9 }, { $10, $11 }, { $12, $13, $14, $15, $16, $17, $18, $19 };", "=f,=f,=f,=f,=f,=f,=f,=f,r,r,r,r,0,1,2,3,4,5,6,7" %693, %694, %741, %742, %837, %838, %839, %840, %841, %842, %843, %844 : (i32, i32, i32, i32, f32, f32, f32, f32, f32, f32, f32, f32) -> !llvm.struct<(f32, f32, f32, f32, f32, f32, f32, f32)> loc(#loc26)
    %855 = llvm.extractvalue %854[0] : !llvm.struct<(f32, f32, f32, f32, f32, f32, f32, f32)>  loc(#loc26)
    %856 = llvm.extractvalue %854[1] : !llvm.struct<(f32, f32, f32, f32, f32, f32, f32, f32)>  loc(#loc26)
    %857 = llvm.extractvalue %854[2] : !llvm.struct<(f32, f32, f32, f32, f32, f32, f32, f32)>  loc(#loc26)
    %858 = llvm.extractvalue %854[3] : !llvm.struct<(f32, f32, f32, f32, f32, f32, f32, f32)>  loc(#loc26)
    %859 = llvm.extractvalue %854[4] : !llvm.struct<(f32, f32, f32, f32, f32, f32, f32, f32)>  loc(#loc26)
    %860 = llvm.extractvalue %854[5] : !llvm.struct<(f32, f32, f32, f32, f32, f32, f32, f32)>  loc(#loc26)
    %861 = llvm.extractvalue %854[6] : !llvm.struct<(f32, f32, f32, f32, f32, f32, f32, f32)>  loc(#loc26)
    %862 = llvm.extractvalue %854[7] : !llvm.struct<(f32, f32, f32, f32, f32, f32, f32, f32)>  loc(#loc26)
    %863 = llvm.inline_asm has_side_effects asm_dialect = att operand_attrs = [] "mma.sync.aligned.m8n8k4.row.row.f32.f16.f16.f32 { $0, $1, $2, $3, $4, $5, $6, $7 }, { $8, $9 }, { $10, $11 }, { $12, $13, $14, $15, $16, $17, $18, $19 };", "=f,=f,=f,=f,=f,=f,=f,=f,r,r,r,r,0,1,2,3,4,5,6,7" %698, %699, %745, %746, %846, %847, %848, %849, %850, %851, %852, %853 : (i32, i32, i32, i32, f32, f32, f32, f32, f32, f32, f32, f32) -> !llvm.struct<(f32, f32, f32, f32, f32, f32, f32, f32)> loc(#loc26)
    %864 = llvm.extractvalue %863[0] : !llvm.struct<(f32, f32, f32, f32, f32, f32, f32, f32)>  loc(#loc26)
    %865 = llvm.extractvalue %863[1] : !llvm.struct<(f32, f32, f32, f32, f32, f32, f32, f32)>  loc(#loc26)
    %866 = llvm.extractvalue %863[2] : !llvm.struct<(f32, f32, f32, f32, f32, f32, f32, f32)>  loc(#loc26)
    %867 = llvm.extractvalue %863[3] : !llvm.struct<(f32, f32, f32, f32, f32, f32, f32, f32)>  loc(#loc26)
    %868 = llvm.extractvalue %863[4] : !llvm.struct<(f32, f32, f32, f32, f32, f32, f32, f32)>  loc(#loc26)
    %869 = llvm.extractvalue %863[5] : !llvm.struct<(f32, f32, f32, f32, f32, f32, f32, f32)>  loc(#loc26)
    %870 = llvm.extractvalue %863[6] : !llvm.struct<(f32, f32, f32, f32, f32, f32, f32, f32)>  loc(#loc26)
    %871 = llvm.extractvalue %863[7] : !llvm.struct<(f32, f32, f32, f32, f32, f32, f32, f32)>  loc(#loc26)
    %872 = llvm.inline_asm has_side_effects asm_dialect = att operand_attrs = [] "mma.sync.aligned.m8n8k4.row.row.f32.f16.f16.f32 { $0, $1, $2, $3, $4, $5, $6, $7 }, { $8, $9 }, { $10, $11 }, { $12, $13, $14, $15, $16, $17, $18, $19 };", "=f,=f,=f,=f,=f,=f,=f,=f,r,r,r,r,0,1,2,3,4,5,6,7" %698, %699, %747, %748, %855, %856, %857, %858, %859, %860, %861, %862 : (i32, i32, i32, i32, f32, f32, f32, f32, f32, f32, f32, f32) -> !llvm.struct<(f32, f32, f32, f32, f32, f32, f32, f32)> loc(#loc26)
    %873 = llvm.extractvalue %872[0] : !llvm.struct<(f32, f32, f32, f32, f32, f32, f32, f32)>  loc(#loc26)
    %874 = llvm.extractvalue %872[1] : !llvm.struct<(f32, f32, f32, f32, f32, f32, f32, f32)>  loc(#loc26)
    %875 = llvm.extractvalue %872[2] : !llvm.struct<(f32, f32, f32, f32, f32, f32, f32, f32)>  loc(#loc26)
    %876 = llvm.extractvalue %872[3] : !llvm.struct<(f32, f32, f32, f32, f32, f32, f32, f32)>  loc(#loc26)
    %877 = llvm.extractvalue %872[4] : !llvm.struct<(f32, f32, f32, f32, f32, f32, f32, f32)>  loc(#loc26)
    %878 = llvm.extractvalue %872[5] : !llvm.struct<(f32, f32, f32, f32, f32, f32, f32, f32)>  loc(#loc26)
    %879 = llvm.extractvalue %872[6] : !llvm.struct<(f32, f32, f32, f32, f32, f32, f32, f32)>  loc(#loc26)
    %880 = llvm.extractvalue %872[7] : !llvm.struct<(f32, f32, f32, f32, f32, f32, f32, f32)>  loc(#loc26)
    %881 = llvm.inline_asm has_side_effects asm_dialect = att operand_attrs = [] "mma.sync.aligned.m8n8k4.row.row.f32.f16.f16.f32 { $0, $1, $2, $3, $4, $5, $6, $7 }, { $8, $9 }, { $10, $11 }, { $12, $13, $14, $15, $16, $17, $18, $19 };", "=f,=f,=f,=f,=f,=f,=f,=f,r,r,r,r,0,1,2,3,4,5,6,7" %703, %704, %751, %752, %864, %865, %866, %867, %868, %869, %870, %871 : (i32, i32, i32, i32, f32, f32, f32, f32, f32, f32, f32, f32) -> !llvm.struct<(f32, f32, f32, f32, f32, f32, f32, f32)> loc(#loc26)
    %882 = llvm.extractvalue %881[0] : !llvm.struct<(f32, f32, f32, f32, f32, f32, f32, f32)>  loc(#loc26)
    %883 = llvm.extractvalue %881[1] : !llvm.struct<(f32, f32, f32, f32, f32, f32, f32, f32)>  loc(#loc26)
    %884 = llvm.extractvalue %881[2] : !llvm.struct<(f32, f32, f32, f32, f32, f32, f32, f32)>  loc(#loc26)
    %885 = llvm.extractvalue %881[3] : !llvm.struct<(f32, f32, f32, f32, f32, f32, f32, f32)>  loc(#loc26)
    %886 = llvm.extractvalue %881[4] : !llvm.struct<(f32, f32, f32, f32, f32, f32, f32, f32)>  loc(#loc26)
    %887 = llvm.extractvalue %881[5] : !llvm.struct<(f32, f32, f32, f32, f32, f32, f32, f32)>  loc(#loc26)
    %888 = llvm.extractvalue %881[6] : !llvm.struct<(f32, f32, f32, f32, f32, f32, f32, f32)>  loc(#loc26)
    %889 = llvm.extractvalue %881[7] : !llvm.struct<(f32, f32, f32, f32, f32, f32, f32, f32)>  loc(#loc26)
    %890 = llvm.inline_asm has_side_effects asm_dialect = att operand_attrs = [] "mma.sync.aligned.m8n8k4.row.row.f32.f16.f16.f32 { $0, $1, $2, $3, $4, $5, $6, $7 }, { $8, $9 }, { $10, $11 }, { $12, $13, $14, $15, $16, $17, $18, $19 };", "=f,=f,=f,=f,=f,=f,=f,=f,r,r,r,r,0,1,2,3,4,5,6,7" %703, %704, %753, %754, %873, %874, %875, %876, %877, %878, %879, %880 : (i32, i32, i32, i32, f32, f32, f32, f32, f32, f32, f32, f32) -> !llvm.struct<(f32, f32, f32, f32, f32, f32, f32, f32)> loc(#loc26)
    %891 = llvm.extractvalue %890[0] : !llvm.struct<(f32, f32, f32, f32, f32, f32, f32, f32)>  loc(#loc26)
    %892 = llvm.extractvalue %890[1] : !llvm.struct<(f32, f32, f32, f32, f32, f32, f32, f32)>  loc(#loc26)
    %893 = llvm.extractvalue %890[2] : !llvm.struct<(f32, f32, f32, f32, f32, f32, f32, f32)>  loc(#loc26)
    %894 = llvm.extractvalue %890[3] : !llvm.struct<(f32, f32, f32, f32, f32, f32, f32, f32)>  loc(#loc26)
    %895 = llvm.extractvalue %890[4] : !llvm.struct<(f32, f32, f32, f32, f32, f32, f32, f32)>  loc(#loc26)
    %896 = llvm.extractvalue %890[5] : !llvm.struct<(f32, f32, f32, f32, f32, f32, f32, f32)>  loc(#loc26)
    %897 = llvm.extractvalue %890[6] : !llvm.struct<(f32, f32, f32, f32, f32, f32, f32, f32)>  loc(#loc26)
    %898 = llvm.extractvalue %890[7] : !llvm.struct<(f32, f32, f32, f32, f32, f32, f32, f32)>  loc(#loc26)
    nvvm.barrier0 loc(#loc26)
    %899 = llvm.add %79, %339 : i32 loc(#loc26)
    %900 = llvm.add %899, %15 : i32 loc(#loc26)
    %901 = llvm.add %438, %442 : i32 loc(#loc26)
    %902 = llvm.add %83, %901 : i32 loc(#loc26)
    %903 = llvm.add %902, %15 : i32 loc(#loc26)
    %904 = llvm.add %899, %20 : i32 loc(#loc26)
    %905 = llvm.add %902, %11 : i32 loc(#loc26)
    %906 = llvm.add %902, %13 : i32 loc(#loc26)
    %907 = llvm.add %902, %7 : i32 loc(#loc26)
    %908 = llvm.mul %900, %0 : i32 loc(#loc26)
    %909 = llvm.add %908, %903 : i32 loc(#loc26)
    %910 = llvm.getelementptr %1[%909] : (!llvm.ptr<3>, i32) -> !llvm.ptr<3>, f32 loc(#loc26)
    %911 = llvm.mlir.undef : vector<2xf32> loc(#loc26)
    %912 = llvm.insertelement %882, %911[%15 : i32] : vector<2xf32> loc(#loc26)
    %913 = llvm.insertelement %883, %912[%14 : i32] : vector<2xf32> loc(#loc26)
    llvm.store %913, %910 : vector<2xf32>, !llvm.ptr<3> loc(#loc26)
    %914 = llvm.add %908, %905 : i32 loc(#loc26)
    %915 = llvm.getelementptr %1[%914] : (!llvm.ptr<3>, i32) -> !llvm.ptr<3>, f32 loc(#loc26)
    %916 = llvm.insertelement %886, %911[%15 : i32] : vector<2xf32> loc(#loc26)
    %917 = llvm.insertelement %887, %916[%14 : i32] : vector<2xf32> loc(#loc26)
    llvm.store %917, %915 : vector<2xf32>, !llvm.ptr<3> loc(#loc26)
    %918 = llvm.add %908, %906 : i32 loc(#loc26)
    %919 = llvm.getelementptr %1[%918] : (!llvm.ptr<3>, i32) -> !llvm.ptr<3>, f32 loc(#loc26)
    %920 = llvm.insertelement %891, %911[%15 : i32] : vector<2xf32> loc(#loc26)
    %921 = llvm.insertelement %892, %920[%14 : i32] : vector<2xf32> loc(#loc26)
    llvm.store %921, %919 : vector<2xf32>, !llvm.ptr<3> loc(#loc26)
    %922 = llvm.add %908, %907 : i32 loc(#loc26)
    %923 = llvm.getelementptr %1[%922] : (!llvm.ptr<3>, i32) -> !llvm.ptr<3>, f32 loc(#loc26)
    %924 = llvm.insertelement %895, %911[%15 : i32] : vector<2xf32> loc(#loc26)
    %925 = llvm.insertelement %896, %924[%14 : i32] : vector<2xf32> loc(#loc26)
    llvm.store %925, %923 : vector<2xf32>, !llvm.ptr<3> loc(#loc26)
    %926 = llvm.mul %904, %0 : i32 loc(#loc26)
    %927 = llvm.add %926, %903 : i32 loc(#loc26)
    %928 = llvm.getelementptr %1[%927] : (!llvm.ptr<3>, i32) -> !llvm.ptr<3>, f32 loc(#loc26)
    %929 = llvm.insertelement %884, %911[%15 : i32] : vector<2xf32> loc(#loc26)
    %930 = llvm.insertelement %885, %929[%14 : i32] : vector<2xf32> loc(#loc26)
    llvm.store %930, %928 : vector<2xf32>, !llvm.ptr<3> loc(#loc26)
    %931 = llvm.add %926, %905 : i32 loc(#loc26)
    %932 = llvm.getelementptr %1[%931] : (!llvm.ptr<3>, i32) -> !llvm.ptr<3>, f32 loc(#loc26)
    %933 = llvm.insertelement %888, %911[%15 : i32] : vector<2xf32> loc(#loc26)
    %934 = llvm.insertelement %889, %933[%14 : i32] : vector<2xf32> loc(#loc26)
    llvm.store %934, %932 : vector<2xf32>, !llvm.ptr<3> loc(#loc26)
    %935 = llvm.add %926, %906 : i32 loc(#loc26)
    %936 = llvm.getelementptr %1[%935] : (!llvm.ptr<3>, i32) -> !llvm.ptr<3>, f32 loc(#loc26)
    %937 = llvm.insertelement %893, %911[%15 : i32] : vector<2xf32> loc(#loc26)
    %938 = llvm.insertelement %894, %937[%14 : i32] : vector<2xf32> loc(#loc26)
    llvm.store %938, %936 : vector<2xf32>, !llvm.ptr<3> loc(#loc26)
    %939 = llvm.add %926, %907 : i32 loc(#loc26)
    %940 = llvm.getelementptr %1[%939] : (!llvm.ptr<3>, i32) -> !llvm.ptr<3>, f32 loc(#loc26)
    %941 = llvm.insertelement %897, %911[%15 : i32] : vector<2xf32> loc(#loc26)
    %942 = llvm.insertelement %898, %941[%14 : i32] : vector<2xf32> loc(#loc26)
    llvm.store %942, %940 : vector<2xf32>, !llvm.ptr<3> loc(#loc26)
    nvvm.barrier0 loc(#loc26)
    %943 = llvm.urem %31, %14  : i32 loc(#loc26)
    %944 = llvm.udiv %31, %14  : i32 loc(#loc26)
    %945 = llvm.urem %944, %13  : i32 loc(#loc26)
    %946 = llvm.urem %30, %19  : i32 loc(#loc26)
    %947 = llvm.udiv %30, %19  : i32 loc(#loc26)
    %948 = llvm.urem %947, %14  : i32 loc(#loc26)
    %949 = llvm.urem %945, %19  : i32 loc(#loc26)
    %950 = llvm.urem %948, %19  : i32 loc(#loc26)
    %951 = llvm.mul %949, %14 : i32 loc(#loc26)
    %952 = llvm.add %950, %951 : i32 loc(#loc26)
    %953 = llvm.mul %952, %14 : i32 loc(#loc26)
    %954 = llvm.urem %943, %14  : i32 loc(#loc26)
    %955 = llvm.urem %946, %19  : i32 loc(#loc26)
    %956 = llvm.mul %954, %19 : i32 loc(#loc26)
    %957 = llvm.add %955, %956 : i32 loc(#loc26)
    %958 = llvm.mul %957, %14 : i32 loc(#loc26)
    %959 = llvm.add %953, %15 : i32 loc(#loc26)
    %960 = llvm.add %958, %15 : i32 loc(#loc26)
    %961 = llvm.mul %959, %0 : i32 loc(#loc26)
    %962 = llvm.add %961, %960 : i32 loc(#loc26)
    %963 = llvm.getelementptr %1[%962] : (!llvm.ptr<3>, i32) -> !llvm.ptr<3>, f32 loc(#loc26)
    %964 = llvm.load %963 : !llvm.ptr<3> -> vector<1xf32> loc(#loc26)
    %965 = llvm.extractelement %964[%15 : i32] : vector<1xf32> loc(#loc26)
    %966 = llvm.add %953, %13 : i32 loc(#loc26)
    %967 = llvm.mul %966, %0 : i32 loc(#loc26)
    %968 = llvm.add %967, %960 : i32 loc(#loc26)
    %969 = llvm.getelementptr %1[%968] : (!llvm.ptr<3>, i32) -> !llvm.ptr<3>, f32 loc(#loc26)
    %970 = llvm.load %969 : !llvm.ptr<3> -> vector<1xf32> loc(#loc26)
    %971 = llvm.extractelement %970[%15 : i32] : vector<1xf32> loc(#loc26)
    %972 = llvm.add %953, %12 : i32 loc(#loc26)
    %973 = llvm.mul %972, %0 : i32 loc(#loc26)
    %974 = llvm.add %973, %960 : i32 loc(#loc26)
    %975 = llvm.getelementptr %1[%974] : (!llvm.ptr<3>, i32) -> !llvm.ptr<3>, f32 loc(#loc26)
    %976 = llvm.load %975 : !llvm.ptr<3> -> vector<1xf32> loc(#loc26)
    %977 = llvm.extractelement %976[%15 : i32] : vector<1xf32> loc(#loc26)
    %978 = llvm.add %953, %9 : i32 loc(#loc26)
    %979 = llvm.mul %978, %0 : i32 loc(#loc26)
    %980 = llvm.add %979, %960 : i32 loc(#loc26)
    %981 = llvm.getelementptr %1[%980] : (!llvm.ptr<3>, i32) -> !llvm.ptr<3>, f32 loc(#loc26)
    %982 = llvm.load %981 : !llvm.ptr<3> -> vector<1xf32> loc(#loc26)
    %983 = llvm.extractelement %982[%15 : i32] : vector<1xf32> loc(#loc26)
    %984 = llvm.add %953, %11 : i32 loc(#loc26)
    %985 = llvm.mul %984, %0 : i32 loc(#loc26)
    %986 = llvm.add %985, %960 : i32 loc(#loc26)
    %987 = llvm.getelementptr %1[%986] : (!llvm.ptr<3>, i32) -> !llvm.ptr<3>, f32 loc(#loc26)
    %988 = llvm.load %987 : !llvm.ptr<3> -> vector<1xf32> loc(#loc26)
    %989 = llvm.extractelement %988[%15 : i32] : vector<1xf32> loc(#loc26)
    %990 = llvm.add %953, %7 : i32 loc(#loc26)
    %991 = llvm.mul %990, %0 : i32 loc(#loc26)
    %992 = llvm.add %991, %960 : i32 loc(#loc26)
    %993 = llvm.getelementptr %1[%992] : (!llvm.ptr<3>, i32) -> !llvm.ptr<3>, f32 loc(#loc26)
    %994 = llvm.load %993 : !llvm.ptr<3> -> vector<1xf32> loc(#loc26)
    %995 = llvm.extractelement %994[%15 : i32] : vector<1xf32> loc(#loc26)
    %996 = llvm.add %953, %5 : i32 loc(#loc26)
    %997 = llvm.mul %996, %0 : i32 loc(#loc26)
    %998 = llvm.add %997, %960 : i32 loc(#loc26)
    %999 = llvm.getelementptr %1[%998] : (!llvm.ptr<3>, i32) -> !llvm.ptr<3>, f32 loc(#loc26)
    %1000 = llvm.load %999 : !llvm.ptr<3> -> vector<1xf32> loc(#loc26)
    %1001 = llvm.extractelement %1000[%15 : i32] : vector<1xf32> loc(#loc26)
    %1002 = llvm.add %953, %17 : i32 loc(#loc26)
    %1003 = llvm.mul %1002, %0 : i32 loc(#loc26)
    %1004 = llvm.add %1003, %960 : i32 loc(#loc26)
    %1005 = llvm.getelementptr %1[%1004] : (!llvm.ptr<3>, i32) -> !llvm.ptr<3>, f32 loc(#loc26)
    %1006 = llvm.load %1005 : !llvm.ptr<3> -> vector<1xf32> loc(#loc26)
    %1007 = llvm.extractelement %1006[%15 : i32] : vector<1xf32> loc(#loc26)
    %1008 = llvm.getelementptr %arg1[%260] : (!llvm.ptr<1>, i32) -> !llvm.ptr<1>, f16 loc(#loc27)
    %1009 = llvm.getelementptr %arg1[%261] : (!llvm.ptr<1>, i32) -> !llvm.ptr<1>, f16 loc(#loc27)
    %1010 = llvm.getelementptr %arg1[%262] : (!llvm.ptr<1>, i32) -> !llvm.ptr<1>, f16 loc(#loc27)
    %1011 = llvm.getelementptr %arg1[%263] : (!llvm.ptr<1>, i32) -> !llvm.ptr<1>, f16 loc(#loc27)
    %1012 = llvm.getelementptr %arg1[%264] : (!llvm.ptr<1>, i32) -> !llvm.ptr<1>, f16 loc(#loc27)
    %1013 = llvm.getelementptr %arg1[%265] : (!llvm.ptr<1>, i32) -> !llvm.ptr<1>, f16 loc(#loc27)
    %1014 = llvm.getelementptr %arg1[%266] : (!llvm.ptr<1>, i32) -> !llvm.ptr<1>, f16 loc(#loc27)
    %1015 = llvm.getelementptr %arg1[%267] : (!llvm.ptr<1>, i32) -> !llvm.ptr<1>, f16 loc(#loc27)
    %1016 = llvm.icmp "sge" %71, %arg6 : i32 loc(#loc28)
    %1017 = llvm.icmp "sge" %72, %arg6 : i32 loc(#loc28)
    %1018 = llvm.icmp "sge" %73, %arg6 : i32 loc(#loc28)
    %1019 = llvm.icmp "sge" %74, %arg6 : i32 loc(#loc28)
    %1020 = llvm.icmp "sge" %75, %arg6 : i32 loc(#loc28)
    %1021 = llvm.icmp "sge" %76, %arg6 : i32 loc(#loc28)
    %1022 = llvm.icmp "sge" %77, %arg6 : i32 loc(#loc28)
    %1023 = llvm.icmp "sge" %78, %arg6 : i32 loc(#loc28)
    %1024 = llvm.icmp "sge" %119, %arg6 : i32 loc(#loc28)
    %1025 = llvm.sub %19, %arg6 : i32 loc(#loc29)
    %1026 = llvm.icmp "slt" %71, %1025 : i32 loc(#loc30)
    %1027 = llvm.icmp "slt" %72, %1025 : i32 loc(#loc30)
    %1028 = llvm.icmp "slt" %73, %1025 : i32 loc(#loc30)
    %1029 = llvm.icmp "slt" %74, %1025 : i32 loc(#loc30)
    %1030 = llvm.icmp "slt" %75, %1025 : i32 loc(#loc30)
    %1031 = llvm.icmp "slt" %76, %1025 : i32 loc(#loc30)
    %1032 = llvm.icmp "slt" %77, %1025 : i32 loc(#loc30)
    %1033 = llvm.icmp "slt" %78, %1025 : i32 loc(#loc30)
    %1034 = llvm.icmp "slt" %119, %1025 : i32 loc(#loc30)
    %1035 = llvm.and %1016, %1026  : i1 loc(#loc31)
    %1036 = llvm.and %1017, %1027  : i1 loc(#loc31)
    %1037 = llvm.and %1018, %1028  : i1 loc(#loc31)
    %1038 = llvm.and %1019, %1029  : i1 loc(#loc31)
    %1039 = llvm.and %1020, %1030  : i1 loc(#loc31)
    %1040 = llvm.and %1021, %1031  : i1 loc(#loc31)
    %1041 = llvm.and %1022, %1032  : i1 loc(#loc31)
    %1042 = llvm.and %1023, %1033  : i1 loc(#loc31)
    %1043 = llvm.and %1035, %1024  : i1 loc(#loc32)
    %1044 = llvm.and %1036, %1024  : i1 loc(#loc32)
    %1045 = llvm.and %1037, %1024  : i1 loc(#loc32)
    %1046 = llvm.and %1038, %1024  : i1 loc(#loc32)
    %1047 = llvm.and %1039, %1024  : i1 loc(#loc32)
    %1048 = llvm.and %1040, %1024  : i1 loc(#loc32)
    %1049 = llvm.and %1041, %1024  : i1 loc(#loc32)
    %1050 = llvm.and %1042, %1024  : i1 loc(#loc32)
    %1051 = llvm.and %1043, %1034  : i1 loc(#loc33)
    %1052 = llvm.and %1044, %1034  : i1 loc(#loc33)
    %1053 = llvm.and %1045, %1034  : i1 loc(#loc33)
    %1054 = llvm.and %1046, %1034  : i1 loc(#loc33)
    %1055 = llvm.and %1047, %1034  : i1 loc(#loc33)
    %1056 = llvm.and %1048, %1034  : i1 loc(#loc33)
    %1057 = llvm.and %1049, %1034  : i1 loc(#loc33)
    %1058 = llvm.and %1050, %1034  : i1 loc(#loc33)
    %1059 = llvm.fptrunc %965 : f32 to f16 loc(#loc34)
    %1060 = llvm.fptrunc %971 : f32 to f16 loc(#loc34)
    %1061 = llvm.fptrunc %977 : f32 to f16 loc(#loc34)
    %1062 = llvm.fptrunc %983 : f32 to f16 loc(#loc34)
    %1063 = llvm.fptrunc %989 : f32 to f16 loc(#loc34)
    %1064 = llvm.fptrunc %995 : f32 to f16 loc(#loc34)
    %1065 = llvm.fptrunc %1001 : f32 to f16 loc(#loc34)
    %1066 = llvm.fptrunc %1007 : f32 to f16 loc(#loc34)
    %1067 = llvm.mlir.undef : vector<1xf16> loc(#loc34)
    %1068 = llvm.insertelement %1059, %1067[%15 : i32] : vector<1xf16> loc(#loc34)
    %1069 = llvm.bitcast %1068 : vector<1xf16> to i16 loc(#loc34)
    %1070 = llvm.and %3, %1051  : i1 loc(#loc34)
    %1071 = llvm.inline_asm has_side_effects asm_dialect = att operand_attrs = [] "@$2 st.global.b16 [ $1 + 0 ], { $0 };", "c,l,b" %1069, %1008, %1070 : (i16, !llvm.ptr<1>, i1) -> !llvm.void loc(#loc34)
    %1072 = llvm.insertelement %1060, %1067[%15 : i32] : vector<1xf16> loc(#loc34)
    %1073 = llvm.bitcast %1072 : vector<1xf16> to i16 loc(#loc34)
    %1074 = llvm.and %3, %1052  : i1 loc(#loc34)
    %1075 = llvm.inline_asm has_side_effects asm_dialect = att operand_attrs = [] "@$2 st.global.b16 [ $1 + 0 ], { $0 };", "c,l,b" %1073, %1009, %1074 : (i16, !llvm.ptr<1>, i1) -> !llvm.void loc(#loc34)
    %1076 = llvm.insertelement %1061, %1067[%15 : i32] : vector<1xf16> loc(#loc34)
    %1077 = llvm.bitcast %1076 : vector<1xf16> to i16 loc(#loc34)
    %1078 = llvm.and %3, %1053  : i1 loc(#loc34)
    %1079 = llvm.inline_asm has_side_effects asm_dialect = att operand_attrs = [] "@$2 st.global.b16 [ $1 + 0 ], { $0 };", "c,l,b" %1077, %1010, %1078 : (i16, !llvm.ptr<1>, i1) -> !llvm.void loc(#loc34)
    %1080 = llvm.insertelement %1062, %1067[%15 : i32] : vector<1xf16> loc(#loc34)
    %1081 = llvm.bitcast %1080 : vector<1xf16> to i16 loc(#loc34)
    %1082 = llvm.and %3, %1054  : i1 loc(#loc34)
    %1083 = llvm.inline_asm has_side_effects asm_dialect = att operand_attrs = [] "@$2 st.global.b16 [ $1 + 0 ], { $0 };", "c,l,b" %1081, %1011, %1082 : (i16, !llvm.ptr<1>, i1) -> !llvm.void loc(#loc34)
    %1084 = llvm.insertelement %1063, %1067[%15 : i32] : vector<1xf16> loc(#loc34)
    %1085 = llvm.bitcast %1084 : vector<1xf16> to i16 loc(#loc34)
    %1086 = llvm.and %3, %1055  : i1 loc(#loc34)
    %1087 = llvm.inline_asm has_side_effects asm_dialect = att operand_attrs = [] "@$2 st.global.b16 [ $1 + 0 ], { $0 };", "c,l,b" %1085, %1012, %1086 : (i16, !llvm.ptr<1>, i1) -> !llvm.void loc(#loc34)
    %1088 = llvm.insertelement %1064, %1067[%15 : i32] : vector<1xf16> loc(#loc34)
    %1089 = llvm.bitcast %1088 : vector<1xf16> to i16 loc(#loc34)
    %1090 = llvm.and %3, %1056  : i1 loc(#loc34)
    %1091 = llvm.inline_asm has_side_effects asm_dialect = att operand_attrs = [] "@$2 st.global.b16 [ $1 + 0 ], { $0 };", "c,l,b" %1089, %1013, %1090 : (i16, !llvm.ptr<1>, i1) -> !llvm.void loc(#loc34)
    %1092 = llvm.insertelement %1065, %1067[%15 : i32] : vector<1xf16> loc(#loc34)
    %1093 = llvm.bitcast %1092 : vector<1xf16> to i16 loc(#loc34)
    %1094 = llvm.and %3, %1057  : i1 loc(#loc34)
    %1095 = llvm.inline_asm has_side_effects asm_dialect = att operand_attrs = [] "@$2 st.global.b16 [ $1 + 0 ], { $0 };", "c,l,b" %1093, %1014, %1094 : (i16, !llvm.ptr<1>, i1) -> !llvm.void loc(#loc34)
    %1096 = llvm.insertelement %1066, %1067[%15 : i32] : vector<1xf16> loc(#loc34)
    %1097 = llvm.bitcast %1096 : vector<1xf16> to i16 loc(#loc34)
    %1098 = llvm.and %3, %1058  : i1 loc(#loc34)
    %1099 = llvm.inline_asm has_side_effects asm_dialect = att operand_attrs = [] "@$2 st.global.b16 [ $1 + 0 ], { $0 };", "c,l,b" %1097, %1015, %1098 : (i16, !llvm.ptr<1>, i1) -> !llvm.void loc(#loc34)
    llvm.return loc(#loc35)
  } loc(#loc)
} loc(#loc)
#loc1 = loc(unknown)
#loc2 = loc("2d9pt_tcstencil.py":34:10)
#loc3 = loc("2d9pt_tcstencil.py":36:28)
#loc4 = loc("2d9pt_tcstencil.py":36:26)
#loc5 = loc("/usr/local/lib/python3.8/dist-packages/triton/language/standard.py":44:22)
#loc6 = loc("2d9pt_tcstencil.py":36:31)
#loc7 = loc("/usr/local/lib/python3.8/dist-packages/triton/language/standard.py":44:28)
#loc8 = loc("2d9pt_tcstencil.py":38:19)
#loc9 = loc("2d9pt_tcstencil.py":39:18)
#loc10 = loc("2d9pt_tcstencil.py":43:45)
#loc11 = loc("2d9pt_tcstencil.py":43:68)
#loc12 = loc("2d9pt_tcstencil.py":43:83)
#loc13 = loc("2d9pt_tcstencil.py":43:31)
#loc14 = loc("2d9pt_tcstencil.py":44:26)
#loc15 = loc("2d9pt_tcstencil.py":46:31)
#loc16 = loc("2d9pt_tcstencil.py":47:26)
#loc17 = loc("2d9pt_tcstencil.py":50:22)
#loc18 = loc("2d9pt_tcstencil.py":50:37)
#loc19 = loc("2d9pt_tcstencil.py":51:22)
#loc20 = loc("2d9pt_tcstencil.py":51:37)
#loc21 = loc("2d9pt_tcstencil.py":52:36)
#loc22 = loc("2d9pt_tcstencil.py":52:40)
#loc23 = loc("2d9pt_tcstencil.py":52:18)
#loc24 = loc("2d9pt_tcstencil.py":53:21)
#loc25 = loc("2d9pt_tcstencil.py":57:46)
#loc26 = loc("2d9pt_tcstencil.py":58:46)
#loc27 = loc("2d9pt_tcstencil.py":60:18)
#loc28 = loc("2d9pt_tcstencil.py":64:48)
#loc29 = loc("2d9pt_tcstencil.py":64:81)
#loc30 = loc("2d9pt_tcstencil.py":64:68)
#loc31 = loc("2d9pt_tcstencil.py":64:61)
#loc32 = loc("2d9pt_tcstencil.py":64:95)
#loc33 = loc("2d9pt_tcstencil.py":64:115)
#loc34 = loc("2d9pt_tcstencil.py":64:21)
#loc35 = loc("2d9pt_tcstencil.py":64:4)
#loc36 = loc(callsite(#loc5 at #loc6))
#loc37 = loc(callsite(#loc7 at #loc6))


0.011296000331640244
