// -----// IR Dump Before Inliner (inline) ('builtin.module' operation) //----- //
#loc = loc("2d9pt_naive.py":18:0)
#loc102 = loc("/usr/local/lib/python3.8/dist-packages/triton/language/standard.py":35:0)
module {
  tt.func public @stencil_kernel(%arg0: !tt.ptr<f16> {tt.divisibility = 16 : i32} loc("2d9pt_naive.py":18:0), %arg1: !tt.ptr<f16> {tt.divisibility = 16 : i32} loc("2d9pt_naive.py":18:0), %arg2: i32 loc("2d9pt_naive.py":18:0), %arg3: i32 loc("2d9pt_naive.py":18:0), %arg4: i32 loc("2d9pt_naive.py":18:0)) attributes {noinline = false} {
    %0 = tt.get_program_id x : i32 loc(#loc1)
    %c2_i32 = arith.constant 2 : i32 loc(#loc2)
    %1 = arith.muli %arg4, %c2_i32 : i32 loc(#loc2)
    %2 = arith.subi %arg2, %1 : i32 loc(#loc3)
    %3 = tt.call @cdiv__i32__1cconstexpr_16_(%2) : (i32) -> i32 loc(#loc4)
    %c2_i32_0 = arith.constant 2 : i32 loc(#loc5)
    %4 = arith.muli %arg4, %c2_i32_0 : i32 loc(#loc5)
    %5 = arith.subi %arg3, %4 : i32 loc(#loc6)
    %6 = tt.call @cdiv__i32__1cconstexpr_16_(%5) : (i32) -> i32 loc(#loc7)
    %7 = arith.divsi %0, %3 : i32 loc(#loc8)
    %8 = arith.remsi %0, %3 : i32 loc(#loc9)
    %c16_i32 = arith.constant 16 : i32 loc(#loc10)
    %9 = arith.muli %7, %c16_i32 : i32 loc(#loc10)
    %10 = tt.make_range {end = 16 : i32, start = 0 : i32} : tensor<16xi32> loc(#loc11)
    %11 = tt.splat %9 : i32 -> tensor<16xi32> loc(#loc12)
    %12 = arith.addi %11, %10 : tensor<16xi32> loc(#loc12)
    %c16_i32_1 = arith.constant 16 : i32 loc(#loc13)
    %13 = arith.muli %8, %c16_i32_1 : i32 loc(#loc13)
    %14 = tt.make_range {end = 16 : i32, start = 0 : i32} : tensor<16xi32> loc(#loc14)
    %15 = tt.splat %13 : i32 -> tensor<16xi32> loc(#loc15)
    %16 = arith.addi %15, %14 : tensor<16xi32> loc(#loc15)
    %c16_i32_2 = arith.constant 16 : i32 loc(#loc16)
    %17 = arith.muli %7, %c16_i32_2 : i32 loc(#loc16)
    %18 = tt.make_range {end = 16 : i32, start = 0 : i32} : tensor<16xi32> loc(#loc17)
    %19 = tt.splat %17 : i32 -> tensor<16xi32> loc(#loc18)
    %20 = arith.addi %19, %18 : tensor<16xi32> loc(#loc18)
    %c16_i32_3 = arith.constant 16 : i32 loc(#loc19)
    %21 = arith.muli %8, %c16_i32_3 : i32 loc(#loc19)
    %22 = tt.make_range {end = 16 : i32, start = 0 : i32} : tensor<16xi32> loc(#loc20)
    %23 = tt.splat %21 : i32 -> tensor<16xi32> loc(#loc21)
    %24 = arith.addi %23, %22 : tensor<16xi32> loc(#loc21)
    %25 = tt.call @"zeros____0cconstexpr_(constexpr_16_, constexpr_16_)__1cconstexpr_fp16_"() : () -> tensor<16x16xf16> loc(#loc22)
    %26 = tt.expand_dims %20 {axis = 1 : i32} : tensor<16xi32> -> tensor<16x1xi32> loc(#loc23)
    %27 = tt.splat %arg3 : i32 -> tensor<16x1xi32> loc(#loc24)
    %28 = arith.muli %26, %27 : tensor<16x1xi32> loc(#loc24)
    %29 = tt.expand_dims %24 {axis = 0 : i32} : tensor<16xi32> -> tensor<1x16xi32> loc(#loc25)
    %30 = tt.broadcast %28 : tensor<16x1xi32> -> tensor<16x16xi32> loc(#loc25)
    %31 = tt.broadcast %29 : tensor<1x16xi32> -> tensor<16x16xi32> loc(#loc25)
    %32 = arith.addi %30, %31 : tensor<16x16xi32> loc(#loc25)
    %33 = tt.splat %arg4 : i32 -> tensor<16x16xi32> loc(#loc26)
    %34 = arith.addi %32, %33 : tensor<16x16xi32> loc(#loc26)
    %35 = tt.splat %arg0 : !tt.ptr<f16> -> tensor<16x16x!tt.ptr<f16>> loc(#loc27)
    %36 = tt.addptr %35, %34 : tensor<16x16x!tt.ptr<f16>>, tensor<16x16xi32> loc(#loc27)
    %37 = tt.load %36 : tensor<16x16x!tt.ptr<f16>> loc(#loc28)
    %38 = arith.addf %25, %37 : tensor<16x16xf16> loc(#loc29)
    %39 = tt.expand_dims %20 {axis = 1 : i32} : tensor<16xi32> -> tensor<16x1xi32> loc(#loc30)
    %c1_i32 = arith.constant 1 : i32 loc(#loc31)
    %cst = arith.constant dense<1> : tensor<16x1xi32> loc(#loc31)
    %40 = arith.addi %39, %cst : tensor<16x1xi32> loc(#loc31)
    %41 = tt.splat %arg3 : i32 -> tensor<16x1xi32> loc(#loc32)
    %42 = arith.muli %40, %41 : tensor<16x1xi32> loc(#loc32)
    %43 = tt.expand_dims %24 {axis = 0 : i32} : tensor<16xi32> -> tensor<1x16xi32> loc(#loc33)
    %44 = tt.broadcast %42 : tensor<16x1xi32> -> tensor<16x16xi32> loc(#loc33)
    %45 = tt.broadcast %43 : tensor<1x16xi32> -> tensor<16x16xi32> loc(#loc33)
    %46 = arith.addi %44, %45 : tensor<16x16xi32> loc(#loc33)
    %47 = tt.splat %arg4 : i32 -> tensor<16x16xi32> loc(#loc34)
    %48 = arith.addi %46, %47 : tensor<16x16xi32> loc(#loc34)
    %49 = tt.splat %arg0 : !tt.ptr<f16> -> tensor<16x16x!tt.ptr<f16>> loc(#loc35)
    %50 = tt.addptr %49, %48 : tensor<16x16x!tt.ptr<f16>>, tensor<16x16xi32> loc(#loc35)
    %51 = tt.load %50 : tensor<16x16x!tt.ptr<f16>> loc(#loc36)
    %52 = arith.addf %38, %51 : tensor<16x16xf16> loc(#loc37)
    %53 = tt.expand_dims %20 {axis = 1 : i32} : tensor<16xi32> -> tensor<16x1xi32> loc(#loc38)
    %c2_i32_4 = arith.constant 2 : i32 loc(#loc39)
    %cst_5 = arith.constant dense<2> : tensor<16x1xi32> loc(#loc39)
    %54 = arith.addi %53, %cst_5 : tensor<16x1xi32> loc(#loc39)
    %55 = tt.splat %arg3 : i32 -> tensor<16x1xi32> loc(#loc40)
    %56 = arith.muli %54, %55 : tensor<16x1xi32> loc(#loc40)
    %57 = tt.expand_dims %24 {axis = 0 : i32} : tensor<16xi32> -> tensor<1x16xi32> loc(#loc41)
    %58 = tt.broadcast %56 : tensor<16x1xi32> -> tensor<16x16xi32> loc(#loc41)
    %59 = tt.broadcast %57 : tensor<1x16xi32> -> tensor<16x16xi32> loc(#loc41)
    %60 = arith.addi %58, %59 : tensor<16x16xi32> loc(#loc41)
    %61 = tt.splat %arg4 : i32 -> tensor<16x16xi32> loc(#loc42)
    %62 = arith.addi %60, %61 : tensor<16x16xi32> loc(#loc42)
    %63 = tt.splat %arg0 : !tt.ptr<f16> -> tensor<16x16x!tt.ptr<f16>> loc(#loc43)
    %64 = tt.addptr %63, %62 : tensor<16x16x!tt.ptr<f16>>, tensor<16x16xi32> loc(#loc43)
    %65 = tt.load %64 : tensor<16x16x!tt.ptr<f16>> loc(#loc44)
    %66 = arith.addf %52, %65 : tensor<16x16xf16> loc(#loc45)
    %67 = tt.expand_dims %20 {axis = 1 : i32} : tensor<16xi32> -> tensor<16x1xi32> loc(#loc46)
    %c3_i32 = arith.constant 3 : i32 loc(#loc47)
    %cst_6 = arith.constant dense<3> : tensor<16x1xi32> loc(#loc47)
    %68 = arith.addi %67, %cst_6 : tensor<16x1xi32> loc(#loc47)
    %69 = tt.splat %arg3 : i32 -> tensor<16x1xi32> loc(#loc48)
    %70 = arith.muli %68, %69 : tensor<16x1xi32> loc(#loc48)
    %71 = tt.expand_dims %24 {axis = 0 : i32} : tensor<16xi32> -> tensor<1x16xi32> loc(#loc49)
    %72 = tt.broadcast %70 : tensor<16x1xi32> -> tensor<16x16xi32> loc(#loc49)
    %73 = tt.broadcast %71 : tensor<1x16xi32> -> tensor<16x16xi32> loc(#loc49)
    %74 = arith.addi %72, %73 : tensor<16x16xi32> loc(#loc49)
    %75 = tt.splat %arg4 : i32 -> tensor<16x16xi32> loc(#loc50)
    %76 = arith.addi %74, %75 : tensor<16x16xi32> loc(#loc50)
    %77 = tt.splat %arg0 : !tt.ptr<f16> -> tensor<16x16x!tt.ptr<f16>> loc(#loc51)
    %78 = tt.addptr %77, %76 : tensor<16x16x!tt.ptr<f16>>, tensor<16x16xi32> loc(#loc51)
    %79 = tt.load %78 : tensor<16x16x!tt.ptr<f16>> loc(#loc52)
    %80 = arith.addf %66, %79 : tensor<16x16xf16> loc(#loc53)
    %81 = tt.expand_dims %20 {axis = 1 : i32} : tensor<16xi32> -> tensor<16x1xi32> loc(#loc54)
    %c4_i32 = arith.constant 4 : i32 loc(#loc55)
    %cst_7 = arith.constant dense<4> : tensor<16x1xi32> loc(#loc55)
    %82 = arith.addi %81, %cst_7 : tensor<16x1xi32> loc(#loc55)
    %83 = tt.splat %arg3 : i32 -> tensor<16x1xi32> loc(#loc56)
    %84 = arith.muli %82, %83 : tensor<16x1xi32> loc(#loc56)
    %85 = tt.expand_dims %24 {axis = 0 : i32} : tensor<16xi32> -> tensor<1x16xi32> loc(#loc57)
    %86 = tt.broadcast %84 : tensor<16x1xi32> -> tensor<16x16xi32> loc(#loc57)
    %87 = tt.broadcast %85 : tensor<1x16xi32> -> tensor<16x16xi32> loc(#loc57)
    %88 = arith.addi %86, %87 : tensor<16x16xi32> loc(#loc57)
    %89 = tt.splat %arg4 : i32 -> tensor<16x16xi32> loc(#loc58)
    %90 = arith.addi %88, %89 : tensor<16x16xi32> loc(#loc58)
    %91 = tt.splat %arg0 : !tt.ptr<f16> -> tensor<16x16x!tt.ptr<f16>> loc(#loc59)
    %92 = tt.addptr %91, %90 : tensor<16x16x!tt.ptr<f16>>, tensor<16x16xi32> loc(#loc59)
    %93 = tt.load %92 : tensor<16x16x!tt.ptr<f16>> loc(#loc60)
    %94 = arith.addf %80, %93 : tensor<16x16xf16> loc(#loc61)
    %95 = tt.expand_dims %20 {axis = 1 : i32} : tensor<16xi32> -> tensor<16x1xi32> loc(#loc62)
    %96 = tt.splat %arg4 : i32 -> tensor<16x1xi32> loc(#loc63)
    %97 = arith.addi %95, %96 : tensor<16x1xi32> loc(#loc63)
    %98 = tt.splat %arg3 : i32 -> tensor<16x1xi32> loc(#loc64)
    %99 = arith.muli %97, %98 : tensor<16x1xi32> loc(#loc64)
    %100 = tt.expand_dims %24 {axis = 0 : i32} : tensor<16xi32> -> tensor<1x16xi32> loc(#loc65)
    %101 = tt.broadcast %99 : tensor<16x1xi32> -> tensor<16x16xi32> loc(#loc65)
    %102 = tt.broadcast %100 : tensor<1x16xi32> -> tensor<16x16xi32> loc(#loc65)
    %103 = arith.addi %101, %102 : tensor<16x16xi32> loc(#loc65)
    %c0_i32 = arith.constant 0 : i32 loc(#loc66)
    %cst_8 = arith.constant dense<0> : tensor<16x16xi32> loc(#loc66)
    %104 = arith.addi %103, %cst_8 : tensor<16x16xi32> loc(#loc66)
    %105 = tt.splat %arg0 : !tt.ptr<f16> -> tensor<16x16x!tt.ptr<f16>> loc(#loc67)
    %106 = tt.addptr %105, %104 : tensor<16x16x!tt.ptr<f16>>, tensor<16x16xi32> loc(#loc67)
    %107 = tt.load %106 : tensor<16x16x!tt.ptr<f16>> loc(#loc68)
    %108 = arith.addf %94, %107 : tensor<16x16xf16> loc(#loc69)
    %109 = tt.expand_dims %20 {axis = 1 : i32} : tensor<16xi32> -> tensor<16x1xi32> loc(#loc70)
    %110 = tt.splat %arg4 : i32 -> tensor<16x1xi32> loc(#loc71)
    %111 = arith.addi %109, %110 : tensor<16x1xi32> loc(#loc71)
    %112 = tt.splat %arg3 : i32 -> tensor<16x1xi32> loc(#loc72)
    %113 = arith.muli %111, %112 : tensor<16x1xi32> loc(#loc72)
    %114 = tt.expand_dims %24 {axis = 0 : i32} : tensor<16xi32> -> tensor<1x16xi32> loc(#loc73)
    %115 = tt.broadcast %113 : tensor<16x1xi32> -> tensor<16x16xi32> loc(#loc73)
    %116 = tt.broadcast %114 : tensor<1x16xi32> -> tensor<16x16xi32> loc(#loc73)
    %117 = arith.addi %115, %116 : tensor<16x16xi32> loc(#loc73)
    %c1_i32_9 = arith.constant 1 : i32 loc(#loc74)
    %cst_10 = arith.constant dense<1> : tensor<16x16xi32> loc(#loc74)
    %118 = arith.addi %117, %cst_10 : tensor<16x16xi32> loc(#loc74)
    %119 = tt.splat %arg0 : !tt.ptr<f16> -> tensor<16x16x!tt.ptr<f16>> loc(#loc75)
    %120 = tt.addptr %119, %118 : tensor<16x16x!tt.ptr<f16>>, tensor<16x16xi32> loc(#loc75)
    %121 = tt.load %120 : tensor<16x16x!tt.ptr<f16>> loc(#loc76)
    %122 = arith.addf %108, %121 : tensor<16x16xf16> loc(#loc77)
    %123 = tt.expand_dims %20 {axis = 1 : i32} : tensor<16xi32> -> tensor<16x1xi32> loc(#loc78)
    %124 = tt.splat %arg4 : i32 -> tensor<16x1xi32> loc(#loc79)
    %125 = arith.addi %123, %124 : tensor<16x1xi32> loc(#loc79)
    %126 = tt.splat %arg3 : i32 -> tensor<16x1xi32> loc(#loc80)
    %127 = arith.muli %125, %126 : tensor<16x1xi32> loc(#loc80)
    %128 = tt.expand_dims %24 {axis = 0 : i32} : tensor<16xi32> -> tensor<1x16xi32> loc(#loc81)
    %129 = tt.broadcast %127 : tensor<16x1xi32> -> tensor<16x16xi32> loc(#loc81)
    %130 = tt.broadcast %128 : tensor<1x16xi32> -> tensor<16x16xi32> loc(#loc81)
    %131 = arith.addi %129, %130 : tensor<16x16xi32> loc(#loc81)
    %c3_i32_11 = arith.constant 3 : i32 loc(#loc82)
    %cst_12 = arith.constant dense<3> : tensor<16x16xi32> loc(#loc82)
    %132 = arith.addi %131, %cst_12 : tensor<16x16xi32> loc(#loc82)
    %133 = tt.splat %arg0 : !tt.ptr<f16> -> tensor<16x16x!tt.ptr<f16>> loc(#loc83)
    %134 = tt.addptr %133, %132 : tensor<16x16x!tt.ptr<f16>>, tensor<16x16xi32> loc(#loc83)
    %135 = tt.load %134 : tensor<16x16x!tt.ptr<f16>> loc(#loc84)
    %136 = arith.addf %122, %135 : tensor<16x16xf16> loc(#loc85)
    %137 = tt.expand_dims %20 {axis = 1 : i32} : tensor<16xi32> -> tensor<16x1xi32> loc(#loc86)
    %138 = tt.splat %arg4 : i32 -> tensor<16x1xi32> loc(#loc87)
    %139 = arith.addi %137, %138 : tensor<16x1xi32> loc(#loc87)
    %140 = tt.splat %arg3 : i32 -> tensor<16x1xi32> loc(#loc88)
    %141 = arith.muli %139, %140 : tensor<16x1xi32> loc(#loc88)
    %142 = tt.expand_dims %24 {axis = 0 : i32} : tensor<16xi32> -> tensor<1x16xi32> loc(#loc89)
    %143 = tt.broadcast %141 : tensor<16x1xi32> -> tensor<16x16xi32> loc(#loc89)
    %144 = tt.broadcast %142 : tensor<1x16xi32> -> tensor<16x16xi32> loc(#loc89)
    %145 = arith.addi %143, %144 : tensor<16x16xi32> loc(#loc89)
    %c4_i32_13 = arith.constant 4 : i32 loc(#loc90)
    %cst_14 = arith.constant dense<4> : tensor<16x16xi32> loc(#loc90)
    %146 = arith.addi %145, %cst_14 : tensor<16x16xi32> loc(#loc90)
    %147 = tt.splat %arg0 : !tt.ptr<f16> -> tensor<16x16x!tt.ptr<f16>> loc(#loc91)
    %148 = tt.addptr %147, %146 : tensor<16x16x!tt.ptr<f16>>, tensor<16x16xi32> loc(#loc91)
    %149 = tt.load %148 : tensor<16x16x!tt.ptr<f16>> loc(#loc92)
    %150 = arith.addf %136, %149 : tensor<16x16xf16> loc(#loc93)
    %151 = tt.expand_dims %12 {axis = 1 : i32} : tensor<16xi32> -> tensor<16x1xi32> loc(#loc94)
    %152 = tt.splat %arg4 : i32 -> tensor<16x1xi32> loc(#loc95)
    %153 = arith.addi %151, %152 : tensor<16x1xi32> loc(#loc95)
    %154 = tt.splat %arg3 : i32 -> tensor<16x1xi32> loc(#loc96)
    %155 = arith.muli %153, %154 : tensor<16x1xi32> loc(#loc96)
    %156 = tt.expand_dims %16 {axis = 0 : i32} : tensor<16xi32> -> tensor<1x16xi32> loc(#loc97)
    %157 = tt.broadcast %155 : tensor<16x1xi32> -> tensor<16x16xi32> loc(#loc97)
    %158 = tt.broadcast %156 : tensor<1x16xi32> -> tensor<16x16xi32> loc(#loc97)
    %159 = arith.addi %157, %158 : tensor<16x16xi32> loc(#loc97)
    %160 = tt.splat %arg4 : i32 -> tensor<16x16xi32> loc(#loc98)
    %161 = arith.addi %159, %160 : tensor<16x16xi32> loc(#loc98)
    %162 = tt.splat %arg1 : !tt.ptr<f16> -> tensor<16x16x!tt.ptr<f16>> loc(#loc99)
    %163 = tt.addptr %162, %161 : tensor<16x16x!tt.ptr<f16>>, tensor<16x16xi32> loc(#loc99)
    tt.store %163, %150 : tensor<16x16x!tt.ptr<f16>> loc(#loc100)
    tt.return loc(#loc101)
  } loc(#loc)
  tt.func private @cdiv__i32__1cconstexpr_16_(%arg0: i32 loc("/usr/local/lib/python3.8/dist-packages/triton/language/standard.py":35:0)) -> i32 attributes {noinline = false} {
    %c16_i32 = arith.constant 16 : i32 loc(#loc103)
    %0 = arith.addi %arg0, %c16_i32 : i32 loc(#loc103)
    %c1_i32 = arith.constant 1 : i32 loc(#loc104)
    %1 = arith.subi %0, %c1_i32 : i32 loc(#loc104)
    %c16_i32_0 = arith.constant 16 : i32 loc(#loc105)
    %2 = arith.divsi %1, %c16_i32_0 : i32 loc(#loc105)
    tt.return %2 : i32 loc(#loc106)
  } loc(#loc102)
  tt.func private @"zeros____0cconstexpr_(constexpr_16_, constexpr_16_)__1cconstexpr_fp16_"() -> tensor<16x16xf16> attributes {noinline = false} {
    %cst = arith.constant 0.000000e+00 : f16 loc(#loc108)
    %cst_0 = arith.constant dense<0.000000e+00> : tensor<16x16xf16> loc(#loc108)
    tt.return %cst_0 : tensor<16x16xf16> loc(#loc109)
  } loc(#loc107)
} loc(#loc)
#loc1 = loc("2d9pt_naive.py":30:10)
#loc2 = loc("2d9pt_naive.py":31:28)
#loc3 = loc("2d9pt_naive.py":31:26)
#loc4 = loc("2d9pt_naive.py":31:31)
#loc5 = loc("2d9pt_naive.py":32:28)
#loc6 = loc("2d9pt_naive.py":32:26)
#loc7 = loc("2d9pt_naive.py":32:31)
#loc8 = loc("2d9pt_naive.py":34:19)
#loc9 = loc("2d9pt_naive.py":35:18)
#loc10 = loc("2d9pt_naive.py":39:22)
#loc11 = loc("2d9pt_naive.py":39:50)
#loc12 = loc("2d9pt_naive.py":39:37)
#loc13 = loc("2d9pt_naive.py":40:22)
#loc14 = loc("2d9pt_naive.py":40:50)
#loc15 = loc("2d9pt_naive.py":40:37)
#loc16 = loc("2d9pt_naive.py":42:22)
#loc17 = loc("2d9pt_naive.py":42:50)
#loc18 = loc("2d9pt_naive.py":42:37)
#loc19 = loc("2d9pt_naive.py":43:22)
#loc20 = loc("2d9pt_naive.py":43:50)
#loc21 = loc("2d9pt_naive.py":43:37)
#loc22 = loc("2d9pt_naive.py":47:22)
#loc23 = loc("2d9pt_naive.py":50:19)
#loc24 = loc("2d9pt_naive.py":50:36)
#loc25 = loc("2d9pt_naive.py":50:40)
#loc26 = loc("2d9pt_naive.py":50:56)
#loc27 = loc("2d9pt_naive.py":50:18)
#loc28 = loc("2d9pt_naive.py":51:21)
#loc29 = loc("2d9pt_naive.py":52:22)
#loc30 = loc("2d9pt_naive.py":54:20)
#loc31 = loc("2d9pt_naive.py":54:37)
#loc32 = loc("2d9pt_naive.py":54:40)
#loc33 = loc("2d9pt_naive.py":54:44)
#loc34 = loc("2d9pt_naive.py":54:60)
#loc35 = loc("2d9pt_naive.py":54:18)
#loc36 = loc("2d9pt_naive.py":55:21)
#loc37 = loc("2d9pt_naive.py":56:22)
#loc38 = loc("2d9pt_naive.py":58:20)
#loc39 = loc("2d9pt_naive.py":58:37)
#loc40 = loc("2d9pt_naive.py":58:40)
#loc41 = loc("2d9pt_naive.py":58:44)
#loc42 = loc("2d9pt_naive.py":58:60)
#loc43 = loc("2d9pt_naive.py":58:18)
#loc44 = loc("2d9pt_naive.py":59:21)
#loc45 = loc("2d9pt_naive.py":60:22)
#loc46 = loc("2d9pt_naive.py":62:20)
#loc47 = loc("2d9pt_naive.py":62:37)
#loc48 = loc("2d9pt_naive.py":62:40)
#loc49 = loc("2d9pt_naive.py":62:44)
#loc50 = loc("2d9pt_naive.py":62:60)
#loc51 = loc("2d9pt_naive.py":62:18)
#loc52 = loc("2d9pt_naive.py":63:21)
#loc53 = loc("2d9pt_naive.py":64:22)
#loc54 = loc("2d9pt_naive.py":66:20)
#loc55 = loc("2d9pt_naive.py":66:37)
#loc56 = loc("2d9pt_naive.py":66:40)
#loc57 = loc("2d9pt_naive.py":66:44)
#loc58 = loc("2d9pt_naive.py":66:60)
#loc59 = loc("2d9pt_naive.py":66:18)
#loc60 = loc("2d9pt_naive.py":67:21)
#loc61 = loc("2d9pt_naive.py":68:22)
#loc62 = loc("2d9pt_naive.py":71:20)
#loc63 = loc("2d9pt_naive.py":71:37)
#loc64 = loc("2d9pt_naive.py":71:40)
#loc65 = loc("2d9pt_naive.py":71:44)
#loc66 = loc("2d9pt_naive.py":71:62)
#loc67 = loc("2d9pt_naive.py":71:18)
#loc68 = loc("2d9pt_naive.py":72:21)
#loc69 = loc("2d9pt_naive.py":73:22)
#loc70 = loc("2d9pt_naive.py":75:20)
#loc71 = loc("2d9pt_naive.py":75:37)
#loc72 = loc("2d9pt_naive.py":75:40)
#loc73 = loc("2d9pt_naive.py":75:44)
#loc74 = loc("2d9pt_naive.py":75:62)
#loc75 = loc("2d9pt_naive.py":75:18)
#loc76 = loc("2d9pt_naive.py":76:21)
#loc77 = loc("2d9pt_naive.py":77:22)
#loc78 = loc("2d9pt_naive.py":79:20)
#loc79 = loc("2d9pt_naive.py":79:37)
#loc80 = loc("2d9pt_naive.py":79:40)
#loc81 = loc("2d9pt_naive.py":79:44)
#loc82 = loc("2d9pt_naive.py":79:62)
#loc83 = loc("2d9pt_naive.py":79:18)
#loc84 = loc("2d9pt_naive.py":80:21)
#loc85 = loc("2d9pt_naive.py":81:22)
#loc86 = loc("2d9pt_naive.py":83:20)
#loc87 = loc("2d9pt_naive.py":83:37)
#loc88 = loc("2d9pt_naive.py":83:40)
#loc89 = loc("2d9pt_naive.py":83:44)
#loc90 = loc("2d9pt_naive.py":83:62)
#loc91 = loc("2d9pt_naive.py":83:18)
#loc92 = loc("2d9pt_naive.py":84:21)
#loc93 = loc("2d9pt_naive.py":85:22)
#loc94 = loc("2d9pt_naive.py":87:19)
#loc95 = loc("2d9pt_naive.py":87:35)
#loc96 = loc("2d9pt_naive.py":87:38)
#loc97 = loc("2d9pt_naive.py":87:42)
#loc98 = loc("2d9pt_naive.py":87:60)
#loc99 = loc("2d9pt_naive.py":87:18)
#loc100 = loc("2d9pt_naive.py":88:21)
#loc101 = loc("2d9pt_naive.py":88:4)
#loc103 = loc("/usr/local/lib/python3.8/dist-packages/triton/language/standard.py":44:16)
#loc104 = loc("/usr/local/lib/python3.8/dist-packages/triton/language/standard.py":44:22)
#loc105 = loc("/usr/local/lib/python3.8/dist-packages/triton/language/standard.py":44:28)
#loc106 = loc("/usr/local/lib/python3.8/dist-packages/triton/language/standard.py":44:11)
#loc107 = loc("/usr/local/lib/python3.8/dist-packages/triton/language/standard.py":116:0)
#loc108 = loc("/usr/local/lib/python3.8/dist-packages/triton/language/standard.py":125:31)
#loc109 = loc("/usr/local/lib/python3.8/dist-packages/triton/language/standard.py":125:11)


// -----// IR Dump Before Canonicalizer (canonicalize) ('tt.func' operation: @cdiv__i32__1cconstexpr_16_) //----- //
#loc = loc("2d9pt_naive.py":18:0)
#loc102 = loc("/usr/local/lib/python3.8/dist-packages/triton/language/standard.py":35:0)
module {
  tt.func public @stencil_kernel(%arg0: !tt.ptr<f16> {tt.divisibility = 16 : i32} loc("2d9pt_naive.py":18:0), %arg1: !tt.ptr<f16> {tt.divisibility = 16 : i32} loc("2d9pt_naive.py":18:0), %arg2: i32 loc("2d9pt_naive.py":18:0), %arg3: i32 loc("2d9pt_naive.py":18:0), %arg4: i32 loc("2d9pt_naive.py":18:0)) attributes {noinline = false} {
    %0 = tt.get_program_id x : i32 loc(#loc1)
    %c2_i32 = arith.constant 2 : i32 loc(#loc2)
    %1 = arith.muli %arg4, %c2_i32 : i32 loc(#loc2)
    %2 = arith.subi %arg2, %1 : i32 loc(#loc3)
    %3 = tt.call @cdiv__i32__1cconstexpr_16_(%2) : (i32) -> i32 loc(#loc4)
    %c2_i32_0 = arith.constant 2 : i32 loc(#loc5)
    %4 = arith.muli %arg4, %c2_i32_0 : i32 loc(#loc5)
    %5 = arith.subi %arg3, %4 : i32 loc(#loc6)
    %6 = tt.call @cdiv__i32__1cconstexpr_16_(%5) : (i32) -> i32 loc(#loc7)
    %7 = arith.divsi %0, %3 : i32 loc(#loc8)
    %8 = arith.remsi %0, %3 : i32 loc(#loc9)
    %c16_i32 = arith.constant 16 : i32 loc(#loc10)
    %9 = arith.muli %7, %c16_i32 : i32 loc(#loc10)
    %10 = tt.make_range {end = 16 : i32, start = 0 : i32} : tensor<16xi32> loc(#loc11)
    %11 = tt.splat %9 : i32 -> tensor<16xi32> loc(#loc12)
    %12 = arith.addi %11, %10 : tensor<16xi32> loc(#loc12)
    %c16_i32_1 = arith.constant 16 : i32 loc(#loc13)
    %13 = arith.muli %8, %c16_i32_1 : i32 loc(#loc13)
    %14 = tt.make_range {end = 16 : i32, start = 0 : i32} : tensor<16xi32> loc(#loc14)
    %15 = tt.splat %13 : i32 -> tensor<16xi32> loc(#loc15)
    %16 = arith.addi %15, %14 : tensor<16xi32> loc(#loc15)
    %c16_i32_2 = arith.constant 16 : i32 loc(#loc16)
    %17 = arith.muli %7, %c16_i32_2 : i32 loc(#loc16)
    %18 = tt.make_range {end = 16 : i32, start = 0 : i32} : tensor<16xi32> loc(#loc17)
    %19 = tt.splat %17 : i32 -> tensor<16xi32> loc(#loc18)
    %20 = arith.addi %19, %18 : tensor<16xi32> loc(#loc18)
    %c16_i32_3 = arith.constant 16 : i32 loc(#loc19)
    %21 = arith.muli %8, %c16_i32_3 : i32 loc(#loc19)
    %22 = tt.make_range {end = 16 : i32, start = 0 : i32} : tensor<16xi32> loc(#loc20)
    %23 = tt.splat %21 : i32 -> tensor<16xi32> loc(#loc21)
    %24 = arith.addi %23, %22 : tensor<16xi32> loc(#loc21)
    %25 = tt.call @"zeros____0cconstexpr_(constexpr_16_, constexpr_16_)__1cconstexpr_fp16_"() : () -> tensor<16x16xf16> loc(#loc22)
    %26 = tt.expand_dims %20 {axis = 1 : i32} : tensor<16xi32> -> tensor<16x1xi32> loc(#loc23)
    %27 = tt.splat %arg3 : i32 -> tensor<16x1xi32> loc(#loc24)
    %28 = arith.muli %26, %27 : tensor<16x1xi32> loc(#loc24)
    %29 = tt.expand_dims %24 {axis = 0 : i32} : tensor<16xi32> -> tensor<1x16xi32> loc(#loc25)
    %30 = tt.broadcast %28 : tensor<16x1xi32> -> tensor<16x16xi32> loc(#loc25)
    %31 = tt.broadcast %29 : tensor<1x16xi32> -> tensor<16x16xi32> loc(#loc25)
    %32 = arith.addi %30, %31 : tensor<16x16xi32> loc(#loc25)
    %33 = tt.splat %arg4 : i32 -> tensor<16x16xi32> loc(#loc26)
    %34 = arith.addi %32, %33 : tensor<16x16xi32> loc(#loc26)
    %35 = tt.splat %arg0 : !tt.ptr<f16> -> tensor<16x16x!tt.ptr<f16>> loc(#loc27)
    %36 = tt.addptr %35, %34 : tensor<16x16x!tt.ptr<f16>>, tensor<16x16xi32> loc(#loc27)
    %37 = tt.load %36 : tensor<16x16x!tt.ptr<f16>> loc(#loc28)
    %38 = arith.addf %25, %37 : tensor<16x16xf16> loc(#loc29)
    %39 = tt.expand_dims %20 {axis = 1 : i32} : tensor<16xi32> -> tensor<16x1xi32> loc(#loc30)
    %c1_i32 = arith.constant 1 : i32 loc(#loc31)
    %cst = arith.constant dense<1> : tensor<16x1xi32> loc(#loc31)
    %40 = arith.addi %39, %cst : tensor<16x1xi32> loc(#loc31)
    %41 = tt.splat %arg3 : i32 -> tensor<16x1xi32> loc(#loc32)
    %42 = arith.muli %40, %41 : tensor<16x1xi32> loc(#loc32)
    %43 = tt.expand_dims %24 {axis = 0 : i32} : tensor<16xi32> -> tensor<1x16xi32> loc(#loc33)
    %44 = tt.broadcast %42 : tensor<16x1xi32> -> tensor<16x16xi32> loc(#loc33)
    %45 = tt.broadcast %43 : tensor<1x16xi32> -> tensor<16x16xi32> loc(#loc33)
    %46 = arith.addi %44, %45 : tensor<16x16xi32> loc(#loc33)
    %47 = tt.splat %arg4 : i32 -> tensor<16x16xi32> loc(#loc34)
    %48 = arith.addi %46, %47 : tensor<16x16xi32> loc(#loc34)
    %49 = tt.splat %arg0 : !tt.ptr<f16> -> tensor<16x16x!tt.ptr<f16>> loc(#loc35)
    %50 = tt.addptr %49, %48 : tensor<16x16x!tt.ptr<f16>>, tensor<16x16xi32> loc(#loc35)
    %51 = tt.load %50 : tensor<16x16x!tt.ptr<f16>> loc(#loc36)
    %52 = arith.addf %38, %51 : tensor<16x16xf16> loc(#loc37)
    %53 = tt.expand_dims %20 {axis = 1 : i32} : tensor<16xi32> -> tensor<16x1xi32> loc(#loc38)
    %c2_i32_4 = arith.constant 2 : i32 loc(#loc39)
    %cst_5 = arith.constant dense<2> : tensor<16x1xi32> loc(#loc39)
    %54 = arith.addi %53, %cst_5 : tensor<16x1xi32> loc(#loc39)
    %55 = tt.splat %arg3 : i32 -> tensor<16x1xi32> loc(#loc40)
    %56 = arith.muli %54, %55 : tensor<16x1xi32> loc(#loc40)
    %57 = tt.expand_dims %24 {axis = 0 : i32} : tensor<16xi32> -> tensor<1x16xi32> loc(#loc41)
    %58 = tt.broadcast %56 : tensor<16x1xi32> -> tensor<16x16xi32> loc(#loc41)
    %59 = tt.broadcast %57 : tensor<1x16xi32> -> tensor<16x16xi32> loc(#loc41)
    %60 = arith.addi %58, %59 : tensor<16x16xi32> loc(#loc41)
    %61 = tt.splat %arg4 : i32 -> tensor<16x16xi32> loc(#loc42)
    %62 = arith.addi %60, %61 : tensor<16x16xi32> loc(#loc42)
    %63 = tt.splat %arg0 : !tt.ptr<f16> -> tensor<16x16x!tt.ptr<f16>> loc(#loc43)
    %64 = tt.addptr %63, %62 : tensor<16x16x!tt.ptr<f16>>, tensor<16x16xi32> loc(#loc43)
    %65 = tt.load %64 : tensor<16x16x!tt.ptr<f16>> loc(#loc44)
    %66 = arith.addf %52, %65 : tensor<16x16xf16> loc(#loc45)
    %67 = tt.expand_dims %20 {axis = 1 : i32} : tensor<16xi32> -> tensor<16x1xi32> loc(#loc46)
    %c3_i32 = arith.constant 3 : i32 loc(#loc47)
    %cst_6 = arith.constant dense<3> : tensor<16x1xi32> loc(#loc47)
    %68 = arith.addi %67, %cst_6 : tensor<16x1xi32> loc(#loc47)
    %69 = tt.splat %arg3 : i32 -> tensor<16x1xi32> loc(#loc48)
    %70 = arith.muli %68, %69 : tensor<16x1xi32> loc(#loc48)
    %71 = tt.expand_dims %24 {axis = 0 : i32} : tensor<16xi32> -> tensor<1x16xi32> loc(#loc49)
    %72 = tt.broadcast %70 : tensor<16x1xi32> -> tensor<16x16xi32> loc(#loc49)
    %73 = tt.broadcast %71 : tensor<1x16xi32> -> tensor<16x16xi32> loc(#loc49)
    %74 = arith.addi %72, %73 : tensor<16x16xi32> loc(#loc49)
    %75 = tt.splat %arg4 : i32 -> tensor<16x16xi32> loc(#loc50)
    %76 = arith.addi %74, %75 : tensor<16x16xi32> loc(#loc50)
    %77 = tt.splat %arg0 : !tt.ptr<f16> -> tensor<16x16x!tt.ptr<f16>> loc(#loc51)
    %78 = tt.addptr %77, %76 : tensor<16x16x!tt.ptr<f16>>, tensor<16x16xi32> loc(#loc51)
    %79 = tt.load %78 : tensor<16x16x!tt.ptr<f16>> loc(#loc52)
    %80 = arith.addf %66, %79 : tensor<16x16xf16> loc(#loc53)
    %81 = tt.expand_dims %20 {axis = 1 : i32} : tensor<16xi32> -> tensor<16x1xi32> loc(#loc54)
    %c4_i32 = arith.constant 4 : i32 loc(#loc55)
    %cst_7 = arith.constant dense<4> : tensor<16x1xi32> loc(#loc55)
    %82 = arith.addi %81, %cst_7 : tensor<16x1xi32> loc(#loc55)
    %83 = tt.splat %arg3 : i32 -> tensor<16x1xi32> loc(#loc56)
    %84 = arith.muli %82, %83 : tensor<16x1xi32> loc(#loc56)
    %85 = tt.expand_dims %24 {axis = 0 : i32} : tensor<16xi32> -> tensor<1x16xi32> loc(#loc57)
    %86 = tt.broadcast %84 : tensor<16x1xi32> -> tensor<16x16xi32> loc(#loc57)
    %87 = tt.broadcast %85 : tensor<1x16xi32> -> tensor<16x16xi32> loc(#loc57)
    %88 = arith.addi %86, %87 : tensor<16x16xi32> loc(#loc57)
    %89 = tt.splat %arg4 : i32 -> tensor<16x16xi32> loc(#loc58)
    %90 = arith.addi %88, %89 : tensor<16x16xi32> loc(#loc58)
    %91 = tt.splat %arg0 : !tt.ptr<f16> -> tensor<16x16x!tt.ptr<f16>> loc(#loc59)
    %92 = tt.addptr %91, %90 : tensor<16x16x!tt.ptr<f16>>, tensor<16x16xi32> loc(#loc59)
    %93 = tt.load %92 : tensor<16x16x!tt.ptr<f16>> loc(#loc60)
    %94 = arith.addf %80, %93 : tensor<16x16xf16> loc(#loc61)
    %95 = tt.expand_dims %20 {axis = 1 : i32} : tensor<16xi32> -> tensor<16x1xi32> loc(#loc62)
    %96 = tt.splat %arg4 : i32 -> tensor<16x1xi32> loc(#loc63)
    %97 = arith.addi %95, %96 : tensor<16x1xi32> loc(#loc63)
    %98 = tt.splat %arg3 : i32 -> tensor<16x1xi32> loc(#loc64)
    %99 = arith.muli %97, %98 : tensor<16x1xi32> loc(#loc64)
    %100 = tt.expand_dims %24 {axis = 0 : i32} : tensor<16xi32> -> tensor<1x16xi32> loc(#loc65)
    %101 = tt.broadcast %99 : tensor<16x1xi32> -> tensor<16x16xi32> loc(#loc65)
    %102 = tt.broadcast %100 : tensor<1x16xi32> -> tensor<16x16xi32> loc(#loc65)
    %103 = arith.addi %101, %102 : tensor<16x16xi32> loc(#loc65)
    %c0_i32 = arith.constant 0 : i32 loc(#loc66)
    %cst_8 = arith.constant dense<0> : tensor<16x16xi32> loc(#loc66)
    %104 = arith.addi %103, %cst_8 : tensor<16x16xi32> loc(#loc66)
    %105 = tt.splat %arg0 : !tt.ptr<f16> -> tensor<16x16x!tt.ptr<f16>> loc(#loc67)
    %106 = tt.addptr %105, %104 : tensor<16x16x!tt.ptr<f16>>, tensor<16x16xi32> loc(#loc67)
    %107 = tt.load %106 : tensor<16x16x!tt.ptr<f16>> loc(#loc68)
    %108 = arith.addf %94, %107 : tensor<16x16xf16> loc(#loc69)
    %109 = tt.expand_dims %20 {axis = 1 : i32} : tensor<16xi32> -> tensor<16x1xi32> loc(#loc70)
    %110 = tt.splat %arg4 : i32 -> tensor<16x1xi32> loc(#loc71)
    %111 = arith.addi %109, %110 : tensor<16x1xi32> loc(#loc71)
    %112 = tt.splat %arg3 : i32 -> tensor<16x1xi32> loc(#loc72)
    %113 = arith.muli %111, %112 : tensor<16x1xi32> loc(#loc72)
    %114 = tt.expand_dims %24 {axis = 0 : i32} : tensor<16xi32> -> tensor<1x16xi32> loc(#loc73)
    %115 = tt.broadcast %113 : tensor<16x1xi32> -> tensor<16x16xi32> loc(#loc73)
    %116 = tt.broadcast %114 : tensor<1x16xi32> -> tensor<16x16xi32> loc(#loc73)
    %117 = arith.addi %115, %116 : tensor<16x16xi32> loc(#loc73)
    %c1_i32_9 = arith.constant 1 : i32 loc(#loc74)
    %cst_10 = arith.constant dense<1> : tensor<16x16xi32> loc(#loc74)
    %118 = arith.addi %117, %cst_10 : tensor<16x16xi32> loc(#loc74)
    %119 = tt.splat %arg0 : !tt.ptr<f16> -> tensor<16x16x!tt.ptr<f16>> loc(#loc75)
    %120 = tt.addptr %119, %118 : tensor<16x16x!tt.ptr<f16>>, tensor<16x16xi32> loc(#loc75)
    %121 = tt.load %120 : tensor<16x16x!tt.ptr<f16>> loc(#loc76)
    %122 = arith.addf %108, %121 : tensor<16x16xf16> loc(#loc77)
    %123 = tt.expand_dims %20 {axis = 1 : i32} : tensor<16xi32> -> tensor<16x1xi32> loc(#loc78)
    %124 = tt.splat %arg4 : i32 -> tensor<16x1xi32> loc(#loc79)
    %125 = arith.addi %123, %124 : tensor<16x1xi32> loc(#loc79)
    %126 = tt.splat %arg3 : i32 -> tensor<16x1xi32> loc(#loc80)
    %127 = arith.muli %125, %126 : tensor<16x1xi32> loc(#loc80)
    %128 = tt.expand_dims %24 {axis = 0 : i32} : tensor<16xi32> -> tensor<1x16xi32> loc(#loc81)
    %129 = tt.broadcast %127 : tensor<16x1xi32> -> tensor<16x16xi32> loc(#loc81)
    %130 = tt.broadcast %128 : tensor<1x16xi32> -> tensor<16x16xi32> loc(#loc81)
    %131 = arith.addi %129, %130 : tensor<16x16xi32> loc(#loc81)
    %c3_i32_11 = arith.constant 3 : i32 loc(#loc82)
    %cst_12 = arith.constant dense<3> : tensor<16x16xi32> loc(#loc82)
    %132 = arith.addi %131, %cst_12 : tensor<16x16xi32> loc(#loc82)
    %133 = tt.splat %arg0 : !tt.ptr<f16> -> tensor<16x16x!tt.ptr<f16>> loc(#loc83)
    %134 = tt.addptr %133, %132 : tensor<16x16x!tt.ptr<f16>>, tensor<16x16xi32> loc(#loc83)
    %135 = tt.load %134 : tensor<16x16x!tt.ptr<f16>> loc(#loc84)
    %136 = arith.addf %122, %135 : tensor<16x16xf16> loc(#loc85)
    %137 = tt.expand_dims %20 {axis = 1 : i32} : tensor<16xi32> -> tensor<16x1xi32> loc(#loc86)
    %138 = tt.splat %arg4 : i32 -> tensor<16x1xi32> loc(#loc87)
    %139 = arith.addi %137, %138 : tensor<16x1xi32> loc(#loc87)
    %140 = tt.splat %arg3 : i32 -> tensor<16x1xi32> loc(#loc88)
    %141 = arith.muli %139, %140 : tensor<16x1xi32> loc(#loc88)
    %142 = tt.expand_dims %24 {axis = 0 : i32} : tensor<16xi32> -> tensor<1x16xi32> loc(#loc89)
    %143 = tt.broadcast %141 : tensor<16x1xi32> -> tensor<16x16xi32> loc(#loc89)
    %144 = tt.broadcast %142 : tensor<1x16xi32> -> tensor<16x16xi32> loc(#loc89)
    %145 = arith.addi %143, %144 : tensor<16x16xi32> loc(#loc89)
    %c4_i32_13 = arith.constant 4 : i32 loc(#loc90)
    %cst_14 = arith.constant dense<4> : tensor<16x16xi32> loc(#loc90)
    %146 = arith.addi %145, %cst_14 : tensor<16x16xi32> loc(#loc90)
    %147 = tt.splat %arg0 : !tt.ptr<f16> -> tensor<16x16x!tt.ptr<f16>> loc(#loc91)
    %148 = tt.addptr %147, %146 : tensor<16x16x!tt.ptr<f16>>, tensor<16x16xi32> loc(#loc91)
    %149 = tt.load %148 : tensor<16x16x!tt.ptr<f16>> loc(#loc92)
    %150 = arith.addf %136, %149 : tensor<16x16xf16> loc(#loc93)
    %151 = tt.expand_dims %12 {axis = 1 : i32} : tensor<16xi32> -> tensor<16x1xi32> loc(#loc94)
    %152 = tt.splat %arg4 : i32 -> tensor<16x1xi32> loc(#loc95)
    %153 = arith.addi %151, %152 : tensor<16x1xi32> loc(#loc95)
    %154 = tt.splat %arg3 : i32 -> tensor<16x1xi32> loc(#loc96)
    %155 = arith.muli %153, %154 : tensor<16x1xi32> loc(#loc96)
    %156 = tt.expand_dims %16 {axis = 0 : i32} : tensor<16xi32> -> tensor<1x16xi32> loc(#loc97)
    %157 = tt.broadcast %155 : tensor<16x1xi32> -> tensor<16x16xi32> loc(#loc97)
    %158 = tt.broadcast %156 : tensor<1x16xi32> -> tensor<16x16xi32> loc(#loc97)
    %159 = arith.addi %157, %158 : tensor<16x16xi32> loc(#loc97)
    %160 = tt.splat %arg4 : i32 -> tensor<16x16xi32> loc(#loc98)
    %161 = arith.addi %159, %160 : tensor<16x16xi32> loc(#loc98)
    %162 = tt.splat %arg1 : !tt.ptr<f16> -> tensor<16x16x!tt.ptr<f16>> loc(#loc99)
    %163 = tt.addptr %162, %161 : tensor<16x16x!tt.ptr<f16>>, tensor<16x16xi32> loc(#loc99)
    tt.store %163, %150 : tensor<16x16x!tt.ptr<f16>> loc(#loc100)
    tt.return loc(#loc101)
  } loc(#loc)
  tt.func private @cdiv__i32__1cconstexpr_16_(%arg0: i32 loc("/usr/local/lib/python3.8/dist-packages/triton/language/standard.py":35:0)) -> i32 attributes {noinline = false} {
    %c16_i32 = arith.constant 16 : i32 loc(#loc103)
    %0 = arith.addi %arg0, %c16_i32 : i32 loc(#loc103)
    %c1_i32 = arith.constant 1 : i32 loc(#loc104)
    %1 = arith.subi %0, %c1_i32 : i32 loc(#loc104)
    %c16_i32_0 = arith.constant 16 : i32 loc(#loc105)
    %2 = arith.divsi %1, %c16_i32_0 : i32 loc(#loc105)
    tt.return %2 : i32 loc(#loc106)
  } loc(#loc102)
  tt.func private @"zeros____0cconstexpr_(constexpr_16_, constexpr_16_)__1cconstexpr_fp16_"() -> tensor<16x16xf16> attributes {noinline = false} {
    %cst = arith.constant 0.000000e+00 : f16 loc(#loc108)
    %cst_0 = arith.constant dense<0.000000e+00> : tensor<16x16xf16> loc(#loc108)
    tt.return %cst_0 : tensor<16x16xf16> loc(#loc109)
  } loc(#loc107)
} loc(#loc)
#loc1 = loc("2d9pt_naive.py":30:10)
#loc2 = loc("2d9pt_naive.py":31:28)
#loc3 = loc("2d9pt_naive.py":31:26)
#loc4 = loc("2d9pt_naive.py":31:31)
#loc5 = loc("2d9pt_naive.py":32:28)
#loc6 = loc("2d9pt_naive.py":32:26)
#loc7 = loc("2d9pt_naive.py":32:31)
#loc8 = loc("2d9pt_naive.py":34:19)
#loc9 = loc("2d9pt_naive.py":35:18)
#loc10 = loc("2d9pt_naive.py":39:22)
#loc11 = loc("2d9pt_naive.py":39:50)
#loc12 = loc("2d9pt_naive.py":39:37)
#loc13 = loc("2d9pt_naive.py":40:22)
#loc14 = loc("2d9pt_naive.py":40:50)
#loc15 = loc("2d9pt_naive.py":40:37)
#loc16 = loc("2d9pt_naive.py":42:22)
#loc17 = loc("2d9pt_naive.py":42:50)
#loc18 = loc("2d9pt_naive.py":42:37)
#loc19 = loc("2d9pt_naive.py":43:22)
#loc20 = loc("2d9pt_naive.py":43:50)
#loc21 = loc("2d9pt_naive.py":43:37)
#loc22 = loc("2d9pt_naive.py":47:22)
#loc23 = loc("2d9pt_naive.py":50:19)
#loc24 = loc("2d9pt_naive.py":50:36)
#loc25 = loc("2d9pt_naive.py":50:40)
#loc26 = loc("2d9pt_naive.py":50:56)
#loc27 = loc("2d9pt_naive.py":50:18)
#loc28 = loc("2d9pt_naive.py":51:21)
#loc29 = loc("2d9pt_naive.py":52:22)
#loc30 = loc("2d9pt_naive.py":54:20)
#loc31 = loc("2d9pt_naive.py":54:37)
#loc32 = loc("2d9pt_naive.py":54:40)
#loc33 = loc("2d9pt_naive.py":54:44)
#loc34 = loc("2d9pt_naive.py":54:60)
#loc35 = loc("2d9pt_naive.py":54:18)
#loc36 = loc("2d9pt_naive.py":55:21)
#loc37 = loc("2d9pt_naive.py":56:22)
#loc38 = loc("2d9pt_naive.py":58:20)
#loc39 = loc("2d9pt_naive.py":58:37)
#loc40 = loc("2d9pt_naive.py":58:40)
#loc41 = loc("2d9pt_naive.py":58:44)
#loc42 = loc("2d9pt_naive.py":58:60)
#loc43 = loc("2d9pt_naive.py":58:18)
#loc44 = loc("2d9pt_naive.py":59:21)
#loc45 = loc("2d9pt_naive.py":60:22)
#loc46 = loc("2d9pt_naive.py":62:20)
#loc47 = loc("2d9pt_naive.py":62:37)
#loc48 = loc("2d9pt_naive.py":62:40)
#loc49 = loc("2d9pt_naive.py":62:44)
#loc50 = loc("2d9pt_naive.py":62:60)
#loc51 = loc("2d9pt_naive.py":62:18)
#loc52 = loc("2d9pt_naive.py":63:21)
#loc53 = loc("2d9pt_naive.py":64:22)
#loc54 = loc("2d9pt_naive.py":66:20)
#loc55 = loc("2d9pt_naive.py":66:37)
#loc56 = loc("2d9pt_naive.py":66:40)
#loc57 = loc("2d9pt_naive.py":66:44)
#loc58 = loc("2d9pt_naive.py":66:60)
#loc59 = loc("2d9pt_naive.py":66:18)
#loc60 = loc("2d9pt_naive.py":67:21)
#loc61 = loc("2d9pt_naive.py":68:22)
#loc62 = loc("2d9pt_naive.py":71:20)
#loc63 = loc("2d9pt_naive.py":71:37)
#loc64 = loc("2d9pt_naive.py":71:40)
#loc65 = loc("2d9pt_naive.py":71:44)
#loc66 = loc("2d9pt_naive.py":71:62)
#loc67 = loc("2d9pt_naive.py":71:18)
#loc68 = loc("2d9pt_naive.py":72:21)
#loc69 = loc("2d9pt_naive.py":73:22)
#loc70 = loc("2d9pt_naive.py":75:20)
#loc71 = loc("2d9pt_naive.py":75:37)
#loc72 = loc("2d9pt_naive.py":75:40)
#loc73 = loc("2d9pt_naive.py":75:44)
#loc74 = loc("2d9pt_naive.py":75:62)
#loc75 = loc("2d9pt_naive.py":75:18)
#loc76 = loc("2d9pt_naive.py":76:21)
#loc77 = loc("2d9pt_naive.py":77:22)
#loc78 = loc("2d9pt_naive.py":79:20)
#loc79 = loc("2d9pt_naive.py":79:37)
#loc80 = loc("2d9pt_naive.py":79:40)
#loc81 = loc("2d9pt_naive.py":79:44)
#loc82 = loc("2d9pt_naive.py":79:62)
#loc83 = loc("2d9pt_naive.py":79:18)
#loc84 = loc("2d9pt_naive.py":80:21)
#loc85 = loc("2d9pt_naive.py":81:22)
#loc86 = loc("2d9pt_naive.py":83:20)
#loc87 = loc("2d9pt_naive.py":83:37)
#loc88 = loc("2d9pt_naive.py":83:40)
#loc89 = loc("2d9pt_naive.py":83:44)
#loc90 = loc("2d9pt_naive.py":83:62)
#loc91 = loc("2d9pt_naive.py":83:18)
#loc92 = loc("2d9pt_naive.py":84:21)
#loc93 = loc("2d9pt_naive.py":85:22)
#loc94 = loc("2d9pt_naive.py":87:19)
#loc95 = loc("2d9pt_naive.py":87:35)
#loc96 = loc("2d9pt_naive.py":87:38)
#loc97 = loc("2d9pt_naive.py":87:42)
#loc98 = loc("2d9pt_naive.py":87:60)
#loc99 = loc("2d9pt_naive.py":87:18)
#loc100 = loc("2d9pt_naive.py":88:21)
#loc101 = loc("2d9pt_naive.py":88:4)
#loc103 = loc("/usr/local/lib/python3.8/dist-packages/triton/language/standard.py":44:16)
#loc104 = loc("/usr/local/lib/python3.8/dist-packages/triton/language/standard.py":44:22)
#loc105 = loc("/usr/local/lib/python3.8/dist-packages/triton/language/standard.py":44:28)
#loc106 = loc("/usr/local/lib/python3.8/dist-packages/triton/language/standard.py":44:11)
#loc107 = loc("/usr/local/lib/python3.8/dist-packages/triton/language/standard.py":116:0)
#loc108 = loc("/usr/local/lib/python3.8/dist-packages/triton/language/standard.py":125:31)
#loc109 = loc("/usr/local/lib/python3.8/dist-packages/triton/language/standard.py":125:11)


// -----// IR Dump Before Canonicalizer (canonicalize) ('tt.func' operation: @zeros____0cconstexpr_(constexpr_16_, constexpr_16_)__1cconstexpr_fp16_) //----- //
#loc = loc("2d9pt_naive.py":18:0)
#loc102 = loc("/usr/local/lib/python3.8/dist-packages/triton/language/standard.py":35:0)
module {
  tt.func public @stencil_kernel(%arg0: !tt.ptr<f16> {tt.divisibility = 16 : i32} loc("2d9pt_naive.py":18:0), %arg1: !tt.ptr<f16> {tt.divisibility = 16 : i32} loc("2d9pt_naive.py":18:0), %arg2: i32 loc("2d9pt_naive.py":18:0), %arg3: i32 loc("2d9pt_naive.py":18:0), %arg4: i32 loc("2d9pt_naive.py":18:0)) attributes {noinline = false} {
    %0 = tt.get_program_id x : i32 loc(#loc1)
    %c2_i32 = arith.constant 2 : i32 loc(#loc2)
    %1 = arith.muli %arg4, %c2_i32 : i32 loc(#loc2)
    %2 = arith.subi %arg2, %1 : i32 loc(#loc3)
    %3 = tt.call @cdiv__i32__1cconstexpr_16_(%2) : (i32) -> i32 loc(#loc4)
    %c2_i32_0 = arith.constant 2 : i32 loc(#loc5)
    %4 = arith.muli %arg4, %c2_i32_0 : i32 loc(#loc5)
    %5 = arith.subi %arg3, %4 : i32 loc(#loc6)
    %6 = tt.call @cdiv__i32__1cconstexpr_16_(%5) : (i32) -> i32 loc(#loc7)
    %7 = arith.divsi %0, %3 : i32 loc(#loc8)
    %8 = arith.remsi %0, %3 : i32 loc(#loc9)
    %c16_i32 = arith.constant 16 : i32 loc(#loc10)
    %9 = arith.muli %7, %c16_i32 : i32 loc(#loc10)
    %10 = tt.make_range {end = 16 : i32, start = 0 : i32} : tensor<16xi32> loc(#loc11)
    %11 = tt.splat %9 : i32 -> tensor<16xi32> loc(#loc12)
    %12 = arith.addi %11, %10 : tensor<16xi32> loc(#loc12)
    %c16_i32_1 = arith.constant 16 : i32 loc(#loc13)
    %13 = arith.muli %8, %c16_i32_1 : i32 loc(#loc13)
    %14 = tt.make_range {end = 16 : i32, start = 0 : i32} : tensor<16xi32> loc(#loc14)
    %15 = tt.splat %13 : i32 -> tensor<16xi32> loc(#loc15)
    %16 = arith.addi %15, %14 : tensor<16xi32> loc(#loc15)
    %c16_i32_2 = arith.constant 16 : i32 loc(#loc16)
    %17 = arith.muli %7, %c16_i32_2 : i32 loc(#loc16)
    %18 = tt.make_range {end = 16 : i32, start = 0 : i32} : tensor<16xi32> loc(#loc17)
    %19 = tt.splat %17 : i32 -> tensor<16xi32> loc(#loc18)
    %20 = arith.addi %19, %18 : tensor<16xi32> loc(#loc18)
    %c16_i32_3 = arith.constant 16 : i32 loc(#loc19)
    %21 = arith.muli %8, %c16_i32_3 : i32 loc(#loc19)
    %22 = tt.make_range {end = 16 : i32, start = 0 : i32} : tensor<16xi32> loc(#loc20)
    %23 = tt.splat %21 : i32 -> tensor<16xi32> loc(#loc21)
    %24 = arith.addi %23, %22 : tensor<16xi32> loc(#loc21)
    %25 = tt.call @"zeros____0cconstexpr_(constexpr_16_, constexpr_16_)__1cconstexpr_fp16_"() : () -> tensor<16x16xf16> loc(#loc22)
    %26 = tt.expand_dims %20 {axis = 1 : i32} : tensor<16xi32> -> tensor<16x1xi32> loc(#loc23)
    %27 = tt.splat %arg3 : i32 -> tensor<16x1xi32> loc(#loc24)
    %28 = arith.muli %26, %27 : tensor<16x1xi32> loc(#loc24)
    %29 = tt.expand_dims %24 {axis = 0 : i32} : tensor<16xi32> -> tensor<1x16xi32> loc(#loc25)
    %30 = tt.broadcast %28 : tensor<16x1xi32> -> tensor<16x16xi32> loc(#loc25)
    %31 = tt.broadcast %29 : tensor<1x16xi32> -> tensor<16x16xi32> loc(#loc25)
    %32 = arith.addi %30, %31 : tensor<16x16xi32> loc(#loc25)
    %33 = tt.splat %arg4 : i32 -> tensor<16x16xi32> loc(#loc26)
    %34 = arith.addi %32, %33 : tensor<16x16xi32> loc(#loc26)
    %35 = tt.splat %arg0 : !tt.ptr<f16> -> tensor<16x16x!tt.ptr<f16>> loc(#loc27)
    %36 = tt.addptr %35, %34 : tensor<16x16x!tt.ptr<f16>>, tensor<16x16xi32> loc(#loc27)
    %37 = tt.load %36 : tensor<16x16x!tt.ptr<f16>> loc(#loc28)
    %38 = arith.addf %25, %37 : tensor<16x16xf16> loc(#loc29)
    %39 = tt.expand_dims %20 {axis = 1 : i32} : tensor<16xi32> -> tensor<16x1xi32> loc(#loc30)
    %c1_i32 = arith.constant 1 : i32 loc(#loc31)
    %cst = arith.constant dense<1> : tensor<16x1xi32> loc(#loc31)
    %40 = arith.addi %39, %cst : tensor<16x1xi32> loc(#loc31)
    %41 = tt.splat %arg3 : i32 -> tensor<16x1xi32> loc(#loc32)
    %42 = arith.muli %40, %41 : tensor<16x1xi32> loc(#loc32)
    %43 = tt.expand_dims %24 {axis = 0 : i32} : tensor<16xi32> -> tensor<1x16xi32> loc(#loc33)
    %44 = tt.broadcast %42 : tensor<16x1xi32> -> tensor<16x16xi32> loc(#loc33)
    %45 = tt.broadcast %43 : tensor<1x16xi32> -> tensor<16x16xi32> loc(#loc33)
    %46 = arith.addi %44, %45 : tensor<16x16xi32> loc(#loc33)
    %47 = tt.splat %arg4 : i32 -> tensor<16x16xi32> loc(#loc34)
    %48 = arith.addi %46, %47 : tensor<16x16xi32> loc(#loc34)
    %49 = tt.splat %arg0 : !tt.ptr<f16> -> tensor<16x16x!tt.ptr<f16>> loc(#loc35)
    %50 = tt.addptr %49, %48 : tensor<16x16x!tt.ptr<f16>>, tensor<16x16xi32> loc(#loc35)
    %51 = tt.load %50 : tensor<16x16x!tt.ptr<f16>> loc(#loc36)
    %52 = arith.addf %38, %51 : tensor<16x16xf16> loc(#loc37)
    %53 = tt.expand_dims %20 {axis = 1 : i32} : tensor<16xi32> -> tensor<16x1xi32> loc(#loc38)
    %c2_i32_4 = arith.constant 2 : i32 loc(#loc39)
    %cst_5 = arith.constant dense<2> : tensor<16x1xi32> loc(#loc39)
    %54 = arith.addi %53, %cst_5 : tensor<16x1xi32> loc(#loc39)
    %55 = tt.splat %arg3 : i32 -> tensor<16x1xi32> loc(#loc40)
    %56 = arith.muli %54, %55 : tensor<16x1xi32> loc(#loc40)
    %57 = tt.expand_dims %24 {axis = 0 : i32} : tensor<16xi32> -> tensor<1x16xi32> loc(#loc41)
    %58 = tt.broadcast %56 : tensor<16x1xi32> -> tensor<16x16xi32> loc(#loc41)
    %59 = tt.broadcast %57 : tensor<1x16xi32> -> tensor<16x16xi32> loc(#loc41)
    %60 = arith.addi %58, %59 : tensor<16x16xi32> loc(#loc41)
    %61 = tt.splat %arg4 : i32 -> tensor<16x16xi32> loc(#loc42)
    %62 = arith.addi %60, %61 : tensor<16x16xi32> loc(#loc42)
    %63 = tt.splat %arg0 : !tt.ptr<f16> -> tensor<16x16x!tt.ptr<f16>> loc(#loc43)
    %64 = tt.addptr %63, %62 : tensor<16x16x!tt.ptr<f16>>, tensor<16x16xi32> loc(#loc43)
    %65 = tt.load %64 : tensor<16x16x!tt.ptr<f16>> loc(#loc44)
    %66 = arith.addf %52, %65 : tensor<16x16xf16> loc(#loc45)
    %67 = tt.expand_dims %20 {axis = 1 : i32} : tensor<16xi32> -> tensor<16x1xi32> loc(#loc46)
    %c3_i32 = arith.constant 3 : i32 loc(#loc47)
    %cst_6 = arith.constant dense<3> : tensor<16x1xi32> loc(#loc47)
    %68 = arith.addi %67, %cst_6 : tensor<16x1xi32> loc(#loc47)
    %69 = tt.splat %arg3 : i32 -> tensor<16x1xi32> loc(#loc48)
    %70 = arith.muli %68, %69 : tensor<16x1xi32> loc(#loc48)
    %71 = tt.expand_dims %24 {axis = 0 : i32} : tensor<16xi32> -> tensor<1x16xi32> loc(#loc49)
    %72 = tt.broadcast %70 : tensor<16x1xi32> -> tensor<16x16xi32> loc(#loc49)
    %73 = tt.broadcast %71 : tensor<1x16xi32> -> tensor<16x16xi32> loc(#loc49)
    %74 = arith.addi %72, %73 : tensor<16x16xi32> loc(#loc49)
    %75 = tt.splat %arg4 : i32 -> tensor<16x16xi32> loc(#loc50)
    %76 = arith.addi %74, %75 : tensor<16x16xi32> loc(#loc50)
    %77 = tt.splat %arg0 : !tt.ptr<f16> -> tensor<16x16x!tt.ptr<f16>> loc(#loc51)
    %78 = tt.addptr %77, %76 : tensor<16x16x!tt.ptr<f16>>, tensor<16x16xi32> loc(#loc51)
    %79 = tt.load %78 : tensor<16x16x!tt.ptr<f16>> loc(#loc52)
    %80 = arith.addf %66, %79 : tensor<16x16xf16> loc(#loc53)
    %81 = tt.expand_dims %20 {axis = 1 : i32} : tensor<16xi32> -> tensor<16x1xi32> loc(#loc54)
    %c4_i32 = arith.constant 4 : i32 loc(#loc55)
    %cst_7 = arith.constant dense<4> : tensor<16x1xi32> loc(#loc55)
    %82 = arith.addi %81, %cst_7 : tensor<16x1xi32> loc(#loc55)
    %83 = tt.splat %arg3 : i32 -> tensor<16x1xi32> loc(#loc56)
    %84 = arith.muli %82, %83 : tensor<16x1xi32> loc(#loc56)
    %85 = tt.expand_dims %24 {axis = 0 : i32} : tensor<16xi32> -> tensor<1x16xi32> loc(#loc57)
    %86 = tt.broadcast %84 : tensor<16x1xi32> -> tensor<16x16xi32> loc(#loc57)
    %87 = tt.broadcast %85 : tensor<1x16xi32> -> tensor<16x16xi32> loc(#loc57)
    %88 = arith.addi %86, %87 : tensor<16x16xi32> loc(#loc57)
    %89 = tt.splat %arg4 : i32 -> tensor<16x16xi32> loc(#loc58)
    %90 = arith.addi %88, %89 : tensor<16x16xi32> loc(#loc58)
    %91 = tt.splat %arg0 : !tt.ptr<f16> -> tensor<16x16x!tt.ptr<f16>> loc(#loc59)
    %92 = tt.addptr %91, %90 : tensor<16x16x!tt.ptr<f16>>, tensor<16x16xi32> loc(#loc59)
    %93 = tt.load %92 : tensor<16x16x!tt.ptr<f16>> loc(#loc60)
    %94 = arith.addf %80, %93 : tensor<16x16xf16> loc(#loc61)
    %95 = tt.expand_dims %20 {axis = 1 : i32} : tensor<16xi32> -> tensor<16x1xi32> loc(#loc62)
    %96 = tt.splat %arg4 : i32 -> tensor<16x1xi32> loc(#loc63)
    %97 = arith.addi %95, %96 : tensor<16x1xi32> loc(#loc63)
    %98 = tt.splat %arg3 : i32 -> tensor<16x1xi32> loc(#loc64)
    %99 = arith.muli %97, %98 : tensor<16x1xi32> loc(#loc64)
    %100 = tt.expand_dims %24 {axis = 0 : i32} : tensor<16xi32> -> tensor<1x16xi32> loc(#loc65)
    %101 = tt.broadcast %99 : tensor<16x1xi32> -> tensor<16x16xi32> loc(#loc65)
    %102 = tt.broadcast %100 : tensor<1x16xi32> -> tensor<16x16xi32> loc(#loc65)
    %103 = arith.addi %101, %102 : tensor<16x16xi32> loc(#loc65)
    %c0_i32 = arith.constant 0 : i32 loc(#loc66)
    %cst_8 = arith.constant dense<0> : tensor<16x16xi32> loc(#loc66)
    %104 = arith.addi %103, %cst_8 : tensor<16x16xi32> loc(#loc66)
    %105 = tt.splat %arg0 : !tt.ptr<f16> -> tensor<16x16x!tt.ptr<f16>> loc(#loc67)
    %106 = tt.addptr %105, %104 : tensor<16x16x!tt.ptr<f16>>, tensor<16x16xi32> loc(#loc67)
    %107 = tt.load %106 : tensor<16x16x!tt.ptr<f16>> loc(#loc68)
    %108 = arith.addf %94, %107 : tensor<16x16xf16> loc(#loc69)
    %109 = tt.expand_dims %20 {axis = 1 : i32} : tensor<16xi32> -> tensor<16x1xi32> loc(#loc70)
    %110 = tt.splat %arg4 : i32 -> tensor<16x1xi32> loc(#loc71)
    %111 = arith.addi %109, %110 : tensor<16x1xi32> loc(#loc71)
    %112 = tt.splat %arg3 : i32 -> tensor<16x1xi32> loc(#loc72)
    %113 = arith.muli %111, %112 : tensor<16x1xi32> loc(#loc72)
    %114 = tt.expand_dims %24 {axis = 0 : i32} : tensor<16xi32> -> tensor<1x16xi32> loc(#loc73)
    %115 = tt.broadcast %113 : tensor<16x1xi32> -> tensor<16x16xi32> loc(#loc73)
    %116 = tt.broadcast %114 : tensor<1x16xi32> -> tensor<16x16xi32> loc(#loc73)
    %117 = arith.addi %115, %116 : tensor<16x16xi32> loc(#loc73)
    %c1_i32_9 = arith.constant 1 : i32 loc(#loc74)
    %cst_10 = arith.constant dense<1> : tensor<16x16xi32> loc(#loc74)
    %118 = arith.addi %117, %cst_10 : tensor<16x16xi32> loc(#loc74)
    %119 = tt.splat %arg0 : !tt.ptr<f16> -> tensor<16x16x!tt.ptr<f16>> loc(#loc75)
    %120 = tt.addptr %119, %118 : tensor<16x16x!tt.ptr<f16>>, tensor<16x16xi32> loc(#loc75)
    %121 = tt.load %120 : tensor<16x16x!tt.ptr<f16>> loc(#loc76)
    %122 = arith.addf %108, %121 : tensor<16x16xf16> loc(#loc77)
    %123 = tt.expand_dims %20 {axis = 1 : i32} : tensor<16xi32> -> tensor<16x1xi32> loc(#loc78)
    %124 = tt.splat %arg4 : i32 -> tensor<16x1xi32> loc(#loc79)
    %125 = arith.addi %123, %124 : tensor<16x1xi32> loc(#loc79)
    %126 = tt.splat %arg3 : i32 -> tensor<16x1xi32> loc(#loc80)
    %127 = arith.muli %125, %126 : tensor<16x1xi32> loc(#loc80)
    %128 = tt.expand_dims %24 {axis = 0 : i32} : tensor<16xi32> -> tensor<1x16xi32> loc(#loc81)
    %129 = tt.broadcast %127 : tensor<16x1xi32> -> tensor<16x16xi32> loc(#loc81)
    %130 = tt.broadcast %128 : tensor<1x16xi32> -> tensor<16x16xi32> loc(#loc81)
    %131 = arith.addi %129, %130 : tensor<16x16xi32> loc(#loc81)
    %c3_i32_11 = arith.constant 3 : i32 loc(#loc82)
    %cst_12 = arith.constant dense<3> : tensor<16x16xi32> loc(#loc82)
    %132 = arith.addi %131, %cst_12 : tensor<16x16xi32> loc(#loc82)
    %133 = tt.splat %arg0 : !tt.ptr<f16> -> tensor<16x16x!tt.ptr<f16>> loc(#loc83)
    %134 = tt.addptr %133, %132 : tensor<16x16x!tt.ptr<f16>>, tensor<16x16xi32> loc(#loc83)
    %135 = tt.load %134 : tensor<16x16x!tt.ptr<f16>> loc(#loc84)
    %136 = arith.addf %122, %135 : tensor<16x16xf16> loc(#loc85)
    %137 = tt.expand_dims %20 {axis = 1 : i32} : tensor<16xi32> -> tensor<16x1xi32> loc(#loc86)
    %138 = tt.splat %arg4 : i32 -> tensor<16x1xi32> loc(#loc87)
    %139 = arith.addi %137, %138 : tensor<16x1xi32> loc(#loc87)
    %140 = tt.splat %arg3 : i32 -> tensor<16x1xi32> loc(#loc88)
    %141 = arith.muli %139, %140 : tensor<16x1xi32> loc(#loc88)
    %142 = tt.expand_dims %24 {axis = 0 : i32} : tensor<16xi32> -> tensor<1x16xi32> loc(#loc89)
    %143 = tt.broadcast %141 : tensor<16x1xi32> -> tensor<16x16xi32> loc(#loc89)
    %144 = tt.broadcast %142 : tensor<1x16xi32> -> tensor<16x16xi32> loc(#loc89)
    %145 = arith.addi %143, %144 : tensor<16x16xi32> loc(#loc89)
    %c4_i32_13 = arith.constant 4 : i32 loc(#loc90)
    %cst_14 = arith.constant dense<4> : tensor<16x16xi32> loc(#loc90)
    %146 = arith.addi %145, %cst_14 : tensor<16x16xi32> loc(#loc90)
    %147 = tt.splat %arg0 : !tt.ptr<f16> -> tensor<16x16x!tt.ptr<f16>> loc(#loc91)
    %148 = tt.addptr %147, %146 : tensor<16x16x!tt.ptr<f16>>, tensor<16x16xi32> loc(#loc91)
    %149 = tt.load %148 : tensor<16x16x!tt.ptr<f16>> loc(#loc92)
    %150 = arith.addf %136, %149 : tensor<16x16xf16> loc(#loc93)
    %151 = tt.expand_dims %12 {axis = 1 : i32} : tensor<16xi32> -> tensor<16x1xi32> loc(#loc94)
    %152 = tt.splat %arg4 : i32 -> tensor<16x1xi32> loc(#loc95)
    %153 = arith.addi %151, %152 : tensor<16x1xi32> loc(#loc95)
    %154 = tt.splat %arg3 : i32 -> tensor<16x1xi32> loc(#loc96)
    %155 = arith.muli %153, %154 : tensor<16x1xi32> loc(#loc96)
    %156 = tt.expand_dims %16 {axis = 0 : i32} : tensor<16xi32> -> tensor<1x16xi32> loc(#loc97)
    %157 = tt.broadcast %155 : tensor<16x1xi32> -> tensor<16x16xi32> loc(#loc97)
    %158 = tt.broadcast %156 : tensor<1x16xi32> -> tensor<16x16xi32> loc(#loc97)
    %159 = arith.addi %157, %158 : tensor<16x16xi32> loc(#loc97)
    %160 = tt.splat %arg4 : i32 -> tensor<16x16xi32> loc(#loc98)
    %161 = arith.addi %159, %160 : tensor<16x16xi32> loc(#loc98)
    %162 = tt.splat %arg1 : !tt.ptr<f16> -> tensor<16x16x!tt.ptr<f16>> loc(#loc99)
    %163 = tt.addptr %162, %161 : tensor<16x16x!tt.ptr<f16>>, tensor<16x16xi32> loc(#loc99)
    tt.store %163, %150 : tensor<16x16x!tt.ptr<f16>> loc(#loc100)
    tt.return loc(#loc101)
  } loc(#loc)
  tt.func private @cdiv__i32__1cconstexpr_16_(%arg0: i32 loc("/usr/local/lib/python3.8/dist-packages/triton/language/standard.py":35:0)) -> i32 attributes {noinline = false} {
    %c16_i32 = arith.constant 16 : i32 loc(#loc103)
    %c15_i32 = arith.constant 15 : i32 loc(#loc104)
    %0 = arith.addi %arg0, %c15_i32 : i32 loc(#loc104)
    %1 = arith.divsi %0, %c16_i32 : i32 loc(#loc105)
    tt.return %1 : i32 loc(#loc106)
  } loc(#loc102)
  tt.func private @"zeros____0cconstexpr_(constexpr_16_, constexpr_16_)__1cconstexpr_fp16_"() -> tensor<16x16xf16> attributes {noinline = false} {
    %cst = arith.constant 0.000000e+00 : f16 loc(#loc108)
    %cst_0 = arith.constant dense<0.000000e+00> : tensor<16x16xf16> loc(#loc108)
    tt.return %cst_0 : tensor<16x16xf16> loc(#loc109)
  } loc(#loc107)
} loc(#loc)
#loc1 = loc("2d9pt_naive.py":30:10)
#loc2 = loc("2d9pt_naive.py":31:28)
#loc3 = loc("2d9pt_naive.py":31:26)
#loc4 = loc("2d9pt_naive.py":31:31)
#loc5 = loc("2d9pt_naive.py":32:28)
#loc6 = loc("2d9pt_naive.py":32:26)
#loc7 = loc("2d9pt_naive.py":32:31)
#loc8 = loc("2d9pt_naive.py":34:19)
#loc9 = loc("2d9pt_naive.py":35:18)
#loc10 = loc("2d9pt_naive.py":39:22)
#loc11 = loc("2d9pt_naive.py":39:50)
#loc12 = loc("2d9pt_naive.py":39:37)
#loc13 = loc("2d9pt_naive.py":40:22)
#loc14 = loc("2d9pt_naive.py":40:50)
#loc15 = loc("2d9pt_naive.py":40:37)
#loc16 = loc("2d9pt_naive.py":42:22)
#loc17 = loc("2d9pt_naive.py":42:50)
#loc18 = loc("2d9pt_naive.py":42:37)
#loc19 = loc("2d9pt_naive.py":43:22)
#loc20 = loc("2d9pt_naive.py":43:50)
#loc21 = loc("2d9pt_naive.py":43:37)
#loc22 = loc("2d9pt_naive.py":47:22)
#loc23 = loc("2d9pt_naive.py":50:19)
#loc24 = loc("2d9pt_naive.py":50:36)
#loc25 = loc("2d9pt_naive.py":50:40)
#loc26 = loc("2d9pt_naive.py":50:56)
#loc27 = loc("2d9pt_naive.py":50:18)
#loc28 = loc("2d9pt_naive.py":51:21)
#loc29 = loc("2d9pt_naive.py":52:22)
#loc30 = loc("2d9pt_naive.py":54:20)
#loc31 = loc("2d9pt_naive.py":54:37)
#loc32 = loc("2d9pt_naive.py":54:40)
#loc33 = loc("2d9pt_naive.py":54:44)
#loc34 = loc("2d9pt_naive.py":54:60)
#loc35 = loc("2d9pt_naive.py":54:18)
#loc36 = loc("2d9pt_naive.py":55:21)
#loc37 = loc("2d9pt_naive.py":56:22)
#loc38 = loc("2d9pt_naive.py":58:20)
#loc39 = loc("2d9pt_naive.py":58:37)
#loc40 = loc("2d9pt_naive.py":58:40)
#loc41 = loc("2d9pt_naive.py":58:44)
#loc42 = loc("2d9pt_naive.py":58:60)
#loc43 = loc("2d9pt_naive.py":58:18)
#loc44 = loc("2d9pt_naive.py":59:21)
#loc45 = loc("2d9pt_naive.py":60:22)
#loc46 = loc("2d9pt_naive.py":62:20)
#loc47 = loc("2d9pt_naive.py":62:37)
#loc48 = loc("2d9pt_naive.py":62:40)
#loc49 = loc("2d9pt_naive.py":62:44)
#loc50 = loc("2d9pt_naive.py":62:60)
#loc51 = loc("2d9pt_naive.py":62:18)
#loc52 = loc("2d9pt_naive.py":63:21)
#loc53 = loc("2d9pt_naive.py":64:22)
#loc54 = loc("2d9pt_naive.py":66:20)
#loc55 = loc("2d9pt_naive.py":66:37)
#loc56 = loc("2d9pt_naive.py":66:40)
#loc57 = loc("2d9pt_naive.py":66:44)
#loc58 = loc("2d9pt_naive.py":66:60)
#loc59 = loc("2d9pt_naive.py":66:18)
#loc60 = loc("2d9pt_naive.py":67:21)
#loc61 = loc("2d9pt_naive.py":68:22)
#loc62 = loc("2d9pt_naive.py":71:20)
#loc63 = loc("2d9pt_naive.py":71:37)
#loc64 = loc("2d9pt_naive.py":71:40)
#loc65 = loc("2d9pt_naive.py":71:44)
#loc66 = loc("2d9pt_naive.py":71:62)
#loc67 = loc("2d9pt_naive.py":71:18)
#loc68 = loc("2d9pt_naive.py":72:21)
#loc69 = loc("2d9pt_naive.py":73:22)
#loc70 = loc("2d9pt_naive.py":75:20)
#loc71 = loc("2d9pt_naive.py":75:37)
#loc72 = loc("2d9pt_naive.py":75:40)
#loc73 = loc("2d9pt_naive.py":75:44)
#loc74 = loc("2d9pt_naive.py":75:62)
#loc75 = loc("2d9pt_naive.py":75:18)
#loc76 = loc("2d9pt_naive.py":76:21)
#loc77 = loc("2d9pt_naive.py":77:22)
#loc78 = loc("2d9pt_naive.py":79:20)
#loc79 = loc("2d9pt_naive.py":79:37)
#loc80 = loc("2d9pt_naive.py":79:40)
#loc81 = loc("2d9pt_naive.py":79:44)
#loc82 = loc("2d9pt_naive.py":79:62)
#loc83 = loc("2d9pt_naive.py":79:18)
#loc84 = loc("2d9pt_naive.py":80:21)
#loc85 = loc("2d9pt_naive.py":81:22)
#loc86 = loc("2d9pt_naive.py":83:20)
#loc87 = loc("2d9pt_naive.py":83:37)
#loc88 = loc("2d9pt_naive.py":83:40)
#loc89 = loc("2d9pt_naive.py":83:44)
#loc90 = loc("2d9pt_naive.py":83:62)
#loc91 = loc("2d9pt_naive.py":83:18)
#loc92 = loc("2d9pt_naive.py":84:21)
#loc93 = loc("2d9pt_naive.py":85:22)
#loc94 = loc("2d9pt_naive.py":87:19)
#loc95 = loc("2d9pt_naive.py":87:35)
#loc96 = loc("2d9pt_naive.py":87:38)
#loc97 = loc("2d9pt_naive.py":87:42)
#loc98 = loc("2d9pt_naive.py":87:60)
#loc99 = loc("2d9pt_naive.py":87:18)
#loc100 = loc("2d9pt_naive.py":88:21)
#loc101 = loc("2d9pt_naive.py":88:4)
#loc103 = loc(unknown)
#loc104 = loc("/usr/local/lib/python3.8/dist-packages/triton/language/standard.py":44:22)
#loc105 = loc("/usr/local/lib/python3.8/dist-packages/triton/language/standard.py":44:28)
#loc106 = loc("/usr/local/lib/python3.8/dist-packages/triton/language/standard.py":44:11)
#loc107 = loc("/usr/local/lib/python3.8/dist-packages/triton/language/standard.py":116:0)
#loc108 = loc("/usr/local/lib/python3.8/dist-packages/triton/language/standard.py":125:31)
#loc109 = loc("/usr/local/lib/python3.8/dist-packages/triton/language/standard.py":125:11)


// -----// IR Dump Before Canonicalizer (canonicalize) ('tt.func' operation: @stencil_kernel) //----- //
#loc = loc("2d9pt_naive.py":18:0)
#loc102 = loc("/usr/local/lib/python3.8/dist-packages/triton/language/standard.py":35:0)
module {
  tt.func public @stencil_kernel(%arg0: !tt.ptr<f16> {tt.divisibility = 16 : i32} loc("2d9pt_naive.py":18:0), %arg1: !tt.ptr<f16> {tt.divisibility = 16 : i32} loc("2d9pt_naive.py":18:0), %arg2: i32 loc("2d9pt_naive.py":18:0), %arg3: i32 loc("2d9pt_naive.py":18:0), %arg4: i32 loc("2d9pt_naive.py":18:0)) attributes {noinline = false} {
    %0 = tt.get_program_id x : i32 loc(#loc1)
    %c2_i32 = arith.constant 2 : i32 loc(#loc2)
    %1 = arith.muli %arg4, %c2_i32 : i32 loc(#loc2)
    %2 = arith.subi %arg2, %1 : i32 loc(#loc3)
    %3 = tt.call @cdiv__i32__1cconstexpr_16_(%2) : (i32) -> i32 loc(#loc4)
    %c2_i32_0 = arith.constant 2 : i32 loc(#loc5)
    %4 = arith.muli %arg4, %c2_i32_0 : i32 loc(#loc5)
    %5 = arith.subi %arg3, %4 : i32 loc(#loc6)
    %6 = tt.call @cdiv__i32__1cconstexpr_16_(%5) : (i32) -> i32 loc(#loc7)
    %7 = arith.divsi %0, %3 : i32 loc(#loc8)
    %8 = arith.remsi %0, %3 : i32 loc(#loc9)
    %c16_i32 = arith.constant 16 : i32 loc(#loc10)
    %9 = arith.muli %7, %c16_i32 : i32 loc(#loc10)
    %10 = tt.make_range {end = 16 : i32, start = 0 : i32} : tensor<16xi32> loc(#loc11)
    %11 = tt.splat %9 : i32 -> tensor<16xi32> loc(#loc12)
    %12 = arith.addi %11, %10 : tensor<16xi32> loc(#loc12)
    %c16_i32_1 = arith.constant 16 : i32 loc(#loc13)
    %13 = arith.muli %8, %c16_i32_1 : i32 loc(#loc13)
    %14 = tt.make_range {end = 16 : i32, start = 0 : i32} : tensor<16xi32> loc(#loc14)
    %15 = tt.splat %13 : i32 -> tensor<16xi32> loc(#loc15)
    %16 = arith.addi %15, %14 : tensor<16xi32> loc(#loc15)
    %c16_i32_2 = arith.constant 16 : i32 loc(#loc16)
    %17 = arith.muli %7, %c16_i32_2 : i32 loc(#loc16)
    %18 = tt.make_range {end = 16 : i32, start = 0 : i32} : tensor<16xi32> loc(#loc17)
    %19 = tt.splat %17 : i32 -> tensor<16xi32> loc(#loc18)
    %20 = arith.addi %19, %18 : tensor<16xi32> loc(#loc18)
    %c16_i32_3 = arith.constant 16 : i32 loc(#loc19)
    %21 = arith.muli %8, %c16_i32_3 : i32 loc(#loc19)
    %22 = tt.make_range {end = 16 : i32, start = 0 : i32} : tensor<16xi32> loc(#loc20)
    %23 = tt.splat %21 : i32 -> tensor<16xi32> loc(#loc21)
    %24 = arith.addi %23, %22 : tensor<16xi32> loc(#loc21)
    %25 = tt.call @"zeros____0cconstexpr_(constexpr_16_, constexpr_16_)__1cconstexpr_fp16_"() : () -> tensor<16x16xf16> loc(#loc22)
    %26 = tt.expand_dims %20 {axis = 1 : i32} : tensor<16xi32> -> tensor<16x1xi32> loc(#loc23)
    %27 = tt.splat %arg3 : i32 -> tensor<16x1xi32> loc(#loc24)
    %28 = arith.muli %26, %27 : tensor<16x1xi32> loc(#loc24)
    %29 = tt.expand_dims %24 {axis = 0 : i32} : tensor<16xi32> -> tensor<1x16xi32> loc(#loc25)
    %30 = tt.broadcast %28 : tensor<16x1xi32> -> tensor<16x16xi32> loc(#loc25)
    %31 = tt.broadcast %29 : tensor<1x16xi32> -> tensor<16x16xi32> loc(#loc25)
    %32 = arith.addi %30, %31 : tensor<16x16xi32> loc(#loc25)
    %33 = tt.splat %arg4 : i32 -> tensor<16x16xi32> loc(#loc26)
    %34 = arith.addi %32, %33 : tensor<16x16xi32> loc(#loc26)
    %35 = tt.splat %arg0 : !tt.ptr<f16> -> tensor<16x16x!tt.ptr<f16>> loc(#loc27)
    %36 = tt.addptr %35, %34 : tensor<16x16x!tt.ptr<f16>>, tensor<16x16xi32> loc(#loc27)
    %37 = tt.load %36 : tensor<16x16x!tt.ptr<f16>> loc(#loc28)
    %38 = arith.addf %25, %37 : tensor<16x16xf16> loc(#loc29)
    %39 = tt.expand_dims %20 {axis = 1 : i32} : tensor<16xi32> -> tensor<16x1xi32> loc(#loc30)
    %c1_i32 = arith.constant 1 : i32 loc(#loc31)
    %cst = arith.constant dense<1> : tensor<16x1xi32> loc(#loc31)
    %40 = arith.addi %39, %cst : tensor<16x1xi32> loc(#loc31)
    %41 = tt.splat %arg3 : i32 -> tensor<16x1xi32> loc(#loc32)
    %42 = arith.muli %40, %41 : tensor<16x1xi32> loc(#loc32)
    %43 = tt.expand_dims %24 {axis = 0 : i32} : tensor<16xi32> -> tensor<1x16xi32> loc(#loc33)
    %44 = tt.broadcast %42 : tensor<16x1xi32> -> tensor<16x16xi32> loc(#loc33)
    %45 = tt.broadcast %43 : tensor<1x16xi32> -> tensor<16x16xi32> loc(#loc33)
    %46 = arith.addi %44, %45 : tensor<16x16xi32> loc(#loc33)
    %47 = tt.splat %arg4 : i32 -> tensor<16x16xi32> loc(#loc34)
    %48 = arith.addi %46, %47 : tensor<16x16xi32> loc(#loc34)
    %49 = tt.splat %arg0 : !tt.ptr<f16> -> tensor<16x16x!tt.ptr<f16>> loc(#loc35)
    %50 = tt.addptr %49, %48 : tensor<16x16x!tt.ptr<f16>>, tensor<16x16xi32> loc(#loc35)
    %51 = tt.load %50 : tensor<16x16x!tt.ptr<f16>> loc(#loc36)
    %52 = arith.addf %38, %51 : tensor<16x16xf16> loc(#loc37)
    %53 = tt.expand_dims %20 {axis = 1 : i32} : tensor<16xi32> -> tensor<16x1xi32> loc(#loc38)
    %c2_i32_4 = arith.constant 2 : i32 loc(#loc39)
    %cst_5 = arith.constant dense<2> : tensor<16x1xi32> loc(#loc39)
    %54 = arith.addi %53, %cst_5 : tensor<16x1xi32> loc(#loc39)
    %55 = tt.splat %arg3 : i32 -> tensor<16x1xi32> loc(#loc40)
    %56 = arith.muli %54, %55 : tensor<16x1xi32> loc(#loc40)
    %57 = tt.expand_dims %24 {axis = 0 : i32} : tensor<16xi32> -> tensor<1x16xi32> loc(#loc41)
    %58 = tt.broadcast %56 : tensor<16x1xi32> -> tensor<16x16xi32> loc(#loc41)
    %59 = tt.broadcast %57 : tensor<1x16xi32> -> tensor<16x16xi32> loc(#loc41)
    %60 = arith.addi %58, %59 : tensor<16x16xi32> loc(#loc41)
    %61 = tt.splat %arg4 : i32 -> tensor<16x16xi32> loc(#loc42)
    %62 = arith.addi %60, %61 : tensor<16x16xi32> loc(#loc42)
    %63 = tt.splat %arg0 : !tt.ptr<f16> -> tensor<16x16x!tt.ptr<f16>> loc(#loc43)
    %64 = tt.addptr %63, %62 : tensor<16x16x!tt.ptr<f16>>, tensor<16x16xi32> loc(#loc43)
    %65 = tt.load %64 : tensor<16x16x!tt.ptr<f16>> loc(#loc44)
    %66 = arith.addf %52, %65 : tensor<16x16xf16> loc(#loc45)
    %67 = tt.expand_dims %20 {axis = 1 : i32} : tensor<16xi32> -> tensor<16x1xi32> loc(#loc46)
    %c3_i32 = arith.constant 3 : i32 loc(#loc47)
    %cst_6 = arith.constant dense<3> : tensor<16x1xi32> loc(#loc47)
    %68 = arith.addi %67, %cst_6 : tensor<16x1xi32> loc(#loc47)
    %69 = tt.splat %arg3 : i32 -> tensor<16x1xi32> loc(#loc48)
    %70 = arith.muli %68, %69 : tensor<16x1xi32> loc(#loc48)
    %71 = tt.expand_dims %24 {axis = 0 : i32} : tensor<16xi32> -> tensor<1x16xi32> loc(#loc49)
    %72 = tt.broadcast %70 : tensor<16x1xi32> -> tensor<16x16xi32> loc(#loc49)
    %73 = tt.broadcast %71 : tensor<1x16xi32> -> tensor<16x16xi32> loc(#loc49)
    %74 = arith.addi %72, %73 : tensor<16x16xi32> loc(#loc49)
    %75 = tt.splat %arg4 : i32 -> tensor<16x16xi32> loc(#loc50)
    %76 = arith.addi %74, %75 : tensor<16x16xi32> loc(#loc50)
    %77 = tt.splat %arg0 : !tt.ptr<f16> -> tensor<16x16x!tt.ptr<f16>> loc(#loc51)
    %78 = tt.addptr %77, %76 : tensor<16x16x!tt.ptr<f16>>, tensor<16x16xi32> loc(#loc51)
    %79 = tt.load %78 : tensor<16x16x!tt.ptr<f16>> loc(#loc52)
    %80 = arith.addf %66, %79 : tensor<16x16xf16> loc(#loc53)
    %81 = tt.expand_dims %20 {axis = 1 : i32} : tensor<16xi32> -> tensor<16x1xi32> loc(#loc54)
    %c4_i32 = arith.constant 4 : i32 loc(#loc55)
    %cst_7 = arith.constant dense<4> : tensor<16x1xi32> loc(#loc55)
    %82 = arith.addi %81, %cst_7 : tensor<16x1xi32> loc(#loc55)
    %83 = tt.splat %arg3 : i32 -> tensor<16x1xi32> loc(#loc56)
    %84 = arith.muli %82, %83 : tensor<16x1xi32> loc(#loc56)
    %85 = tt.expand_dims %24 {axis = 0 : i32} : tensor<16xi32> -> tensor<1x16xi32> loc(#loc57)
    %86 = tt.broadcast %84 : tensor<16x1xi32> -> tensor<16x16xi32> loc(#loc57)
    %87 = tt.broadcast %85 : tensor<1x16xi32> -> tensor<16x16xi32> loc(#loc57)
    %88 = arith.addi %86, %87 : tensor<16x16xi32> loc(#loc57)
    %89 = tt.splat %arg4 : i32 -> tensor<16x16xi32> loc(#loc58)
    %90 = arith.addi %88, %89 : tensor<16x16xi32> loc(#loc58)
    %91 = tt.splat %arg0 : !tt.ptr<f16> -> tensor<16x16x!tt.ptr<f16>> loc(#loc59)
    %92 = tt.addptr %91, %90 : tensor<16x16x!tt.ptr<f16>>, tensor<16x16xi32> loc(#loc59)
    %93 = tt.load %92 : tensor<16x16x!tt.ptr<f16>> loc(#loc60)
    %94 = arith.addf %80, %93 : tensor<16x16xf16> loc(#loc61)
    %95 = tt.expand_dims %20 {axis = 1 : i32} : tensor<16xi32> -> tensor<16x1xi32> loc(#loc62)
    %96 = tt.splat %arg4 : i32 -> tensor<16x1xi32> loc(#loc63)
    %97 = arith.addi %95, %96 : tensor<16x1xi32> loc(#loc63)
    %98 = tt.splat %arg3 : i32 -> tensor<16x1xi32> loc(#loc64)
    %99 = arith.muli %97, %98 : tensor<16x1xi32> loc(#loc64)
    %100 = tt.expand_dims %24 {axis = 0 : i32} : tensor<16xi32> -> tensor<1x16xi32> loc(#loc65)
    %101 = tt.broadcast %99 : tensor<16x1xi32> -> tensor<16x16xi32> loc(#loc65)
    %102 = tt.broadcast %100 : tensor<1x16xi32> -> tensor<16x16xi32> loc(#loc65)
    %103 = arith.addi %101, %102 : tensor<16x16xi32> loc(#loc65)
    %c0_i32 = arith.constant 0 : i32 loc(#loc66)
    %cst_8 = arith.constant dense<0> : tensor<16x16xi32> loc(#loc66)
    %104 = arith.addi %103, %cst_8 : tensor<16x16xi32> loc(#loc66)
    %105 = tt.splat %arg0 : !tt.ptr<f16> -> tensor<16x16x!tt.ptr<f16>> loc(#loc67)
    %106 = tt.addptr %105, %104 : tensor<16x16x!tt.ptr<f16>>, tensor<16x16xi32> loc(#loc67)
    %107 = tt.load %106 : tensor<16x16x!tt.ptr<f16>> loc(#loc68)
    %108 = arith.addf %94, %107 : tensor<16x16xf16> loc(#loc69)
    %109 = tt.expand_dims %20 {axis = 1 : i32} : tensor<16xi32> -> tensor<16x1xi32> loc(#loc70)
    %110 = tt.splat %arg4 : i32 -> tensor<16x1xi32> loc(#loc71)
    %111 = arith.addi %109, %110 : tensor<16x1xi32> loc(#loc71)
    %112 = tt.splat %arg3 : i32 -> tensor<16x1xi32> loc(#loc72)
    %113 = arith.muli %111, %112 : tensor<16x1xi32> loc(#loc72)
    %114 = tt.expand_dims %24 {axis = 0 : i32} : tensor<16xi32> -> tensor<1x16xi32> loc(#loc73)
    %115 = tt.broadcast %113 : tensor<16x1xi32> -> tensor<16x16xi32> loc(#loc73)
    %116 = tt.broadcast %114 : tensor<1x16xi32> -> tensor<16x16xi32> loc(#loc73)
    %117 = arith.addi %115, %116 : tensor<16x16xi32> loc(#loc73)
    %c1_i32_9 = arith.constant 1 : i32 loc(#loc74)
    %cst_10 = arith.constant dense<1> : tensor<16x16xi32> loc(#loc74)
    %118 = arith.addi %117, %cst_10 : tensor<16x16xi32> loc(#loc74)
    %119 = tt.splat %arg0 : !tt.ptr<f16> -> tensor<16x16x!tt.ptr<f16>> loc(#loc75)
    %120 = tt.addptr %119, %118 : tensor<16x16x!tt.ptr<f16>>, tensor<16x16xi32> loc(#loc75)
    %121 = tt.load %120 : tensor<16x16x!tt.ptr<f16>> loc(#loc76)
    %122 = arith.addf %108, %121 : tensor<16x16xf16> loc(#loc77)
    %123 = tt.expand_dims %20 {axis = 1 : i32} : tensor<16xi32> -> tensor<16x1xi32> loc(#loc78)
    %124 = tt.splat %arg4 : i32 -> tensor<16x1xi32> loc(#loc79)
    %125 = arith.addi %123, %124 : tensor<16x1xi32> loc(#loc79)
    %126 = tt.splat %arg3 : i32 -> tensor<16x1xi32> loc(#loc80)
    %127 = arith.muli %125, %126 : tensor<16x1xi32> loc(#loc80)
    %128 = tt.expand_dims %24 {axis = 0 : i32} : tensor<16xi32> -> tensor<1x16xi32> loc(#loc81)
    %129 = tt.broadcast %127 : tensor<16x1xi32> -> tensor<16x16xi32> loc(#loc81)
    %130 = tt.broadcast %128 : tensor<1x16xi32> -> tensor<16x16xi32> loc(#loc81)
    %131 = arith.addi %129, %130 : tensor<16x16xi32> loc(#loc81)
    %c3_i32_11 = arith.constant 3 : i32 loc(#loc82)
    %cst_12 = arith.constant dense<3> : tensor<16x16xi32> loc(#loc82)
    %132 = arith.addi %131, %cst_12 : tensor<16x16xi32> loc(#loc82)
    %133 = tt.splat %arg0 : !tt.ptr<f16> -> tensor<16x16x!tt.ptr<f16>> loc(#loc83)
    %134 = tt.addptr %133, %132 : tensor<16x16x!tt.ptr<f16>>, tensor<16x16xi32> loc(#loc83)
    %135 = tt.load %134 : tensor<16x16x!tt.ptr<f16>> loc(#loc84)
    %136 = arith.addf %122, %135 : tensor<16x16xf16> loc(#loc85)
    %137 = tt.expand_dims %20 {axis = 1 : i32} : tensor<16xi32> -> tensor<16x1xi32> loc(#loc86)
    %138 = tt.splat %arg4 : i32 -> tensor<16x1xi32> loc(#loc87)
    %139 = arith.addi %137, %138 : tensor<16x1xi32> loc(#loc87)
    %140 = tt.splat %arg3 : i32 -> tensor<16x1xi32> loc(#loc88)
    %141 = arith.muli %139, %140 : tensor<16x1xi32> loc(#loc88)
    %142 = tt.expand_dims %24 {axis = 0 : i32} : tensor<16xi32> -> tensor<1x16xi32> loc(#loc89)
    %143 = tt.broadcast %141 : tensor<16x1xi32> -> tensor<16x16xi32> loc(#loc89)
    %144 = tt.broadcast %142 : tensor<1x16xi32> -> tensor<16x16xi32> loc(#loc89)
    %145 = arith.addi %143, %144 : tensor<16x16xi32> loc(#loc89)
    %c4_i32_13 = arith.constant 4 : i32 loc(#loc90)
    %cst_14 = arith.constant dense<4> : tensor<16x16xi32> loc(#loc90)
    %146 = arith.addi %145, %cst_14 : tensor<16x16xi32> loc(#loc90)
    %147 = tt.splat %arg0 : !tt.ptr<f16> -> tensor<16x16x!tt.ptr<f16>> loc(#loc91)
    %148 = tt.addptr %147, %146 : tensor<16x16x!tt.ptr<f16>>, tensor<16x16xi32> loc(#loc91)
    %149 = tt.load %148 : tensor<16x16x!tt.ptr<f16>> loc(#loc92)
    %150 = arith.addf %136, %149 : tensor<16x16xf16> loc(#loc93)
    %151 = tt.expand_dims %12 {axis = 1 : i32} : tensor<16xi32> -> tensor<16x1xi32> loc(#loc94)
    %152 = tt.splat %arg4 : i32 -> tensor<16x1xi32> loc(#loc95)
    %153 = arith.addi %151, %152 : tensor<16x1xi32> loc(#loc95)
    %154 = tt.splat %arg3 : i32 -> tensor<16x1xi32> loc(#loc96)
    %155 = arith.muli %153, %154 : tensor<16x1xi32> loc(#loc96)
    %156 = tt.expand_dims %16 {axis = 0 : i32} : tensor<16xi32> -> tensor<1x16xi32> loc(#loc97)
    %157 = tt.broadcast %155 : tensor<16x1xi32> -> tensor<16x16xi32> loc(#loc97)
    %158 = tt.broadcast %156 : tensor<1x16xi32> -> tensor<16x16xi32> loc(#loc97)
    %159 = arith.addi %157, %158 : tensor<16x16xi32> loc(#loc97)
    %160 = tt.splat %arg4 : i32 -> tensor<16x16xi32> loc(#loc98)
    %161 = arith.addi %159, %160 : tensor<16x16xi32> loc(#loc98)
    %162 = tt.splat %arg1 : !tt.ptr<f16> -> tensor<16x16x!tt.ptr<f16>> loc(#loc99)
    %163 = tt.addptr %162, %161 : tensor<16x16x!tt.ptr<f16>>, tensor<16x16xi32> loc(#loc99)
    tt.store %163, %150 : tensor<16x16x!tt.ptr<f16>> loc(#loc100)
    tt.return loc(#loc101)
  } loc(#loc)
  tt.func private @cdiv__i32__1cconstexpr_16_(%arg0: i32 loc("/usr/local/lib/python3.8/dist-packages/triton/language/standard.py":35:0)) -> i32 attributes {noinline = false} {
    %c16_i32 = arith.constant 16 : i32 loc(#loc103)
    %c15_i32 = arith.constant 15 : i32 loc(#loc104)
    %0 = arith.addi %arg0, %c15_i32 : i32 loc(#loc104)
    %1 = arith.divsi %0, %c16_i32 : i32 loc(#loc105)
    tt.return %1 : i32 loc(#loc106)
  } loc(#loc102)
  tt.func private @"zeros____0cconstexpr_(constexpr_16_, constexpr_16_)__1cconstexpr_fp16_"() -> tensor<16x16xf16> attributes {noinline = false} {
    %cst = arith.constant dense<0.000000e+00> : tensor<16x16xf16> loc(#loc108)
    tt.return %cst : tensor<16x16xf16> loc(#loc109)
  } loc(#loc107)
} loc(#loc)
#loc1 = loc("2d9pt_naive.py":30:10)
#loc2 = loc("2d9pt_naive.py":31:28)
#loc3 = loc("2d9pt_naive.py":31:26)
#loc4 = loc("2d9pt_naive.py":31:31)
#loc5 = loc("2d9pt_naive.py":32:28)
#loc6 = loc("2d9pt_naive.py":32:26)
#loc7 = loc("2d9pt_naive.py":32:31)
#loc8 = loc("2d9pt_naive.py":34:19)
#loc9 = loc("2d9pt_naive.py":35:18)
#loc10 = loc("2d9pt_naive.py":39:22)
#loc11 = loc("2d9pt_naive.py":39:50)
#loc12 = loc("2d9pt_naive.py":39:37)
#loc13 = loc("2d9pt_naive.py":40:22)
#loc14 = loc("2d9pt_naive.py":40:50)
#loc15 = loc("2d9pt_naive.py":40:37)
#loc16 = loc("2d9pt_naive.py":42:22)
#loc17 = loc("2d9pt_naive.py":42:50)
#loc18 = loc("2d9pt_naive.py":42:37)
#loc19 = loc("2d9pt_naive.py":43:22)
#loc20 = loc("2d9pt_naive.py":43:50)
#loc21 = loc("2d9pt_naive.py":43:37)
#loc22 = loc("2d9pt_naive.py":47:22)
#loc23 = loc("2d9pt_naive.py":50:19)
#loc24 = loc("2d9pt_naive.py":50:36)
#loc25 = loc("2d9pt_naive.py":50:40)
#loc26 = loc("2d9pt_naive.py":50:56)
#loc27 = loc("2d9pt_naive.py":50:18)
#loc28 = loc("2d9pt_naive.py":51:21)
#loc29 = loc("2d9pt_naive.py":52:22)
#loc30 = loc("2d9pt_naive.py":54:20)
#loc31 = loc("2d9pt_naive.py":54:37)
#loc32 = loc("2d9pt_naive.py":54:40)
#loc33 = loc("2d9pt_naive.py":54:44)
#loc34 = loc("2d9pt_naive.py":54:60)
#loc35 = loc("2d9pt_naive.py":54:18)
#loc36 = loc("2d9pt_naive.py":55:21)
#loc37 = loc("2d9pt_naive.py":56:22)
#loc38 = loc("2d9pt_naive.py":58:20)
#loc39 = loc("2d9pt_naive.py":58:37)
#loc40 = loc("2d9pt_naive.py":58:40)
#loc41 = loc("2d9pt_naive.py":58:44)
#loc42 = loc("2d9pt_naive.py":58:60)
#loc43 = loc("2d9pt_naive.py":58:18)
#loc44 = loc("2d9pt_naive.py":59:21)
#loc45 = loc("2d9pt_naive.py":60:22)
#loc46 = loc("2d9pt_naive.py":62:20)
#loc47 = loc("2d9pt_naive.py":62:37)
#loc48 = loc("2d9pt_naive.py":62:40)
#loc49 = loc("2d9pt_naive.py":62:44)
#loc50 = loc("2d9pt_naive.py":62:60)
#loc51 = loc("2d9pt_naive.py":62:18)
#loc52 = loc("2d9pt_naive.py":63:21)
#loc53 = loc("2d9pt_naive.py":64:22)
#loc54 = loc("2d9pt_naive.py":66:20)
#loc55 = loc("2d9pt_naive.py":66:37)
#loc56 = loc("2d9pt_naive.py":66:40)
#loc57 = loc("2d9pt_naive.py":66:44)
#loc58 = loc("2d9pt_naive.py":66:60)
#loc59 = loc("2d9pt_naive.py":66:18)
#loc60 = loc("2d9pt_naive.py":67:21)
#loc61 = loc("2d9pt_naive.py":68:22)
#loc62 = loc("2d9pt_naive.py":71:20)
#loc63 = loc("2d9pt_naive.py":71:37)
#loc64 = loc("2d9pt_naive.py":71:40)
#loc65 = loc("2d9pt_naive.py":71:44)
#loc66 = loc("2d9pt_naive.py":71:62)
#loc67 = loc("2d9pt_naive.py":71:18)
#loc68 = loc("2d9pt_naive.py":72:21)
#loc69 = loc("2d9pt_naive.py":73:22)
#loc70 = loc("2d9pt_naive.py":75:20)
#loc71 = loc("2d9pt_naive.py":75:37)
#loc72 = loc("2d9pt_naive.py":75:40)
#loc73 = loc("2d9pt_naive.py":75:44)
#loc74 = loc("2d9pt_naive.py":75:62)
#loc75 = loc("2d9pt_naive.py":75:18)
#loc76 = loc("2d9pt_naive.py":76:21)
#loc77 = loc("2d9pt_naive.py":77:22)
#loc78 = loc("2d9pt_naive.py":79:20)
#loc79 = loc("2d9pt_naive.py":79:37)
#loc80 = loc("2d9pt_naive.py":79:40)
#loc81 = loc("2d9pt_naive.py":79:44)
#loc82 = loc("2d9pt_naive.py":79:62)
#loc83 = loc("2d9pt_naive.py":79:18)
#loc84 = loc("2d9pt_naive.py":80:21)
#loc85 = loc("2d9pt_naive.py":81:22)
#loc86 = loc("2d9pt_naive.py":83:20)
#loc87 = loc("2d9pt_naive.py":83:37)
#loc88 = loc("2d9pt_naive.py":83:40)
#loc89 = loc("2d9pt_naive.py":83:44)
#loc90 = loc("2d9pt_naive.py":83:62)
#loc91 = loc("2d9pt_naive.py":83:18)
#loc92 = loc("2d9pt_naive.py":84:21)
#loc93 = loc("2d9pt_naive.py":85:22)
#loc94 = loc("2d9pt_naive.py":87:19)
#loc95 = loc("2d9pt_naive.py":87:35)
#loc96 = loc("2d9pt_naive.py":87:38)
#loc97 = loc("2d9pt_naive.py":87:42)
#loc98 = loc("2d9pt_naive.py":87:60)
#loc99 = loc("2d9pt_naive.py":87:18)
#loc100 = loc("2d9pt_naive.py":88:21)
#loc101 = loc("2d9pt_naive.py":88:4)
#loc103 = loc(unknown)
#loc104 = loc("/usr/local/lib/python3.8/dist-packages/triton/language/standard.py":44:22)
#loc105 = loc("/usr/local/lib/python3.8/dist-packages/triton/language/standard.py":44:28)
#loc106 = loc("/usr/local/lib/python3.8/dist-packages/triton/language/standard.py":44:11)
#loc107 = loc("/usr/local/lib/python3.8/dist-packages/triton/language/standard.py":116:0)
#loc108 = loc("/usr/local/lib/python3.8/dist-packages/triton/language/standard.py":125:31)
#loc109 = loc("/usr/local/lib/python3.8/dist-packages/triton/language/standard.py":125:11)


// -----// IR Dump Before Canonicalizer (canonicalize) ('tt.func' operation: @stencil_kernel) //----- //
#loc = loc("2d9pt_naive.py":18:0)
module {
  tt.func public @stencil_kernel(%arg0: !tt.ptr<f16> {tt.divisibility = 16 : i32} loc("2d9pt_naive.py":18:0), %arg1: !tt.ptr<f16> {tt.divisibility = 16 : i32} loc("2d9pt_naive.py":18:0), %arg2: i32 loc("2d9pt_naive.py":18:0), %arg3: i32 loc("2d9pt_naive.py":18:0), %arg4: i32 loc("2d9pt_naive.py":18:0)) attributes {noinline = false} {
    %cst = arith.constant dense<4> : tensor<16x16xi32> loc(#loc1)
    %cst_0 = arith.constant dense<3> : tensor<16x16xi32> loc(#loc1)
    %cst_1 = arith.constant dense<1> : tensor<16x16xi32> loc(#loc1)
    %cst_2 = arith.constant dense<4> : tensor<16x1xi32> loc(#loc1)
    %cst_3 = arith.constant dense<3> : tensor<16x1xi32> loc(#loc1)
    %cst_4 = arith.constant dense<2> : tensor<16x1xi32> loc(#loc1)
    %cst_5 = arith.constant dense<1> : tensor<16x1xi32> loc(#loc1)
    %c16_i32 = arith.constant 16 : i32 loc(#loc1)
    %c2_i32 = arith.constant 2 : i32 loc(#loc1)
    %0 = tt.get_program_id x : i32 loc(#loc2)
    %1 = arith.muli %arg4, %c2_i32 : i32 loc(#loc3)
    %2 = arith.subi %arg2, %1 : i32 loc(#loc4)
    %c16_i32_6 = arith.constant 16 : i32 loc(#loc107)
    %c15_i32 = arith.constant 15 : i32 loc(#loc108)
    %3 = arith.addi %2, %c15_i32 : i32 loc(#loc108)
    %4 = arith.divsi %3, %c16_i32_6 : i32 loc(#loc109)
    %5 = arith.muli %arg4, %c2_i32 : i32 loc(#loc8)
    %6 = arith.subi %arg3, %5 : i32 loc(#loc9)
    %c16_i32_7 = arith.constant 16 : i32 loc(#loc110)
    %c15_i32_8 = arith.constant 15 : i32 loc(#loc111)
    %7 = arith.addi %6, %c15_i32_8 : i32 loc(#loc111)
    %8 = arith.divsi %7, %c16_i32_7 : i32 loc(#loc112)
    %9 = arith.divsi %0, %4 : i32 loc(#loc11)
    %10 = arith.remsi %0, %4 : i32 loc(#loc12)
    %11 = arith.muli %9, %c16_i32 : i32 loc(#loc13)
    %12 = tt.make_range {end = 16 : i32, start = 0 : i32} : tensor<16xi32> loc(#loc14)
    %13 = tt.splat %11 : i32 -> tensor<16xi32> loc(#loc15)
    %14 = arith.addi %13, %12 : tensor<16xi32> loc(#loc15)
    %15 = arith.muli %10, %c16_i32 : i32 loc(#loc16)
    %16 = tt.make_range {end = 16 : i32, start = 0 : i32} : tensor<16xi32> loc(#loc17)
    %17 = tt.splat %15 : i32 -> tensor<16xi32> loc(#loc18)
    %18 = arith.addi %17, %16 : tensor<16xi32> loc(#loc18)
    %19 = arith.muli %9, %c16_i32 : i32 loc(#loc19)
    %20 = tt.make_range {end = 16 : i32, start = 0 : i32} : tensor<16xi32> loc(#loc20)
    %21 = tt.splat %19 : i32 -> tensor<16xi32> loc(#loc21)
    %22 = arith.addi %21, %20 : tensor<16xi32> loc(#loc21)
    %23 = arith.muli %10, %c16_i32 : i32 loc(#loc22)
    %24 = tt.make_range {end = 16 : i32, start = 0 : i32} : tensor<16xi32> loc(#loc23)
    %25 = tt.splat %23 : i32 -> tensor<16xi32> loc(#loc24)
    %26 = arith.addi %25, %24 : tensor<16xi32> loc(#loc24)
    %cst_9 = arith.constant dense<0.000000e+00> : tensor<16x16xf16> loc(#loc113)
    %27 = tt.expand_dims %22 {axis = 1 : i32} : tensor<16xi32> -> tensor<16x1xi32> loc(#loc27)
    %28 = tt.splat %arg3 : i32 -> tensor<16x1xi32> loc(#loc28)
    %29 = arith.muli %27, %28 : tensor<16x1xi32> loc(#loc28)
    %30 = tt.expand_dims %26 {axis = 0 : i32} : tensor<16xi32> -> tensor<1x16xi32> loc(#loc29)
    %31 = tt.broadcast %29 : tensor<16x1xi32> -> tensor<16x16xi32> loc(#loc29)
    %32 = tt.broadcast %30 : tensor<1x16xi32> -> tensor<16x16xi32> loc(#loc29)
    %33 = arith.addi %31, %32 : tensor<16x16xi32> loc(#loc29)
    %34 = tt.splat %arg4 : i32 -> tensor<16x16xi32> loc(#loc30)
    %35 = arith.addi %33, %34 : tensor<16x16xi32> loc(#loc30)
    %36 = tt.splat %arg0 : !tt.ptr<f16> -> tensor<16x16x!tt.ptr<f16>> loc(#loc31)
    %37 = tt.addptr %36, %35 : tensor<16x16x!tt.ptr<f16>>, tensor<16x16xi32> loc(#loc31)
    %38 = tt.load %37 : tensor<16x16x!tt.ptr<f16>> loc(#loc32)
    %39 = arith.addf %cst_9, %38 : tensor<16x16xf16> loc(#loc33)
    %40 = tt.expand_dims %22 {axis = 1 : i32} : tensor<16xi32> -> tensor<16x1xi32> loc(#loc34)
    %41 = arith.addi %40, %cst_5 : tensor<16x1xi32> loc(#loc35)
    %42 = tt.splat %arg3 : i32 -> tensor<16x1xi32> loc(#loc36)
    %43 = arith.muli %41, %42 : tensor<16x1xi32> loc(#loc36)
    %44 = tt.expand_dims %26 {axis = 0 : i32} : tensor<16xi32> -> tensor<1x16xi32> loc(#loc37)
    %45 = tt.broadcast %43 : tensor<16x1xi32> -> tensor<16x16xi32> loc(#loc37)
    %46 = tt.broadcast %44 : tensor<1x16xi32> -> tensor<16x16xi32> loc(#loc37)
    %47 = arith.addi %45, %46 : tensor<16x16xi32> loc(#loc37)
    %48 = tt.splat %arg4 : i32 -> tensor<16x16xi32> loc(#loc38)
    %49 = arith.addi %47, %48 : tensor<16x16xi32> loc(#loc38)
    %50 = tt.splat %arg0 : !tt.ptr<f16> -> tensor<16x16x!tt.ptr<f16>> loc(#loc39)
    %51 = tt.addptr %50, %49 : tensor<16x16x!tt.ptr<f16>>, tensor<16x16xi32> loc(#loc39)
    %52 = tt.load %51 : tensor<16x16x!tt.ptr<f16>> loc(#loc40)
    %53 = arith.addf %39, %52 : tensor<16x16xf16> loc(#loc41)
    %54 = tt.expand_dims %22 {axis = 1 : i32} : tensor<16xi32> -> tensor<16x1xi32> loc(#loc42)
    %55 = arith.addi %54, %cst_4 : tensor<16x1xi32> loc(#loc43)
    %56 = tt.splat %arg3 : i32 -> tensor<16x1xi32> loc(#loc44)
    %57 = arith.muli %55, %56 : tensor<16x1xi32> loc(#loc44)
    %58 = tt.expand_dims %26 {axis = 0 : i32} : tensor<16xi32> -> tensor<1x16xi32> loc(#loc45)
    %59 = tt.broadcast %57 : tensor<16x1xi32> -> tensor<16x16xi32> loc(#loc45)
    %60 = tt.broadcast %58 : tensor<1x16xi32> -> tensor<16x16xi32> loc(#loc45)
    %61 = arith.addi %59, %60 : tensor<16x16xi32> loc(#loc45)
    %62 = tt.splat %arg4 : i32 -> tensor<16x16xi32> loc(#loc46)
    %63 = arith.addi %61, %62 : tensor<16x16xi32> loc(#loc46)
    %64 = tt.splat %arg0 : !tt.ptr<f16> -> tensor<16x16x!tt.ptr<f16>> loc(#loc47)
    %65 = tt.addptr %64, %63 : tensor<16x16x!tt.ptr<f16>>, tensor<16x16xi32> loc(#loc47)
    %66 = tt.load %65 : tensor<16x16x!tt.ptr<f16>> loc(#loc48)
    %67 = arith.addf %53, %66 : tensor<16x16xf16> loc(#loc49)
    %68 = tt.expand_dims %22 {axis = 1 : i32} : tensor<16xi32> -> tensor<16x1xi32> loc(#loc50)
    %69 = arith.addi %68, %cst_3 : tensor<16x1xi32> loc(#loc51)
    %70 = tt.splat %arg3 : i32 -> tensor<16x1xi32> loc(#loc52)
    %71 = arith.muli %69, %70 : tensor<16x1xi32> loc(#loc52)
    %72 = tt.expand_dims %26 {axis = 0 : i32} : tensor<16xi32> -> tensor<1x16xi32> loc(#loc53)
    %73 = tt.broadcast %71 : tensor<16x1xi32> -> tensor<16x16xi32> loc(#loc53)
    %74 = tt.broadcast %72 : tensor<1x16xi32> -> tensor<16x16xi32> loc(#loc53)
    %75 = arith.addi %73, %74 : tensor<16x16xi32> loc(#loc53)
    %76 = tt.splat %arg4 : i32 -> tensor<16x16xi32> loc(#loc54)
    %77 = arith.addi %75, %76 : tensor<16x16xi32> loc(#loc54)
    %78 = tt.splat %arg0 : !tt.ptr<f16> -> tensor<16x16x!tt.ptr<f16>> loc(#loc55)
    %79 = tt.addptr %78, %77 : tensor<16x16x!tt.ptr<f16>>, tensor<16x16xi32> loc(#loc55)
    %80 = tt.load %79 : tensor<16x16x!tt.ptr<f16>> loc(#loc56)
    %81 = arith.addf %67, %80 : tensor<16x16xf16> loc(#loc57)
    %82 = tt.expand_dims %22 {axis = 1 : i32} : tensor<16xi32> -> tensor<16x1xi32> loc(#loc58)
    %83 = arith.addi %82, %cst_2 : tensor<16x1xi32> loc(#loc59)
    %84 = tt.splat %arg3 : i32 -> tensor<16x1xi32> loc(#loc60)
    %85 = arith.muli %83, %84 : tensor<16x1xi32> loc(#loc60)
    %86 = tt.expand_dims %26 {axis = 0 : i32} : tensor<16xi32> -> tensor<1x16xi32> loc(#loc61)
    %87 = tt.broadcast %85 : tensor<16x1xi32> -> tensor<16x16xi32> loc(#loc61)
    %88 = tt.broadcast %86 : tensor<1x16xi32> -> tensor<16x16xi32> loc(#loc61)
    %89 = arith.addi %87, %88 : tensor<16x16xi32> loc(#loc61)
    %90 = tt.splat %arg4 : i32 -> tensor<16x16xi32> loc(#loc62)
    %91 = arith.addi %89, %90 : tensor<16x16xi32> loc(#loc62)
    %92 = tt.splat %arg0 : !tt.ptr<f16> -> tensor<16x16x!tt.ptr<f16>> loc(#loc63)
    %93 = tt.addptr %92, %91 : tensor<16x16x!tt.ptr<f16>>, tensor<16x16xi32> loc(#loc63)
    %94 = tt.load %93 : tensor<16x16x!tt.ptr<f16>> loc(#loc64)
    %95 = arith.addf %81, %94 : tensor<16x16xf16> loc(#loc65)
    %96 = tt.expand_dims %22 {axis = 1 : i32} : tensor<16xi32> -> tensor<16x1xi32> loc(#loc66)
    %97 = tt.splat %arg4 : i32 -> tensor<16x1xi32> loc(#loc67)
    %98 = arith.addi %96, %97 : tensor<16x1xi32> loc(#loc67)
    %99 = tt.splat %arg3 : i32 -> tensor<16x1xi32> loc(#loc68)
    %100 = arith.muli %98, %99 : tensor<16x1xi32> loc(#loc68)
    %101 = tt.expand_dims %26 {axis = 0 : i32} : tensor<16xi32> -> tensor<1x16xi32> loc(#loc69)
    %102 = tt.broadcast %100 : tensor<16x1xi32> -> tensor<16x16xi32> loc(#loc69)
    %103 = tt.broadcast %101 : tensor<1x16xi32> -> tensor<16x16xi32> loc(#loc69)
    %104 = arith.addi %102, %103 : tensor<16x16xi32> loc(#loc69)
    %105 = tt.splat %arg0 : !tt.ptr<f16> -> tensor<16x16x!tt.ptr<f16>> loc(#loc70)
    %106 = tt.addptr %105, %104 : tensor<16x16x!tt.ptr<f16>>, tensor<16x16xi32> loc(#loc70)
    %107 = tt.load %106 : tensor<16x16x!tt.ptr<f16>> loc(#loc71)
    %108 = arith.addf %95, %107 : tensor<16x16xf16> loc(#loc72)
    %109 = tt.expand_dims %22 {axis = 1 : i32} : tensor<16xi32> -> tensor<16x1xi32> loc(#loc73)
    %110 = tt.splat %arg4 : i32 -> tensor<16x1xi32> loc(#loc74)
    %111 = arith.addi %109, %110 : tensor<16x1xi32> loc(#loc74)
    %112 = tt.splat %arg3 : i32 -> tensor<16x1xi32> loc(#loc75)
    %113 = arith.muli %111, %112 : tensor<16x1xi32> loc(#loc75)
    %114 = tt.expand_dims %26 {axis = 0 : i32} : tensor<16xi32> -> tensor<1x16xi32> loc(#loc76)
    %115 = tt.broadcast %113 : tensor<16x1xi32> -> tensor<16x16xi32> loc(#loc76)
    %116 = tt.broadcast %114 : tensor<1x16xi32> -> tensor<16x16xi32> loc(#loc76)
    %117 = arith.addi %115, %116 : tensor<16x16xi32> loc(#loc76)
    %118 = arith.addi %117, %cst_1 : tensor<16x16xi32> loc(#loc77)
    %119 = tt.splat %arg0 : !tt.ptr<f16> -> tensor<16x16x!tt.ptr<f16>> loc(#loc78)
    %120 = tt.addptr %119, %118 : tensor<16x16x!tt.ptr<f16>>, tensor<16x16xi32> loc(#loc78)
    %121 = tt.load %120 : tensor<16x16x!tt.ptr<f16>> loc(#loc79)
    %122 = arith.addf %108, %121 : tensor<16x16xf16> loc(#loc80)
    %123 = tt.expand_dims %22 {axis = 1 : i32} : tensor<16xi32> -> tensor<16x1xi32> loc(#loc81)
    %124 = tt.splat %arg4 : i32 -> tensor<16x1xi32> loc(#loc82)
    %125 = arith.addi %123, %124 : tensor<16x1xi32> loc(#loc82)
    %126 = tt.splat %arg3 : i32 -> tensor<16x1xi32> loc(#loc83)
    %127 = arith.muli %125, %126 : tensor<16x1xi32> loc(#loc83)
    %128 = tt.expand_dims %26 {axis = 0 : i32} : tensor<16xi32> -> tensor<1x16xi32> loc(#loc84)
    %129 = tt.broadcast %127 : tensor<16x1xi32> -> tensor<16x16xi32> loc(#loc84)
    %130 = tt.broadcast %128 : tensor<1x16xi32> -> tensor<16x16xi32> loc(#loc84)
    %131 = arith.addi %129, %130 : tensor<16x16xi32> loc(#loc84)
    %132 = arith.addi %131, %cst_0 : tensor<16x16xi32> loc(#loc85)
    %133 = tt.splat %arg0 : !tt.ptr<f16> -> tensor<16x16x!tt.ptr<f16>> loc(#loc86)
    %134 = tt.addptr %133, %132 : tensor<16x16x!tt.ptr<f16>>, tensor<16x16xi32> loc(#loc86)
    %135 = tt.load %134 : tensor<16x16x!tt.ptr<f16>> loc(#loc87)
    %136 = arith.addf %122, %135 : tensor<16x16xf16> loc(#loc88)
    %137 = tt.expand_dims %22 {axis = 1 : i32} : tensor<16xi32> -> tensor<16x1xi32> loc(#loc89)
    %138 = tt.splat %arg4 : i32 -> tensor<16x1xi32> loc(#loc90)
    %139 = arith.addi %137, %138 : tensor<16x1xi32> loc(#loc90)
    %140 = tt.splat %arg3 : i32 -> tensor<16x1xi32> loc(#loc91)
    %141 = arith.muli %139, %140 : tensor<16x1xi32> loc(#loc91)
    %142 = tt.expand_dims %26 {axis = 0 : i32} : tensor<16xi32> -> tensor<1x16xi32> loc(#loc92)
    %143 = tt.broadcast %141 : tensor<16x1xi32> -> tensor<16x16xi32> loc(#loc92)
    %144 = tt.broadcast %142 : tensor<1x16xi32> -> tensor<16x16xi32> loc(#loc92)
    %145 = arith.addi %143, %144 : tensor<16x16xi32> loc(#loc92)
    %146 = arith.addi %145, %cst : tensor<16x16xi32> loc(#loc93)
    %147 = tt.splat %arg0 : !tt.ptr<f16> -> tensor<16x16x!tt.ptr<f16>> loc(#loc94)
    %148 = tt.addptr %147, %146 : tensor<16x16x!tt.ptr<f16>>, tensor<16x16xi32> loc(#loc94)
    %149 = tt.load %148 : tensor<16x16x!tt.ptr<f16>> loc(#loc95)
    %150 = arith.addf %136, %149 : tensor<16x16xf16> loc(#loc96)
    %151 = tt.expand_dims %14 {axis = 1 : i32} : tensor<16xi32> -> tensor<16x1xi32> loc(#loc97)
    %152 = tt.splat %arg4 : i32 -> tensor<16x1xi32> loc(#loc98)
    %153 = arith.addi %151, %152 : tensor<16x1xi32> loc(#loc98)
    %154 = tt.splat %arg3 : i32 -> tensor<16x1xi32> loc(#loc99)
    %155 = arith.muli %153, %154 : tensor<16x1xi32> loc(#loc99)
    %156 = tt.expand_dims %18 {axis = 0 : i32} : tensor<16xi32> -> tensor<1x16xi32> loc(#loc100)
    %157 = tt.broadcast %155 : tensor<16x1xi32> -> tensor<16x16xi32> loc(#loc100)
    %158 = tt.broadcast %156 : tensor<1x16xi32> -> tensor<16x16xi32> loc(#loc100)
    %159 = arith.addi %157, %158 : tensor<16x16xi32> loc(#loc100)
    %160 = tt.splat %arg4 : i32 -> tensor<16x16xi32> loc(#loc101)
    %161 = arith.addi %159, %160 : tensor<16x16xi32> loc(#loc101)
    %162 = tt.splat %arg1 : !tt.ptr<f16> -> tensor<16x16x!tt.ptr<f16>> loc(#loc102)
    %163 = tt.addptr %162, %161 : tensor<16x16x!tt.ptr<f16>>, tensor<16x16xi32> loc(#loc102)
    tt.store %163, %150 : tensor<16x16x!tt.ptr<f16>> loc(#loc103)
    tt.return loc(#loc104)
  } loc(#loc)
  tt.func private @cdiv__i32__1cconstexpr_16_(i32) -> i32 attributes {noinline = false} loc(#loc105)
  tt.func private @"zeros____0cconstexpr_(constexpr_16_, constexpr_16_)__1cconstexpr_fp16_"() -> tensor<16x16xf16> attributes {noinline = false} loc(#loc106)
} loc(#loc)
#loc1 = loc(unknown)
#loc2 = loc("2d9pt_naive.py":30:10)
#loc3 = loc("2d9pt_naive.py":31:28)
#loc4 = loc("2d9pt_naive.py":31:26)
#loc5 = loc("2d9pt_naive.py":31:31)
#loc6 = loc("/usr/local/lib/python3.8/dist-packages/triton/language/standard.py":44:22)
#loc7 = loc("/usr/local/lib/python3.8/dist-packages/triton/language/standard.py":44:28)
#loc8 = loc("2d9pt_naive.py":32:28)
#loc9 = loc("2d9pt_naive.py":32:26)
#loc10 = loc("2d9pt_naive.py":32:31)
#loc11 = loc("2d9pt_naive.py":34:19)
#loc12 = loc("2d9pt_naive.py":35:18)
#loc13 = loc("2d9pt_naive.py":39:22)
#loc14 = loc("2d9pt_naive.py":39:50)
#loc15 = loc("2d9pt_naive.py":39:37)
#loc16 = loc("2d9pt_naive.py":40:22)
#loc17 = loc("2d9pt_naive.py":40:50)
#loc18 = loc("2d9pt_naive.py":40:37)
#loc19 = loc("2d9pt_naive.py":42:22)
#loc20 = loc("2d9pt_naive.py":42:50)
#loc21 = loc("2d9pt_naive.py":42:37)
#loc22 = loc("2d9pt_naive.py":43:22)
#loc23 = loc("2d9pt_naive.py":43:50)
#loc24 = loc("2d9pt_naive.py":43:37)
#loc25 = loc("/usr/local/lib/python3.8/dist-packages/triton/language/standard.py":125:31)
#loc26 = loc("2d9pt_naive.py":47:22)
#loc27 = loc("2d9pt_naive.py":50:19)
#loc28 = loc("2d9pt_naive.py":50:36)
#loc29 = loc("2d9pt_naive.py":50:40)
#loc30 = loc("2d9pt_naive.py":50:56)
#loc31 = loc("2d9pt_naive.py":50:18)
#loc32 = loc("2d9pt_naive.py":51:21)
#loc33 = loc("2d9pt_naive.py":52:22)
#loc34 = loc("2d9pt_naive.py":54:20)
#loc35 = loc("2d9pt_naive.py":54:37)
#loc36 = loc("2d9pt_naive.py":54:40)
#loc37 = loc("2d9pt_naive.py":54:44)
#loc38 = loc("2d9pt_naive.py":54:60)
#loc39 = loc("2d9pt_naive.py":54:18)
#loc40 = loc("2d9pt_naive.py":55:21)
#loc41 = loc("2d9pt_naive.py":56:22)
#loc42 = loc("2d9pt_naive.py":58:20)
#loc43 = loc("2d9pt_naive.py":58:37)
#loc44 = loc("2d9pt_naive.py":58:40)
#loc45 = loc("2d9pt_naive.py":58:44)
#loc46 = loc("2d9pt_naive.py":58:60)
#loc47 = loc("2d9pt_naive.py":58:18)
#loc48 = loc("2d9pt_naive.py":59:21)
#loc49 = loc("2d9pt_naive.py":60:22)
#loc50 = loc("2d9pt_naive.py":62:20)
#loc51 = loc("2d9pt_naive.py":62:37)
#loc52 = loc("2d9pt_naive.py":62:40)
#loc53 = loc("2d9pt_naive.py":62:44)
#loc54 = loc("2d9pt_naive.py":62:60)
#loc55 = loc("2d9pt_naive.py":62:18)
#loc56 = loc("2d9pt_naive.py":63:21)
#loc57 = loc("2d9pt_naive.py":64:22)
#loc58 = loc("2d9pt_naive.py":66:20)
#loc59 = loc("2d9pt_naive.py":66:37)
#loc60 = loc("2d9pt_naive.py":66:40)
#loc61 = loc("2d9pt_naive.py":66:44)
#loc62 = loc("2d9pt_naive.py":66:60)
#loc63 = loc("2d9pt_naive.py":66:18)
#loc64 = loc("2d9pt_naive.py":67:21)
#loc65 = loc("2d9pt_naive.py":68:22)
#loc66 = loc("2d9pt_naive.py":71:20)
#loc67 = loc("2d9pt_naive.py":71:37)
#loc68 = loc("2d9pt_naive.py":71:40)
#loc69 = loc("2d9pt_naive.py":71:44)
#loc70 = loc("2d9pt_naive.py":71:18)
#loc71 = loc("2d9pt_naive.py":72:21)
#loc72 = loc("2d9pt_naive.py":73:22)
#loc73 = loc("2d9pt_naive.py":75:20)
#loc74 = loc("2d9pt_naive.py":75:37)
#loc75 = loc("2d9pt_naive.py":75:40)
#loc76 = loc("2d9pt_naive.py":75:44)
#loc77 = loc("2d9pt_naive.py":75:62)
#loc78 = loc("2d9pt_naive.py":75:18)
#loc79 = loc("2d9pt_naive.py":76:21)
#loc80 = loc("2d9pt_naive.py":77:22)
#loc81 = loc("2d9pt_naive.py":79:20)
#loc82 = loc("2d9pt_naive.py":79:37)
#loc83 = loc("2d9pt_naive.py":79:40)
#loc84 = loc("2d9pt_naive.py":79:44)
#loc85 = loc("2d9pt_naive.py":79:62)
#loc86 = loc("2d9pt_naive.py":79:18)
#loc87 = loc("2d9pt_naive.py":80:21)
#loc88 = loc("2d9pt_naive.py":81:22)
#loc89 = loc("2d9pt_naive.py":83:20)
#loc90 = loc("2d9pt_naive.py":83:37)
#loc91 = loc("2d9pt_naive.py":83:40)
#loc92 = loc("2d9pt_naive.py":83:44)
#loc93 = loc("2d9pt_naive.py":83:62)
#loc94 = loc("2d9pt_naive.py":83:18)
#loc95 = loc("2d9pt_naive.py":84:21)
#loc96 = loc("2d9pt_naive.py":85:22)
#loc97 = loc("2d9pt_naive.py":87:19)
#loc98 = loc("2d9pt_naive.py":87:35)
#loc99 = loc("2d9pt_naive.py":87:38)
#loc100 = loc("2d9pt_naive.py":87:42)
#loc101 = loc("2d9pt_naive.py":87:60)
#loc102 = loc("2d9pt_naive.py":87:18)
#loc103 = loc("2d9pt_naive.py":88:21)
#loc104 = loc("2d9pt_naive.py":88:4)
#loc105 = loc("/usr/local/lib/python3.8/dist-packages/triton/language/standard.py":35:0)
#loc106 = loc("/usr/local/lib/python3.8/dist-packages/triton/language/standard.py":116:0)
#loc107 = loc(callsite(#loc1 at #loc5))
#loc108 = loc(callsite(#loc6 at #loc5))
#loc109 = loc(callsite(#loc7 at #loc5))
#loc110 = loc(callsite(#loc1 at #loc10))
#loc111 = loc(callsite(#loc6 at #loc10))
#loc112 = loc(callsite(#loc7 at #loc10))
#loc113 = loc(callsite(#loc25 at #loc26))


// -----// IR Dump Before TritonRewriteTensorPointer (triton-rewrite-tensor-pointer) ('builtin.module' operation) //----- //
#loc = loc("2d9pt_naive.py":18:0)
module {
  tt.func public @stencil_kernel(%arg0: !tt.ptr<f16> {tt.divisibility = 16 : i32} loc("2d9pt_naive.py":18:0), %arg1: !tt.ptr<f16> {tt.divisibility = 16 : i32} loc("2d9pt_naive.py":18:0), %arg2: i32 loc("2d9pt_naive.py":18:0), %arg3: i32 loc("2d9pt_naive.py":18:0), %arg4: i32 loc("2d9pt_naive.py":18:0)) attributes {noinline = false} {
    %cst = arith.constant dense<0.000000e+00> : tensor<16x16xf16> loc(#loc1)
    %c15_i32 = arith.constant 15 : i32 loc(#loc1)
    %cst_0 = arith.constant dense<4> : tensor<16x16xi32> loc(#loc1)
    %cst_1 = arith.constant dense<3> : tensor<16x16xi32> loc(#loc1)
    %cst_2 = arith.constant dense<1> : tensor<16x16xi32> loc(#loc1)
    %cst_3 = arith.constant dense<4> : tensor<16x1xi32> loc(#loc1)
    %cst_4 = arith.constant dense<3> : tensor<16x1xi32> loc(#loc1)
    %cst_5 = arith.constant dense<2> : tensor<16x1xi32> loc(#loc1)
    %cst_6 = arith.constant dense<1> : tensor<16x1xi32> loc(#loc1)
    %c16_i32 = arith.constant 16 : i32 loc(#loc1)
    %c2_i32 = arith.constant 2 : i32 loc(#loc1)
    %0 = tt.get_program_id x : i32 loc(#loc2)
    %1 = arith.muli %arg4, %c2_i32 : i32 loc(#loc3)
    %2 = arith.subi %arg2, %1 : i32 loc(#loc4)
    %3 = arith.addi %2, %c15_i32 : i32 loc(#loc100)
    %4 = arith.divsi %3, %c16_i32 : i32 loc(#loc101)
    %5 = arith.divsi %0, %4 : i32 loc(#loc8)
    %6 = arith.remsi %0, %4 : i32 loc(#loc9)
    %7 = arith.muli %5, %c16_i32 : i32 loc(#loc10)
    %8 = tt.make_range {end = 16 : i32, start = 0 : i32} : tensor<16xi32> loc(#loc11)
    %9 = tt.splat %7 : i32 -> tensor<16xi32> loc(#loc12)
    %10 = arith.addi %9, %8 : tensor<16xi32> loc(#loc12)
    %11 = arith.muli %6, %c16_i32 : i32 loc(#loc13)
    %12 = tt.make_range {end = 16 : i32, start = 0 : i32} : tensor<16xi32> loc(#loc14)
    %13 = tt.splat %11 : i32 -> tensor<16xi32> loc(#loc15)
    %14 = arith.addi %13, %12 : tensor<16xi32> loc(#loc15)
    %15 = arith.muli %5, %c16_i32 : i32 loc(#loc16)
    %16 = tt.make_range {end = 16 : i32, start = 0 : i32} : tensor<16xi32> loc(#loc17)
    %17 = tt.splat %15 : i32 -> tensor<16xi32> loc(#loc18)
    %18 = arith.addi %17, %16 : tensor<16xi32> loc(#loc18)
    %19 = arith.muli %6, %c16_i32 : i32 loc(#loc19)
    %20 = tt.make_range {end = 16 : i32, start = 0 : i32} : tensor<16xi32> loc(#loc20)
    %21 = tt.splat %19 : i32 -> tensor<16xi32> loc(#loc21)
    %22 = arith.addi %21, %20 : tensor<16xi32> loc(#loc21)
    %23 = tt.expand_dims %18 {axis = 1 : i32} : tensor<16xi32> -> tensor<16x1xi32> loc(#loc22)
    %24 = tt.splat %arg3 : i32 -> tensor<16x1xi32> loc(#loc23)
    %25 = arith.muli %23, %24 : tensor<16x1xi32> loc(#loc23)
    %26 = tt.expand_dims %22 {axis = 0 : i32} : tensor<16xi32> -> tensor<1x16xi32> loc(#loc24)
    %27 = tt.broadcast %25 : tensor<16x1xi32> -> tensor<16x16xi32> loc(#loc24)
    %28 = tt.broadcast %26 : tensor<1x16xi32> -> tensor<16x16xi32> loc(#loc24)
    %29 = arith.addi %27, %28 : tensor<16x16xi32> loc(#loc24)
    %30 = tt.splat %arg4 : i32 -> tensor<16x16xi32> loc(#loc25)
    %31 = arith.addi %29, %30 : tensor<16x16xi32> loc(#loc25)
    %32 = tt.splat %arg0 : !tt.ptr<f16> -> tensor<16x16x!tt.ptr<f16>> loc(#loc26)
    %33 = tt.addptr %32, %31 : tensor<16x16x!tt.ptr<f16>>, tensor<16x16xi32> loc(#loc26)
    %34 = tt.load %33 : tensor<16x16x!tt.ptr<f16>> loc(#loc27)
    %35 = arith.addf %34, %cst : tensor<16x16xf16> loc(#loc28)
    %36 = tt.expand_dims %18 {axis = 1 : i32} : tensor<16xi32> -> tensor<16x1xi32> loc(#loc29)
    %37 = arith.addi %36, %cst_6 : tensor<16x1xi32> loc(#loc30)
    %38 = tt.splat %arg3 : i32 -> tensor<16x1xi32> loc(#loc31)
    %39 = arith.muli %37, %38 : tensor<16x1xi32> loc(#loc31)
    %40 = tt.expand_dims %22 {axis = 0 : i32} : tensor<16xi32> -> tensor<1x16xi32> loc(#loc32)
    %41 = tt.broadcast %39 : tensor<16x1xi32> -> tensor<16x16xi32> loc(#loc32)
    %42 = tt.broadcast %40 : tensor<1x16xi32> -> tensor<16x16xi32> loc(#loc32)
    %43 = arith.addi %41, %42 : tensor<16x16xi32> loc(#loc32)
    %44 = tt.splat %arg4 : i32 -> tensor<16x16xi32> loc(#loc33)
    %45 = arith.addi %43, %44 : tensor<16x16xi32> loc(#loc33)
    %46 = tt.splat %arg0 : !tt.ptr<f16> -> tensor<16x16x!tt.ptr<f16>> loc(#loc34)
    %47 = tt.addptr %46, %45 : tensor<16x16x!tt.ptr<f16>>, tensor<16x16xi32> loc(#loc34)
    %48 = tt.load %47 : tensor<16x16x!tt.ptr<f16>> loc(#loc35)
    %49 = arith.addf %35, %48 : tensor<16x16xf16> loc(#loc36)
    %50 = tt.expand_dims %18 {axis = 1 : i32} : tensor<16xi32> -> tensor<16x1xi32> loc(#loc37)
    %51 = arith.addi %50, %cst_5 : tensor<16x1xi32> loc(#loc38)
    %52 = tt.splat %arg3 : i32 -> tensor<16x1xi32> loc(#loc39)
    %53 = arith.muli %51, %52 : tensor<16x1xi32> loc(#loc39)
    %54 = tt.expand_dims %22 {axis = 0 : i32} : tensor<16xi32> -> tensor<1x16xi32> loc(#loc40)
    %55 = tt.broadcast %53 : tensor<16x1xi32> -> tensor<16x16xi32> loc(#loc40)
    %56 = tt.broadcast %54 : tensor<1x16xi32> -> tensor<16x16xi32> loc(#loc40)
    %57 = arith.addi %55, %56 : tensor<16x16xi32> loc(#loc40)
    %58 = tt.splat %arg4 : i32 -> tensor<16x16xi32> loc(#loc41)
    %59 = arith.addi %57, %58 : tensor<16x16xi32> loc(#loc41)
    %60 = tt.splat %arg0 : !tt.ptr<f16> -> tensor<16x16x!tt.ptr<f16>> loc(#loc42)
    %61 = tt.addptr %60, %59 : tensor<16x16x!tt.ptr<f16>>, tensor<16x16xi32> loc(#loc42)
    %62 = tt.load %61 : tensor<16x16x!tt.ptr<f16>> loc(#loc43)
    %63 = arith.addf %49, %62 : tensor<16x16xf16> loc(#loc44)
    %64 = tt.expand_dims %18 {axis = 1 : i32} : tensor<16xi32> -> tensor<16x1xi32> loc(#loc45)
    %65 = arith.addi %64, %cst_4 : tensor<16x1xi32> loc(#loc46)
    %66 = tt.splat %arg3 : i32 -> tensor<16x1xi32> loc(#loc47)
    %67 = arith.muli %65, %66 : tensor<16x1xi32> loc(#loc47)
    %68 = tt.expand_dims %22 {axis = 0 : i32} : tensor<16xi32> -> tensor<1x16xi32> loc(#loc48)
    %69 = tt.broadcast %67 : tensor<16x1xi32> -> tensor<16x16xi32> loc(#loc48)
    %70 = tt.broadcast %68 : tensor<1x16xi32> -> tensor<16x16xi32> loc(#loc48)
    %71 = arith.addi %69, %70 : tensor<16x16xi32> loc(#loc48)
    %72 = tt.splat %arg4 : i32 -> tensor<16x16xi32> loc(#loc49)
    %73 = arith.addi %71, %72 : tensor<16x16xi32> loc(#loc49)
    %74 = tt.splat %arg0 : !tt.ptr<f16> -> tensor<16x16x!tt.ptr<f16>> loc(#loc50)
    %75 = tt.addptr %74, %73 : tensor<16x16x!tt.ptr<f16>>, tensor<16x16xi32> loc(#loc50)
    %76 = tt.load %75 : tensor<16x16x!tt.ptr<f16>> loc(#loc51)
    %77 = arith.addf %63, %76 : tensor<16x16xf16> loc(#loc52)
    %78 = tt.expand_dims %18 {axis = 1 : i32} : tensor<16xi32> -> tensor<16x1xi32> loc(#loc53)
    %79 = arith.addi %78, %cst_3 : tensor<16x1xi32> loc(#loc54)
    %80 = tt.splat %arg3 : i32 -> tensor<16x1xi32> loc(#loc55)
    %81 = arith.muli %79, %80 : tensor<16x1xi32> loc(#loc55)
    %82 = tt.expand_dims %22 {axis = 0 : i32} : tensor<16xi32> -> tensor<1x16xi32> loc(#loc56)
    %83 = tt.broadcast %81 : tensor<16x1xi32> -> tensor<16x16xi32> loc(#loc56)
    %84 = tt.broadcast %82 : tensor<1x16xi32> -> tensor<16x16xi32> loc(#loc56)
    %85 = arith.addi %83, %84 : tensor<16x16xi32> loc(#loc56)
    %86 = tt.splat %arg4 : i32 -> tensor<16x16xi32> loc(#loc57)
    %87 = arith.addi %85, %86 : tensor<16x16xi32> loc(#loc57)
    %88 = tt.splat %arg0 : !tt.ptr<f16> -> tensor<16x16x!tt.ptr<f16>> loc(#loc58)
    %89 = tt.addptr %88, %87 : tensor<16x16x!tt.ptr<f16>>, tensor<16x16xi32> loc(#loc58)
    %90 = tt.load %89 : tensor<16x16x!tt.ptr<f16>> loc(#loc59)
    %91 = arith.addf %77, %90 : tensor<16x16xf16> loc(#loc60)
    %92 = tt.expand_dims %18 {axis = 1 : i32} : tensor<16xi32> -> tensor<16x1xi32> loc(#loc61)
    %93 = tt.splat %arg4 : i32 -> tensor<16x1xi32> loc(#loc62)
    %94 = arith.addi %92, %93 : tensor<16x1xi32> loc(#loc62)
    %95 = tt.splat %arg3 : i32 -> tensor<16x1xi32> loc(#loc63)
    %96 = arith.muli %94, %95 : tensor<16x1xi32> loc(#loc63)
    %97 = tt.expand_dims %22 {axis = 0 : i32} : tensor<16xi32> -> tensor<1x16xi32> loc(#loc64)
    %98 = tt.broadcast %96 : tensor<16x1xi32> -> tensor<16x16xi32> loc(#loc64)
    %99 = tt.broadcast %97 : tensor<1x16xi32> -> tensor<16x16xi32> loc(#loc64)
    %100 = arith.addi %98, %99 : tensor<16x16xi32> loc(#loc64)
    %101 = tt.splat %arg0 : !tt.ptr<f16> -> tensor<16x16x!tt.ptr<f16>> loc(#loc65)
    %102 = tt.addptr %101, %100 : tensor<16x16x!tt.ptr<f16>>, tensor<16x16xi32> loc(#loc65)
    %103 = tt.load %102 : tensor<16x16x!tt.ptr<f16>> loc(#loc66)
    %104 = arith.addf %91, %103 : tensor<16x16xf16> loc(#loc67)
    %105 = tt.expand_dims %18 {axis = 1 : i32} : tensor<16xi32> -> tensor<16x1xi32> loc(#loc68)
    %106 = tt.splat %arg4 : i32 -> tensor<16x1xi32> loc(#loc69)
    %107 = arith.addi %105, %106 : tensor<16x1xi32> loc(#loc69)
    %108 = tt.splat %arg3 : i32 -> tensor<16x1xi32> loc(#loc70)
    %109 = arith.muli %107, %108 : tensor<16x1xi32> loc(#loc70)
    %110 = tt.expand_dims %22 {axis = 0 : i32} : tensor<16xi32> -> tensor<1x16xi32> loc(#loc71)
    %111 = tt.broadcast %109 : tensor<16x1xi32> -> tensor<16x16xi32> loc(#loc71)
    %112 = tt.broadcast %110 : tensor<1x16xi32> -> tensor<16x16xi32> loc(#loc71)
    %113 = arith.addi %111, %112 : tensor<16x16xi32> loc(#loc71)
    %114 = arith.addi %113, %cst_2 : tensor<16x16xi32> loc(#loc72)
    %115 = tt.splat %arg0 : !tt.ptr<f16> -> tensor<16x16x!tt.ptr<f16>> loc(#loc73)
    %116 = tt.addptr %115, %114 : tensor<16x16x!tt.ptr<f16>>, tensor<16x16xi32> loc(#loc73)
    %117 = tt.load %116 : tensor<16x16x!tt.ptr<f16>> loc(#loc74)
    %118 = arith.addf %104, %117 : tensor<16x16xf16> loc(#loc75)
    %119 = tt.expand_dims %18 {axis = 1 : i32} : tensor<16xi32> -> tensor<16x1xi32> loc(#loc76)
    %120 = tt.splat %arg4 : i32 -> tensor<16x1xi32> loc(#loc77)
    %121 = arith.addi %119, %120 : tensor<16x1xi32> loc(#loc77)
    %122 = tt.splat %arg3 : i32 -> tensor<16x1xi32> loc(#loc78)
    %123 = arith.muli %121, %122 : tensor<16x1xi32> loc(#loc78)
    %124 = tt.expand_dims %22 {axis = 0 : i32} : tensor<16xi32> -> tensor<1x16xi32> loc(#loc79)
    %125 = tt.broadcast %123 : tensor<16x1xi32> -> tensor<16x16xi32> loc(#loc79)
    %126 = tt.broadcast %124 : tensor<1x16xi32> -> tensor<16x16xi32> loc(#loc79)
    %127 = arith.addi %125, %126 : tensor<16x16xi32> loc(#loc79)
    %128 = arith.addi %127, %cst_1 : tensor<16x16xi32> loc(#loc80)
    %129 = tt.splat %arg0 : !tt.ptr<f16> -> tensor<16x16x!tt.ptr<f16>> loc(#loc81)
    %130 = tt.addptr %129, %128 : tensor<16x16x!tt.ptr<f16>>, tensor<16x16xi32> loc(#loc81)
    %131 = tt.load %130 : tensor<16x16x!tt.ptr<f16>> loc(#loc82)
    %132 = arith.addf %118, %131 : tensor<16x16xf16> loc(#loc83)
    %133 = tt.expand_dims %18 {axis = 1 : i32} : tensor<16xi32> -> tensor<16x1xi32> loc(#loc84)
    %134 = tt.splat %arg4 : i32 -> tensor<16x1xi32> loc(#loc85)
    %135 = arith.addi %133, %134 : tensor<16x1xi32> loc(#loc85)
    %136 = tt.splat %arg3 : i32 -> tensor<16x1xi32> loc(#loc86)
    %137 = arith.muli %135, %136 : tensor<16x1xi32> loc(#loc86)
    %138 = tt.expand_dims %22 {axis = 0 : i32} : tensor<16xi32> -> tensor<1x16xi32> loc(#loc87)
    %139 = tt.broadcast %137 : tensor<16x1xi32> -> tensor<16x16xi32> loc(#loc87)
    %140 = tt.broadcast %138 : tensor<1x16xi32> -> tensor<16x16xi32> loc(#loc87)
    %141 = arith.addi %139, %140 : tensor<16x16xi32> loc(#loc87)
    %142 = arith.addi %141, %cst_0 : tensor<16x16xi32> loc(#loc88)
    %143 = tt.splat %arg0 : !tt.ptr<f16> -> tensor<16x16x!tt.ptr<f16>> loc(#loc89)
    %144 = tt.addptr %143, %142 : tensor<16x16x!tt.ptr<f16>>, tensor<16x16xi32> loc(#loc89)
    %145 = tt.load %144 : tensor<16x16x!tt.ptr<f16>> loc(#loc90)
    %146 = arith.addf %132, %145 : tensor<16x16xf16> loc(#loc91)
    %147 = tt.expand_dims %10 {axis = 1 : i32} : tensor<16xi32> -> tensor<16x1xi32> loc(#loc92)
    %148 = tt.splat %arg4 : i32 -> tensor<16x1xi32> loc(#loc93)
    %149 = arith.addi %147, %148 : tensor<16x1xi32> loc(#loc93)
    %150 = tt.splat %arg3 : i32 -> tensor<16x1xi32> loc(#loc94)
    %151 = arith.muli %149, %150 : tensor<16x1xi32> loc(#loc94)
    %152 = tt.expand_dims %14 {axis = 0 : i32} : tensor<16xi32> -> tensor<1x16xi32> loc(#loc95)
    %153 = tt.broadcast %151 : tensor<16x1xi32> -> tensor<16x16xi32> loc(#loc95)
    %154 = tt.broadcast %152 : tensor<1x16xi32> -> tensor<16x16xi32> loc(#loc95)
    %155 = arith.addi %153, %154 : tensor<16x16xi32> loc(#loc95)
    %156 = tt.splat %arg4 : i32 -> tensor<16x16xi32> loc(#loc96)
    %157 = arith.addi %155, %156 : tensor<16x16xi32> loc(#loc96)
    %158 = tt.splat %arg1 : !tt.ptr<f16> -> tensor<16x16x!tt.ptr<f16>> loc(#loc97)
    %159 = tt.addptr %158, %157 : tensor<16x16x!tt.ptr<f16>>, tensor<16x16xi32> loc(#loc97)
    tt.store %159, %146 : tensor<16x16x!tt.ptr<f16>> loc(#loc98)
    tt.return loc(#loc99)
  } loc(#loc)
} loc(#loc)
#loc1 = loc(unknown)
#loc2 = loc("2d9pt_naive.py":30:10)
#loc3 = loc("2d9pt_naive.py":31:28)
#loc4 = loc("2d9pt_naive.py":31:26)
#loc5 = loc("/usr/local/lib/python3.8/dist-packages/triton/language/standard.py":44:22)
#loc6 = loc("2d9pt_naive.py":31:31)
#loc7 = loc("/usr/local/lib/python3.8/dist-packages/triton/language/standard.py":44:28)
#loc8 = loc("2d9pt_naive.py":34:19)
#loc9 = loc("2d9pt_naive.py":35:18)
#loc10 = loc("2d9pt_naive.py":39:22)
#loc11 = loc("2d9pt_naive.py":39:50)
#loc12 = loc("2d9pt_naive.py":39:37)
#loc13 = loc("2d9pt_naive.py":40:22)
#loc14 = loc("2d9pt_naive.py":40:50)
#loc15 = loc("2d9pt_naive.py":40:37)
#loc16 = loc("2d9pt_naive.py":42:22)
#loc17 = loc("2d9pt_naive.py":42:50)
#loc18 = loc("2d9pt_naive.py":42:37)
#loc19 = loc("2d9pt_naive.py":43:22)
#loc20 = loc("2d9pt_naive.py":43:50)
#loc21 = loc("2d9pt_naive.py":43:37)
#loc22 = loc("2d9pt_naive.py":50:19)
#loc23 = loc("2d9pt_naive.py":50:36)
#loc24 = loc("2d9pt_naive.py":50:40)
#loc25 = loc("2d9pt_naive.py":50:56)
#loc26 = loc("2d9pt_naive.py":50:18)
#loc27 = loc("2d9pt_naive.py":51:21)
#loc28 = loc("2d9pt_naive.py":52:22)
#loc29 = loc("2d9pt_naive.py":54:20)
#loc30 = loc("2d9pt_naive.py":54:37)
#loc31 = loc("2d9pt_naive.py":54:40)
#loc32 = loc("2d9pt_naive.py":54:44)
#loc33 = loc("2d9pt_naive.py":54:60)
#loc34 = loc("2d9pt_naive.py":54:18)
#loc35 = loc("2d9pt_naive.py":55:21)
#loc36 = loc("2d9pt_naive.py":56:22)
#loc37 = loc("2d9pt_naive.py":58:20)
#loc38 = loc("2d9pt_naive.py":58:37)
#loc39 = loc("2d9pt_naive.py":58:40)
#loc40 = loc("2d9pt_naive.py":58:44)
#loc41 = loc("2d9pt_naive.py":58:60)
#loc42 = loc("2d9pt_naive.py":58:18)
#loc43 = loc("2d9pt_naive.py":59:21)
#loc44 = loc("2d9pt_naive.py":60:22)
#loc45 = loc("2d9pt_naive.py":62:20)
#loc46 = loc("2d9pt_naive.py":62:37)
#loc47 = loc("2d9pt_naive.py":62:40)
#loc48 = loc("2d9pt_naive.py":62:44)
#loc49 = loc("2d9pt_naive.py":62:60)
#loc50 = loc("2d9pt_naive.py":62:18)
#loc51 = loc("2d9pt_naive.py":63:21)
#loc52 = loc("2d9pt_naive.py":64:22)
#loc53 = loc("2d9pt_naive.py":66:20)
#loc54 = loc("2d9pt_naive.py":66:37)
#loc55 = loc("2d9pt_naive.py":66:40)
#loc56 = loc("2d9pt_naive.py":66:44)
#loc57 = loc("2d9pt_naive.py":66:60)
#loc58 = loc("2d9pt_naive.py":66:18)
#loc59 = loc("2d9pt_naive.py":67:21)
#loc60 = loc("2d9pt_naive.py":68:22)
#loc61 = loc("2d9pt_naive.py":71:20)
#loc62 = loc("2d9pt_naive.py":71:37)
#loc63 = loc("2d9pt_naive.py":71:40)
#loc64 = loc("2d9pt_naive.py":71:44)
#loc65 = loc("2d9pt_naive.py":71:18)
#loc66 = loc("2d9pt_naive.py":72:21)
#loc67 = loc("2d9pt_naive.py":73:22)
#loc68 = loc("2d9pt_naive.py":75:20)
#loc69 = loc("2d9pt_naive.py":75:37)
#loc70 = loc("2d9pt_naive.py":75:40)
#loc71 = loc("2d9pt_naive.py":75:44)
#loc72 = loc("2d9pt_naive.py":75:62)
#loc73 = loc("2d9pt_naive.py":75:18)
#loc74 = loc("2d9pt_naive.py":76:21)
#loc75 = loc("2d9pt_naive.py":77:22)
#loc76 = loc("2d9pt_naive.py":79:20)
#loc77 = loc("2d9pt_naive.py":79:37)
#loc78 = loc("2d9pt_naive.py":79:40)
#loc79 = loc("2d9pt_naive.py":79:44)
#loc80 = loc("2d9pt_naive.py":79:62)
#loc81 = loc("2d9pt_naive.py":79:18)
#loc82 = loc("2d9pt_naive.py":80:21)
#loc83 = loc("2d9pt_naive.py":81:22)
#loc84 = loc("2d9pt_naive.py":83:20)
#loc85 = loc("2d9pt_naive.py":83:37)
#loc86 = loc("2d9pt_naive.py":83:40)
#loc87 = loc("2d9pt_naive.py":83:44)
#loc88 = loc("2d9pt_naive.py":83:62)
#loc89 = loc("2d9pt_naive.py":83:18)
#loc90 = loc("2d9pt_naive.py":84:21)
#loc91 = loc("2d9pt_naive.py":85:22)
#loc92 = loc("2d9pt_naive.py":87:19)
#loc93 = loc("2d9pt_naive.py":87:35)
#loc94 = loc("2d9pt_naive.py":87:38)
#loc95 = loc("2d9pt_naive.py":87:42)
#loc96 = loc("2d9pt_naive.py":87:60)
#loc97 = loc("2d9pt_naive.py":87:18)
#loc98 = loc("2d9pt_naive.py":88:21)
#loc99 = loc("2d9pt_naive.py":88:4)
#loc100 = loc(callsite(#loc5 at #loc6))
#loc101 = loc(callsite(#loc7 at #loc6))


// -----// IR Dump Before TritonCombineOps (triton-combine) ('builtin.module' operation) //----- //
#loc = loc("2d9pt_naive.py":18:0)
module {
  tt.func public @stencil_kernel(%arg0: !tt.ptr<f16> {tt.divisibility = 16 : i32} loc("2d9pt_naive.py":18:0), %arg1: !tt.ptr<f16> {tt.divisibility = 16 : i32} loc("2d9pt_naive.py":18:0), %arg2: i32 loc("2d9pt_naive.py":18:0), %arg3: i32 loc("2d9pt_naive.py":18:0), %arg4: i32 loc("2d9pt_naive.py":18:0)) attributes {noinline = false} {
    %cst = arith.constant dense<0.000000e+00> : tensor<16x16xf16> loc(#loc1)
    %c15_i32 = arith.constant 15 : i32 loc(#loc1)
    %cst_0 = arith.constant dense<4> : tensor<16x16xi32> loc(#loc1)
    %cst_1 = arith.constant dense<3> : tensor<16x16xi32> loc(#loc1)
    %cst_2 = arith.constant dense<1> : tensor<16x16xi32> loc(#loc1)
    %cst_3 = arith.constant dense<4> : tensor<16x1xi32> loc(#loc1)
    %cst_4 = arith.constant dense<3> : tensor<16x1xi32> loc(#loc1)
    %cst_5 = arith.constant dense<2> : tensor<16x1xi32> loc(#loc1)
    %cst_6 = arith.constant dense<1> : tensor<16x1xi32> loc(#loc1)
    %c16_i32 = arith.constant 16 : i32 loc(#loc1)
    %c2_i32 = arith.constant 2 : i32 loc(#loc1)
    %0 = tt.get_program_id x : i32 loc(#loc2)
    %1 = arith.muli %arg4, %c2_i32 : i32 loc(#loc3)
    %2 = arith.subi %arg2, %1 : i32 loc(#loc4)
    %3 = arith.addi %2, %c15_i32 : i32 loc(#loc100)
    %4 = arith.divsi %3, %c16_i32 : i32 loc(#loc101)
    %5 = arith.divsi %0, %4 : i32 loc(#loc8)
    %6 = arith.remsi %0, %4 : i32 loc(#loc9)
    %7 = arith.muli %5, %c16_i32 : i32 loc(#loc10)
    %8 = tt.make_range {end = 16 : i32, start = 0 : i32} : tensor<16xi32> loc(#loc11)
    %9 = tt.splat %7 : i32 -> tensor<16xi32> loc(#loc12)
    %10 = arith.addi %9, %8 : tensor<16xi32> loc(#loc12)
    %11 = arith.muli %6, %c16_i32 : i32 loc(#loc13)
    %12 = tt.make_range {end = 16 : i32, start = 0 : i32} : tensor<16xi32> loc(#loc14)
    %13 = tt.splat %11 : i32 -> tensor<16xi32> loc(#loc15)
    %14 = arith.addi %13, %12 : tensor<16xi32> loc(#loc15)
    %15 = arith.muli %5, %c16_i32 : i32 loc(#loc16)
    %16 = tt.make_range {end = 16 : i32, start = 0 : i32} : tensor<16xi32> loc(#loc17)
    %17 = tt.splat %15 : i32 -> tensor<16xi32> loc(#loc18)
    %18 = arith.addi %17, %16 : tensor<16xi32> loc(#loc18)
    %19 = arith.muli %6, %c16_i32 : i32 loc(#loc19)
    %20 = tt.make_range {end = 16 : i32, start = 0 : i32} : tensor<16xi32> loc(#loc20)
    %21 = tt.splat %19 : i32 -> tensor<16xi32> loc(#loc21)
    %22 = arith.addi %21, %20 : tensor<16xi32> loc(#loc21)
    %23 = tt.expand_dims %18 {axis = 1 : i32} : tensor<16xi32> -> tensor<16x1xi32> loc(#loc22)
    %24 = tt.splat %arg3 : i32 -> tensor<16x1xi32> loc(#loc23)
    %25 = arith.muli %23, %24 : tensor<16x1xi32> loc(#loc23)
    %26 = tt.expand_dims %22 {axis = 0 : i32} : tensor<16xi32> -> tensor<1x16xi32> loc(#loc24)
    %27 = tt.broadcast %25 : tensor<16x1xi32> -> tensor<16x16xi32> loc(#loc24)
    %28 = tt.broadcast %26 : tensor<1x16xi32> -> tensor<16x16xi32> loc(#loc24)
    %29 = arith.addi %27, %28 : tensor<16x16xi32> loc(#loc24)
    %30 = tt.splat %arg4 : i32 -> tensor<16x16xi32> loc(#loc25)
    %31 = arith.addi %29, %30 : tensor<16x16xi32> loc(#loc25)
    %32 = tt.splat %arg0 : !tt.ptr<f16> -> tensor<16x16x!tt.ptr<f16>> loc(#loc26)
    %33 = tt.addptr %32, %31 : tensor<16x16x!tt.ptr<f16>>, tensor<16x16xi32> loc(#loc26)
    %34 = tt.load %33 : tensor<16x16x!tt.ptr<f16>> loc(#loc27)
    %35 = arith.addf %34, %cst : tensor<16x16xf16> loc(#loc28)
    %36 = tt.expand_dims %18 {axis = 1 : i32} : tensor<16xi32> -> tensor<16x1xi32> loc(#loc29)
    %37 = arith.addi %36, %cst_6 : tensor<16x1xi32> loc(#loc30)
    %38 = tt.splat %arg3 : i32 -> tensor<16x1xi32> loc(#loc31)
    %39 = arith.muli %37, %38 : tensor<16x1xi32> loc(#loc31)
    %40 = tt.expand_dims %22 {axis = 0 : i32} : tensor<16xi32> -> tensor<1x16xi32> loc(#loc32)
    %41 = tt.broadcast %39 : tensor<16x1xi32> -> tensor<16x16xi32> loc(#loc32)
    %42 = tt.broadcast %40 : tensor<1x16xi32> -> tensor<16x16xi32> loc(#loc32)
    %43 = arith.addi %41, %42 : tensor<16x16xi32> loc(#loc32)
    %44 = tt.splat %arg4 : i32 -> tensor<16x16xi32> loc(#loc33)
    %45 = arith.addi %43, %44 : tensor<16x16xi32> loc(#loc33)
    %46 = tt.splat %arg0 : !tt.ptr<f16> -> tensor<16x16x!tt.ptr<f16>> loc(#loc34)
    %47 = tt.addptr %46, %45 : tensor<16x16x!tt.ptr<f16>>, tensor<16x16xi32> loc(#loc34)
    %48 = tt.load %47 : tensor<16x16x!tt.ptr<f16>> loc(#loc35)
    %49 = arith.addf %35, %48 : tensor<16x16xf16> loc(#loc36)
    %50 = tt.expand_dims %18 {axis = 1 : i32} : tensor<16xi32> -> tensor<16x1xi32> loc(#loc37)
    %51 = arith.addi %50, %cst_5 : tensor<16x1xi32> loc(#loc38)
    %52 = tt.splat %arg3 : i32 -> tensor<16x1xi32> loc(#loc39)
    %53 = arith.muli %51, %52 : tensor<16x1xi32> loc(#loc39)
    %54 = tt.expand_dims %22 {axis = 0 : i32} : tensor<16xi32> -> tensor<1x16xi32> loc(#loc40)
    %55 = tt.broadcast %53 : tensor<16x1xi32> -> tensor<16x16xi32> loc(#loc40)
    %56 = tt.broadcast %54 : tensor<1x16xi32> -> tensor<16x16xi32> loc(#loc40)
    %57 = arith.addi %55, %56 : tensor<16x16xi32> loc(#loc40)
    %58 = tt.splat %arg4 : i32 -> tensor<16x16xi32> loc(#loc41)
    %59 = arith.addi %57, %58 : tensor<16x16xi32> loc(#loc41)
    %60 = tt.splat %arg0 : !tt.ptr<f16> -> tensor<16x16x!tt.ptr<f16>> loc(#loc42)
    %61 = tt.addptr %60, %59 : tensor<16x16x!tt.ptr<f16>>, tensor<16x16xi32> loc(#loc42)
    %62 = tt.load %61 : tensor<16x16x!tt.ptr<f16>> loc(#loc43)
    %63 = arith.addf %49, %62 : tensor<16x16xf16> loc(#loc44)
    %64 = tt.expand_dims %18 {axis = 1 : i32} : tensor<16xi32> -> tensor<16x1xi32> loc(#loc45)
    %65 = arith.addi %64, %cst_4 : tensor<16x1xi32> loc(#loc46)
    %66 = tt.splat %arg3 : i32 -> tensor<16x1xi32> loc(#loc47)
    %67 = arith.muli %65, %66 : tensor<16x1xi32> loc(#loc47)
    %68 = tt.expand_dims %22 {axis = 0 : i32} : tensor<16xi32> -> tensor<1x16xi32> loc(#loc48)
    %69 = tt.broadcast %67 : tensor<16x1xi32> -> tensor<16x16xi32> loc(#loc48)
    %70 = tt.broadcast %68 : tensor<1x16xi32> -> tensor<16x16xi32> loc(#loc48)
    %71 = arith.addi %69, %70 : tensor<16x16xi32> loc(#loc48)
    %72 = tt.splat %arg4 : i32 -> tensor<16x16xi32> loc(#loc49)
    %73 = arith.addi %71, %72 : tensor<16x16xi32> loc(#loc49)
    %74 = tt.splat %arg0 : !tt.ptr<f16> -> tensor<16x16x!tt.ptr<f16>> loc(#loc50)
    %75 = tt.addptr %74, %73 : tensor<16x16x!tt.ptr<f16>>, tensor<16x16xi32> loc(#loc50)
    %76 = tt.load %75 : tensor<16x16x!tt.ptr<f16>> loc(#loc51)
    %77 = arith.addf %63, %76 : tensor<16x16xf16> loc(#loc52)
    %78 = tt.expand_dims %18 {axis = 1 : i32} : tensor<16xi32> -> tensor<16x1xi32> loc(#loc53)
    %79 = arith.addi %78, %cst_3 : tensor<16x1xi32> loc(#loc54)
    %80 = tt.splat %arg3 : i32 -> tensor<16x1xi32> loc(#loc55)
    %81 = arith.muli %79, %80 : tensor<16x1xi32> loc(#loc55)
    %82 = tt.expand_dims %22 {axis = 0 : i32} : tensor<16xi32> -> tensor<1x16xi32> loc(#loc56)
    %83 = tt.broadcast %81 : tensor<16x1xi32> -> tensor<16x16xi32> loc(#loc56)
    %84 = tt.broadcast %82 : tensor<1x16xi32> -> tensor<16x16xi32> loc(#loc56)
    %85 = arith.addi %83, %84 : tensor<16x16xi32> loc(#loc56)
    %86 = tt.splat %arg4 : i32 -> tensor<16x16xi32> loc(#loc57)
    %87 = arith.addi %85, %86 : tensor<16x16xi32> loc(#loc57)
    %88 = tt.splat %arg0 : !tt.ptr<f16> -> tensor<16x16x!tt.ptr<f16>> loc(#loc58)
    %89 = tt.addptr %88, %87 : tensor<16x16x!tt.ptr<f16>>, tensor<16x16xi32> loc(#loc58)
    %90 = tt.load %89 : tensor<16x16x!tt.ptr<f16>> loc(#loc59)
    %91 = arith.addf %77, %90 : tensor<16x16xf16> loc(#loc60)
    %92 = tt.expand_dims %18 {axis = 1 : i32} : tensor<16xi32> -> tensor<16x1xi32> loc(#loc61)
    %93 = tt.splat %arg4 : i32 -> tensor<16x1xi32> loc(#loc62)
    %94 = arith.addi %92, %93 : tensor<16x1xi32> loc(#loc62)
    %95 = tt.splat %arg3 : i32 -> tensor<16x1xi32> loc(#loc63)
    %96 = arith.muli %94, %95 : tensor<16x1xi32> loc(#loc63)
    %97 = tt.expand_dims %22 {axis = 0 : i32} : tensor<16xi32> -> tensor<1x16xi32> loc(#loc64)
    %98 = tt.broadcast %96 : tensor<16x1xi32> -> tensor<16x16xi32> loc(#loc64)
    %99 = tt.broadcast %97 : tensor<1x16xi32> -> tensor<16x16xi32> loc(#loc64)
    %100 = arith.addi %98, %99 : tensor<16x16xi32> loc(#loc64)
    %101 = tt.splat %arg0 : !tt.ptr<f16> -> tensor<16x16x!tt.ptr<f16>> loc(#loc65)
    %102 = tt.addptr %101, %100 : tensor<16x16x!tt.ptr<f16>>, tensor<16x16xi32> loc(#loc65)
    %103 = tt.load %102 : tensor<16x16x!tt.ptr<f16>> loc(#loc66)
    %104 = arith.addf %91, %103 : tensor<16x16xf16> loc(#loc67)
    %105 = tt.expand_dims %18 {axis = 1 : i32} : tensor<16xi32> -> tensor<16x1xi32> loc(#loc68)
    %106 = tt.splat %arg4 : i32 -> tensor<16x1xi32> loc(#loc69)
    %107 = arith.addi %105, %106 : tensor<16x1xi32> loc(#loc69)
    %108 = tt.splat %arg3 : i32 -> tensor<16x1xi32> loc(#loc70)
    %109 = arith.muli %107, %108 : tensor<16x1xi32> loc(#loc70)
    %110 = tt.expand_dims %22 {axis = 0 : i32} : tensor<16xi32> -> tensor<1x16xi32> loc(#loc71)
    %111 = tt.broadcast %109 : tensor<16x1xi32> -> tensor<16x16xi32> loc(#loc71)
    %112 = tt.broadcast %110 : tensor<1x16xi32> -> tensor<16x16xi32> loc(#loc71)
    %113 = arith.addi %111, %112 : tensor<16x16xi32> loc(#loc71)
    %114 = arith.addi %113, %cst_2 : tensor<16x16xi32> loc(#loc72)
    %115 = tt.splat %arg0 : !tt.ptr<f16> -> tensor<16x16x!tt.ptr<f16>> loc(#loc73)
    %116 = tt.addptr %115, %114 : tensor<16x16x!tt.ptr<f16>>, tensor<16x16xi32> loc(#loc73)
    %117 = tt.load %116 : tensor<16x16x!tt.ptr<f16>> loc(#loc74)
    %118 = arith.addf %104, %117 : tensor<16x16xf16> loc(#loc75)
    %119 = tt.expand_dims %18 {axis = 1 : i32} : tensor<16xi32> -> tensor<16x1xi32> loc(#loc76)
    %120 = tt.splat %arg4 : i32 -> tensor<16x1xi32> loc(#loc77)
    %121 = arith.addi %119, %120 : tensor<16x1xi32> loc(#loc77)
    %122 = tt.splat %arg3 : i32 -> tensor<16x1xi32> loc(#loc78)
    %123 = arith.muli %121, %122 : tensor<16x1xi32> loc(#loc78)
    %124 = tt.expand_dims %22 {axis = 0 : i32} : tensor<16xi32> -> tensor<1x16xi32> loc(#loc79)
    %125 = tt.broadcast %123 : tensor<16x1xi32> -> tensor<16x16xi32> loc(#loc79)
    %126 = tt.broadcast %124 : tensor<1x16xi32> -> tensor<16x16xi32> loc(#loc79)
    %127 = arith.addi %125, %126 : tensor<16x16xi32> loc(#loc79)
    %128 = arith.addi %127, %cst_1 : tensor<16x16xi32> loc(#loc80)
    %129 = tt.splat %arg0 : !tt.ptr<f16> -> tensor<16x16x!tt.ptr<f16>> loc(#loc81)
    %130 = tt.addptr %129, %128 : tensor<16x16x!tt.ptr<f16>>, tensor<16x16xi32> loc(#loc81)
    %131 = tt.load %130 : tensor<16x16x!tt.ptr<f16>> loc(#loc82)
    %132 = arith.addf %118, %131 : tensor<16x16xf16> loc(#loc83)
    %133 = tt.expand_dims %18 {axis = 1 : i32} : tensor<16xi32> -> tensor<16x1xi32> loc(#loc84)
    %134 = tt.splat %arg4 : i32 -> tensor<16x1xi32> loc(#loc85)
    %135 = arith.addi %133, %134 : tensor<16x1xi32> loc(#loc85)
    %136 = tt.splat %arg3 : i32 -> tensor<16x1xi32> loc(#loc86)
    %137 = arith.muli %135, %136 : tensor<16x1xi32> loc(#loc86)
    %138 = tt.expand_dims %22 {axis = 0 : i32} : tensor<16xi32> -> tensor<1x16xi32> loc(#loc87)
    %139 = tt.broadcast %137 : tensor<16x1xi32> -> tensor<16x16xi32> loc(#loc87)
    %140 = tt.broadcast %138 : tensor<1x16xi32> -> tensor<16x16xi32> loc(#loc87)
    %141 = arith.addi %139, %140 : tensor<16x16xi32> loc(#loc87)
    %142 = arith.addi %141, %cst_0 : tensor<16x16xi32> loc(#loc88)
    %143 = tt.splat %arg0 : !tt.ptr<f16> -> tensor<16x16x!tt.ptr<f16>> loc(#loc89)
    %144 = tt.addptr %143, %142 : tensor<16x16x!tt.ptr<f16>>, tensor<16x16xi32> loc(#loc89)
    %145 = tt.load %144 : tensor<16x16x!tt.ptr<f16>> loc(#loc90)
    %146 = arith.addf %132, %145 : tensor<16x16xf16> loc(#loc91)
    %147 = tt.expand_dims %10 {axis = 1 : i32} : tensor<16xi32> -> tensor<16x1xi32> loc(#loc92)
    %148 = tt.splat %arg4 : i32 -> tensor<16x1xi32> loc(#loc93)
    %149 = arith.addi %147, %148 : tensor<16x1xi32> loc(#loc93)
    %150 = tt.splat %arg3 : i32 -> tensor<16x1xi32> loc(#loc94)
    %151 = arith.muli %149, %150 : tensor<16x1xi32> loc(#loc94)
    %152 = tt.expand_dims %14 {axis = 0 : i32} : tensor<16xi32> -> tensor<1x16xi32> loc(#loc95)
    %153 = tt.broadcast %151 : tensor<16x1xi32> -> tensor<16x16xi32> loc(#loc95)
    %154 = tt.broadcast %152 : tensor<1x16xi32> -> tensor<16x16xi32> loc(#loc95)
    %155 = arith.addi %153, %154 : tensor<16x16xi32> loc(#loc95)
    %156 = tt.splat %arg4 : i32 -> tensor<16x16xi32> loc(#loc96)
    %157 = arith.addi %155, %156 : tensor<16x16xi32> loc(#loc96)
    %158 = tt.splat %arg1 : !tt.ptr<f16> -> tensor<16x16x!tt.ptr<f16>> loc(#loc97)
    %159 = tt.addptr %158, %157 : tensor<16x16x!tt.ptr<f16>>, tensor<16x16xi32> loc(#loc97)
    tt.store %159, %146 : tensor<16x16x!tt.ptr<f16>> loc(#loc98)
    tt.return loc(#loc99)
  } loc(#loc)
} loc(#loc)
#loc1 = loc(unknown)
#loc2 = loc("2d9pt_naive.py":30:10)
#loc3 = loc("2d9pt_naive.py":31:28)
#loc4 = loc("2d9pt_naive.py":31:26)
#loc5 = loc("/usr/local/lib/python3.8/dist-packages/triton/language/standard.py":44:22)
#loc6 = loc("2d9pt_naive.py":31:31)
#loc7 = loc("/usr/local/lib/python3.8/dist-packages/triton/language/standard.py":44:28)
#loc8 = loc("2d9pt_naive.py":34:19)
#loc9 = loc("2d9pt_naive.py":35:18)
#loc10 = loc("2d9pt_naive.py":39:22)
#loc11 = loc("2d9pt_naive.py":39:50)
#loc12 = loc("2d9pt_naive.py":39:37)
#loc13 = loc("2d9pt_naive.py":40:22)
#loc14 = loc("2d9pt_naive.py":40:50)
#loc15 = loc("2d9pt_naive.py":40:37)
#loc16 = loc("2d9pt_naive.py":42:22)
#loc17 = loc("2d9pt_naive.py":42:50)
#loc18 = loc("2d9pt_naive.py":42:37)
#loc19 = loc("2d9pt_naive.py":43:22)
#loc20 = loc("2d9pt_naive.py":43:50)
#loc21 = loc("2d9pt_naive.py":43:37)
#loc22 = loc("2d9pt_naive.py":50:19)
#loc23 = loc("2d9pt_naive.py":50:36)
#loc24 = loc("2d9pt_naive.py":50:40)
#loc25 = loc("2d9pt_naive.py":50:56)
#loc26 = loc("2d9pt_naive.py":50:18)
#loc27 = loc("2d9pt_naive.py":51:21)
#loc28 = loc("2d9pt_naive.py":52:22)
#loc29 = loc("2d9pt_naive.py":54:20)
#loc30 = loc("2d9pt_naive.py":54:37)
#loc31 = loc("2d9pt_naive.py":54:40)
#loc32 = loc("2d9pt_naive.py":54:44)
#loc33 = loc("2d9pt_naive.py":54:60)
#loc34 = loc("2d9pt_naive.py":54:18)
#loc35 = loc("2d9pt_naive.py":55:21)
#loc36 = loc("2d9pt_naive.py":56:22)
#loc37 = loc("2d9pt_naive.py":58:20)
#loc38 = loc("2d9pt_naive.py":58:37)
#loc39 = loc("2d9pt_naive.py":58:40)
#loc40 = loc("2d9pt_naive.py":58:44)
#loc41 = loc("2d9pt_naive.py":58:60)
#loc42 = loc("2d9pt_naive.py":58:18)
#loc43 = loc("2d9pt_naive.py":59:21)
#loc44 = loc("2d9pt_naive.py":60:22)
#loc45 = loc("2d9pt_naive.py":62:20)
#loc46 = loc("2d9pt_naive.py":62:37)
#loc47 = loc("2d9pt_naive.py":62:40)
#loc48 = loc("2d9pt_naive.py":62:44)
#loc49 = loc("2d9pt_naive.py":62:60)
#loc50 = loc("2d9pt_naive.py":62:18)
#loc51 = loc("2d9pt_naive.py":63:21)
#loc52 = loc("2d9pt_naive.py":64:22)
#loc53 = loc("2d9pt_naive.py":66:20)
#loc54 = loc("2d9pt_naive.py":66:37)
#loc55 = loc("2d9pt_naive.py":66:40)
#loc56 = loc("2d9pt_naive.py":66:44)
#loc57 = loc("2d9pt_naive.py":66:60)
#loc58 = loc("2d9pt_naive.py":66:18)
#loc59 = loc("2d9pt_naive.py":67:21)
#loc60 = loc("2d9pt_naive.py":68:22)
#loc61 = loc("2d9pt_naive.py":71:20)
#loc62 = loc("2d9pt_naive.py":71:37)
#loc63 = loc("2d9pt_naive.py":71:40)
#loc64 = loc("2d9pt_naive.py":71:44)
#loc65 = loc("2d9pt_naive.py":71:18)
#loc66 = loc("2d9pt_naive.py":72:21)
#loc67 = loc("2d9pt_naive.py":73:22)
#loc68 = loc("2d9pt_naive.py":75:20)
#loc69 = loc("2d9pt_naive.py":75:37)
#loc70 = loc("2d9pt_naive.py":75:40)
#loc71 = loc("2d9pt_naive.py":75:44)
#loc72 = loc("2d9pt_naive.py":75:62)
#loc73 = loc("2d9pt_naive.py":75:18)
#loc74 = loc("2d9pt_naive.py":76:21)
#loc75 = loc("2d9pt_naive.py":77:22)
#loc76 = loc("2d9pt_naive.py":79:20)
#loc77 = loc("2d9pt_naive.py":79:37)
#loc78 = loc("2d9pt_naive.py":79:40)
#loc79 = loc("2d9pt_naive.py":79:44)
#loc80 = loc("2d9pt_naive.py":79:62)
#loc81 = loc("2d9pt_naive.py":79:18)
#loc82 = loc("2d9pt_naive.py":80:21)
#loc83 = loc("2d9pt_naive.py":81:22)
#loc84 = loc("2d9pt_naive.py":83:20)
#loc85 = loc("2d9pt_naive.py":83:37)
#loc86 = loc("2d9pt_naive.py":83:40)
#loc87 = loc("2d9pt_naive.py":83:44)
#loc88 = loc("2d9pt_naive.py":83:62)
#loc89 = loc("2d9pt_naive.py":83:18)
#loc90 = loc("2d9pt_naive.py":84:21)
#loc91 = loc("2d9pt_naive.py":85:22)
#loc92 = loc("2d9pt_naive.py":87:19)
#loc93 = loc("2d9pt_naive.py":87:35)
#loc94 = loc("2d9pt_naive.py":87:38)
#loc95 = loc("2d9pt_naive.py":87:42)
#loc96 = loc("2d9pt_naive.py":87:60)
#loc97 = loc("2d9pt_naive.py":87:18)
#loc98 = loc("2d9pt_naive.py":88:21)
#loc99 = loc("2d9pt_naive.py":88:4)
#loc100 = loc(callsite(#loc5 at #loc6))
#loc101 = loc(callsite(#loc7 at #loc6))


// -----// IR Dump Before Canonicalizer (canonicalize) ('builtin.module' operation) //----- //
#loc = loc("2d9pt_naive.py":18:0)
module {
  tt.func public @stencil_kernel(%arg0: !tt.ptr<f16> {tt.divisibility = 16 : i32} loc("2d9pt_naive.py":18:0), %arg1: !tt.ptr<f16> {tt.divisibility = 16 : i32} loc("2d9pt_naive.py":18:0), %arg2: i32 loc("2d9pt_naive.py":18:0), %arg3: i32 loc("2d9pt_naive.py":18:0), %arg4: i32 loc("2d9pt_naive.py":18:0)) attributes {noinline = false} {
    %cst = arith.constant dense<0.000000e+00> : tensor<16x16xf16> loc(#loc1)
    %c15_i32 = arith.constant 15 : i32 loc(#loc1)
    %cst_0 = arith.constant dense<4> : tensor<16x16xi32> loc(#loc1)
    %cst_1 = arith.constant dense<3> : tensor<16x16xi32> loc(#loc1)
    %cst_2 = arith.constant dense<1> : tensor<16x16xi32> loc(#loc1)
    %cst_3 = arith.constant dense<4> : tensor<16x1xi32> loc(#loc1)
    %cst_4 = arith.constant dense<3> : tensor<16x1xi32> loc(#loc1)
    %cst_5 = arith.constant dense<2> : tensor<16x1xi32> loc(#loc1)
    %cst_6 = arith.constant dense<1> : tensor<16x1xi32> loc(#loc1)
    %c16_i32 = arith.constant 16 : i32 loc(#loc1)
    %c2_i32 = arith.constant 2 : i32 loc(#loc1)
    %0 = tt.get_program_id x : i32 loc(#loc2)
    %1 = arith.muli %arg4, %c2_i32 : i32 loc(#loc3)
    %2 = arith.subi %arg2, %1 : i32 loc(#loc4)
    %3 = arith.addi %2, %c15_i32 : i32 loc(#loc100)
    %4 = arith.divsi %3, %c16_i32 : i32 loc(#loc101)
    %5 = arith.divsi %0, %4 : i32 loc(#loc8)
    %6 = arith.remsi %0, %4 : i32 loc(#loc9)
    %7 = arith.muli %5, %c16_i32 : i32 loc(#loc10)
    %8 = tt.make_range {end = 16 : i32, start = 0 : i32} : tensor<16xi32> loc(#loc11)
    %9 = tt.splat %7 : i32 -> tensor<16xi32> loc(#loc12)
    %10 = arith.addi %9, %8 : tensor<16xi32> loc(#loc12)
    %11 = arith.muli %6, %c16_i32 : i32 loc(#loc13)
    %12 = tt.make_range {end = 16 : i32, start = 0 : i32} : tensor<16xi32> loc(#loc14)
    %13 = tt.splat %11 : i32 -> tensor<16xi32> loc(#loc15)
    %14 = arith.addi %13, %12 : tensor<16xi32> loc(#loc15)
    %15 = arith.muli %5, %c16_i32 : i32 loc(#loc16)
    %16 = tt.make_range {end = 16 : i32, start = 0 : i32} : tensor<16xi32> loc(#loc17)
    %17 = tt.splat %15 : i32 -> tensor<16xi32> loc(#loc18)
    %18 = arith.addi %17, %16 : tensor<16xi32> loc(#loc18)
    %19 = arith.muli %6, %c16_i32 : i32 loc(#loc19)
    %20 = tt.make_range {end = 16 : i32, start = 0 : i32} : tensor<16xi32> loc(#loc20)
    %21 = tt.splat %19 : i32 -> tensor<16xi32> loc(#loc21)
    %22 = arith.addi %21, %20 : tensor<16xi32> loc(#loc21)
    %23 = tt.expand_dims %18 {axis = 1 : i32} : tensor<16xi32> -> tensor<16x1xi32> loc(#loc22)
    %24 = tt.splat %arg3 : i32 -> tensor<16x1xi32> loc(#loc23)
    %25 = arith.muli %23, %24 : tensor<16x1xi32> loc(#loc23)
    %26 = tt.expand_dims %22 {axis = 0 : i32} : tensor<16xi32> -> tensor<1x16xi32> loc(#loc24)
    %27 = tt.broadcast %25 : tensor<16x1xi32> -> tensor<16x16xi32> loc(#loc24)
    %28 = tt.broadcast %26 : tensor<1x16xi32> -> tensor<16x16xi32> loc(#loc24)
    %29 = arith.addi %27, %28 : tensor<16x16xi32> loc(#loc24)
    %30 = tt.splat %arg4 : i32 -> tensor<16x16xi32> loc(#loc25)
    %31 = arith.addi %29, %30 : tensor<16x16xi32> loc(#loc25)
    %32 = tt.splat %arg0 : !tt.ptr<f16> -> tensor<16x16x!tt.ptr<f16>> loc(#loc26)
    %33 = tt.addptr %32, %31 : tensor<16x16x!tt.ptr<f16>>, tensor<16x16xi32> loc(#loc26)
    %34 = tt.load %33 : tensor<16x16x!tt.ptr<f16>> loc(#loc27)
    %35 = arith.addf %34, %cst : tensor<16x16xf16> loc(#loc28)
    %36 = tt.expand_dims %18 {axis = 1 : i32} : tensor<16xi32> -> tensor<16x1xi32> loc(#loc29)
    %37 = arith.addi %36, %cst_6 : tensor<16x1xi32> loc(#loc30)
    %38 = tt.splat %arg3 : i32 -> tensor<16x1xi32> loc(#loc31)
    %39 = arith.muli %37, %38 : tensor<16x1xi32> loc(#loc31)
    %40 = tt.expand_dims %22 {axis = 0 : i32} : tensor<16xi32> -> tensor<1x16xi32> loc(#loc32)
    %41 = tt.broadcast %39 : tensor<16x1xi32> -> tensor<16x16xi32> loc(#loc32)
    %42 = tt.broadcast %40 : tensor<1x16xi32> -> tensor<16x16xi32> loc(#loc32)
    %43 = arith.addi %41, %42 : tensor<16x16xi32> loc(#loc32)
    %44 = tt.splat %arg4 : i32 -> tensor<16x16xi32> loc(#loc33)
    %45 = arith.addi %43, %44 : tensor<16x16xi32> loc(#loc33)
    %46 = tt.splat %arg0 : !tt.ptr<f16> -> tensor<16x16x!tt.ptr<f16>> loc(#loc34)
    %47 = tt.addptr %46, %45 : tensor<16x16x!tt.ptr<f16>>, tensor<16x16xi32> loc(#loc34)
    %48 = tt.load %47 : tensor<16x16x!tt.ptr<f16>> loc(#loc35)
    %49 = arith.addf %35, %48 : tensor<16x16xf16> loc(#loc36)
    %50 = tt.expand_dims %18 {axis = 1 : i32} : tensor<16xi32> -> tensor<16x1xi32> loc(#loc37)
    %51 = arith.addi %50, %cst_5 : tensor<16x1xi32> loc(#loc38)
    %52 = tt.splat %arg3 : i32 -> tensor<16x1xi32> loc(#loc39)
    %53 = arith.muli %51, %52 : tensor<16x1xi32> loc(#loc39)
    %54 = tt.expand_dims %22 {axis = 0 : i32} : tensor<16xi32> -> tensor<1x16xi32> loc(#loc40)
    %55 = tt.broadcast %53 : tensor<16x1xi32> -> tensor<16x16xi32> loc(#loc40)
    %56 = tt.broadcast %54 : tensor<1x16xi32> -> tensor<16x16xi32> loc(#loc40)
    %57 = arith.addi %55, %56 : tensor<16x16xi32> loc(#loc40)
    %58 = tt.splat %arg4 : i32 -> tensor<16x16xi32> loc(#loc41)
    %59 = arith.addi %57, %58 : tensor<16x16xi32> loc(#loc41)
    %60 = tt.splat %arg0 : !tt.ptr<f16> -> tensor<16x16x!tt.ptr<f16>> loc(#loc42)
    %61 = tt.addptr %60, %59 : tensor<16x16x!tt.ptr<f16>>, tensor<16x16xi32> loc(#loc42)
    %62 = tt.load %61 : tensor<16x16x!tt.ptr<f16>> loc(#loc43)
    %63 = arith.addf %49, %62 : tensor<16x16xf16> loc(#loc44)
    %64 = tt.expand_dims %18 {axis = 1 : i32} : tensor<16xi32> -> tensor<16x1xi32> loc(#loc45)
    %65 = arith.addi %64, %cst_4 : tensor<16x1xi32> loc(#loc46)
    %66 = tt.splat %arg3 : i32 -> tensor<16x1xi32> loc(#loc47)
    %67 = arith.muli %65, %66 : tensor<16x1xi32> loc(#loc47)
    %68 = tt.expand_dims %22 {axis = 0 : i32} : tensor<16xi32> -> tensor<1x16xi32> loc(#loc48)
    %69 = tt.broadcast %67 : tensor<16x1xi32> -> tensor<16x16xi32> loc(#loc48)
    %70 = tt.broadcast %68 : tensor<1x16xi32> -> tensor<16x16xi32> loc(#loc48)
    %71 = arith.addi %69, %70 : tensor<16x16xi32> loc(#loc48)
    %72 = tt.splat %arg4 : i32 -> tensor<16x16xi32> loc(#loc49)
    %73 = arith.addi %71, %72 : tensor<16x16xi32> loc(#loc49)
    %74 = tt.splat %arg0 : !tt.ptr<f16> -> tensor<16x16x!tt.ptr<f16>> loc(#loc50)
    %75 = tt.addptr %74, %73 : tensor<16x16x!tt.ptr<f16>>, tensor<16x16xi32> loc(#loc50)
    %76 = tt.load %75 : tensor<16x16x!tt.ptr<f16>> loc(#loc51)
    %77 = arith.addf %63, %76 : tensor<16x16xf16> loc(#loc52)
    %78 = tt.expand_dims %18 {axis = 1 : i32} : tensor<16xi32> -> tensor<16x1xi32> loc(#loc53)
    %79 = arith.addi %78, %cst_3 : tensor<16x1xi32> loc(#loc54)
    %80 = tt.splat %arg3 : i32 -> tensor<16x1xi32> loc(#loc55)
    %81 = arith.muli %79, %80 : tensor<16x1xi32> loc(#loc55)
    %82 = tt.expand_dims %22 {axis = 0 : i32} : tensor<16xi32> -> tensor<1x16xi32> loc(#loc56)
    %83 = tt.broadcast %81 : tensor<16x1xi32> -> tensor<16x16xi32> loc(#loc56)
    %84 = tt.broadcast %82 : tensor<1x16xi32> -> tensor<16x16xi32> loc(#loc56)
    %85 = arith.addi %83, %84 : tensor<16x16xi32> loc(#loc56)
    %86 = tt.splat %arg4 : i32 -> tensor<16x16xi32> loc(#loc57)
    %87 = arith.addi %85, %86 : tensor<16x16xi32> loc(#loc57)
    %88 = tt.splat %arg0 : !tt.ptr<f16> -> tensor<16x16x!tt.ptr<f16>> loc(#loc58)
    %89 = tt.addptr %88, %87 : tensor<16x16x!tt.ptr<f16>>, tensor<16x16xi32> loc(#loc58)
    %90 = tt.load %89 : tensor<16x16x!tt.ptr<f16>> loc(#loc59)
    %91 = arith.addf %77, %90 : tensor<16x16xf16> loc(#loc60)
    %92 = tt.expand_dims %18 {axis = 1 : i32} : tensor<16xi32> -> tensor<16x1xi32> loc(#loc61)
    %93 = tt.splat %arg4 : i32 -> tensor<16x1xi32> loc(#loc62)
    %94 = arith.addi %92, %93 : tensor<16x1xi32> loc(#loc62)
    %95 = tt.splat %arg3 : i32 -> tensor<16x1xi32> loc(#loc63)
    %96 = arith.muli %94, %95 : tensor<16x1xi32> loc(#loc63)
    %97 = tt.expand_dims %22 {axis = 0 : i32} : tensor<16xi32> -> tensor<1x16xi32> loc(#loc64)
    %98 = tt.broadcast %96 : tensor<16x1xi32> -> tensor<16x16xi32> loc(#loc64)
    %99 = tt.broadcast %97 : tensor<1x16xi32> -> tensor<16x16xi32> loc(#loc64)
    %100 = arith.addi %98, %99 : tensor<16x16xi32> loc(#loc64)
    %101 = tt.splat %arg0 : !tt.ptr<f16> -> tensor<16x16x!tt.ptr<f16>> loc(#loc65)
    %102 = tt.addptr %101, %100 : tensor<16x16x!tt.ptr<f16>>, tensor<16x16xi32> loc(#loc65)
    %103 = tt.load %102 : tensor<16x16x!tt.ptr<f16>> loc(#loc66)
    %104 = arith.addf %91, %103 : tensor<16x16xf16> loc(#loc67)
    %105 = tt.expand_dims %18 {axis = 1 : i32} : tensor<16xi32> -> tensor<16x1xi32> loc(#loc68)
    %106 = tt.splat %arg4 : i32 -> tensor<16x1xi32> loc(#loc69)
    %107 = arith.addi %105, %106 : tensor<16x1xi32> loc(#loc69)
    %108 = tt.splat %arg3 : i32 -> tensor<16x1xi32> loc(#loc70)
    %109 = arith.muli %107, %108 : tensor<16x1xi32> loc(#loc70)
    %110 = tt.expand_dims %22 {axis = 0 : i32} : tensor<16xi32> -> tensor<1x16xi32> loc(#loc71)
    %111 = tt.broadcast %109 : tensor<16x1xi32> -> tensor<16x16xi32> loc(#loc71)
    %112 = tt.broadcast %110 : tensor<1x16xi32> -> tensor<16x16xi32> loc(#loc71)
    %113 = arith.addi %111, %112 : tensor<16x16xi32> loc(#loc71)
    %114 = arith.addi %113, %cst_2 : tensor<16x16xi32> loc(#loc72)
    %115 = tt.splat %arg0 : !tt.ptr<f16> -> tensor<16x16x!tt.ptr<f16>> loc(#loc73)
    %116 = tt.addptr %115, %114 : tensor<16x16x!tt.ptr<f16>>, tensor<16x16xi32> loc(#loc73)
    %117 = tt.load %116 : tensor<16x16x!tt.ptr<f16>> loc(#loc74)
    %118 = arith.addf %104, %117 : tensor<16x16xf16> loc(#loc75)
    %119 = tt.expand_dims %18 {axis = 1 : i32} : tensor<16xi32> -> tensor<16x1xi32> loc(#loc76)
    %120 = tt.splat %arg4 : i32 -> tensor<16x1xi32> loc(#loc77)
    %121 = arith.addi %119, %120 : tensor<16x1xi32> loc(#loc77)
    %122 = tt.splat %arg3 : i32 -> tensor<16x1xi32> loc(#loc78)
    %123 = arith.muli %121, %122 : tensor<16x1xi32> loc(#loc78)
    %124 = tt.expand_dims %22 {axis = 0 : i32} : tensor<16xi32> -> tensor<1x16xi32> loc(#loc79)
    %125 = tt.broadcast %123 : tensor<16x1xi32> -> tensor<16x16xi32> loc(#loc79)
    %126 = tt.broadcast %124 : tensor<1x16xi32> -> tensor<16x16xi32> loc(#loc79)
    %127 = arith.addi %125, %126 : tensor<16x16xi32> loc(#loc79)
    %128 = arith.addi %127, %cst_1 : tensor<16x16xi32> loc(#loc80)
    %129 = tt.splat %arg0 : !tt.ptr<f16> -> tensor<16x16x!tt.ptr<f16>> loc(#loc81)
    %130 = tt.addptr %129, %128 : tensor<16x16x!tt.ptr<f16>>, tensor<16x16xi32> loc(#loc81)
    %131 = tt.load %130 : tensor<16x16x!tt.ptr<f16>> loc(#loc82)
    %132 = arith.addf %118, %131 : tensor<16x16xf16> loc(#loc83)
    %133 = tt.expand_dims %18 {axis = 1 : i32} : tensor<16xi32> -> tensor<16x1xi32> loc(#loc84)
    %134 = tt.splat %arg4 : i32 -> tensor<16x1xi32> loc(#loc85)
    %135 = arith.addi %133, %134 : tensor<16x1xi32> loc(#loc85)
    %136 = tt.splat %arg3 : i32 -> tensor<16x1xi32> loc(#loc86)
    %137 = arith.muli %135, %136 : tensor<16x1xi32> loc(#loc86)
    %138 = tt.expand_dims %22 {axis = 0 : i32} : tensor<16xi32> -> tensor<1x16xi32> loc(#loc87)
    %139 = tt.broadcast %137 : tensor<16x1xi32> -> tensor<16x16xi32> loc(#loc87)
    %140 = tt.broadcast %138 : tensor<1x16xi32> -> tensor<16x16xi32> loc(#loc87)
    %141 = arith.addi %139, %140 : tensor<16x16xi32> loc(#loc87)
    %142 = arith.addi %141, %cst_0 : tensor<16x16xi32> loc(#loc88)
    %143 = tt.splat %arg0 : !tt.ptr<f16> -> tensor<16x16x!tt.ptr<f16>> loc(#loc89)
    %144 = tt.addptr %143, %142 : tensor<16x16x!tt.ptr<f16>>, tensor<16x16xi32> loc(#loc89)
    %145 = tt.load %144 : tensor<16x16x!tt.ptr<f16>> loc(#loc90)
    %146 = arith.addf %132, %145 : tensor<16x16xf16> loc(#loc91)
    %147 = tt.expand_dims %10 {axis = 1 : i32} : tensor<16xi32> -> tensor<16x1xi32> loc(#loc92)
    %148 = tt.splat %arg4 : i32 -> tensor<16x1xi32> loc(#loc93)
    %149 = arith.addi %147, %148 : tensor<16x1xi32> loc(#loc93)
    %150 = tt.splat %arg3 : i32 -> tensor<16x1xi32> loc(#loc94)
    %151 = arith.muli %149, %150 : tensor<16x1xi32> loc(#loc94)
    %152 = tt.expand_dims %14 {axis = 0 : i32} : tensor<16xi32> -> tensor<1x16xi32> loc(#loc95)
    %153 = tt.broadcast %151 : tensor<16x1xi32> -> tensor<16x16xi32> loc(#loc95)
    %154 = tt.broadcast %152 : tensor<1x16xi32> -> tensor<16x16xi32> loc(#loc95)
    %155 = arith.addi %153, %154 : tensor<16x16xi32> loc(#loc95)
    %156 = tt.splat %arg4 : i32 -> tensor<16x16xi32> loc(#loc96)
    %157 = arith.addi %155, %156 : tensor<16x16xi32> loc(#loc96)
    %158 = tt.splat %arg1 : !tt.ptr<f16> -> tensor<16x16x!tt.ptr<f16>> loc(#loc97)
    %159 = tt.addptr %158, %157 : tensor<16x16x!tt.ptr<f16>>, tensor<16x16xi32> loc(#loc97)
    tt.store %159, %146 : tensor<16x16x!tt.ptr<f16>> loc(#loc98)
    tt.return loc(#loc99)
  } loc(#loc)
} loc(#loc)
#loc1 = loc(unknown)
#loc2 = loc("2d9pt_naive.py":30:10)
#loc3 = loc("2d9pt_naive.py":31:28)
#loc4 = loc("2d9pt_naive.py":31:26)
#loc5 = loc("/usr/local/lib/python3.8/dist-packages/triton/language/standard.py":44:22)
#loc6 = loc("2d9pt_naive.py":31:31)
#loc7 = loc("/usr/local/lib/python3.8/dist-packages/triton/language/standard.py":44:28)
#loc8 = loc("2d9pt_naive.py":34:19)
#loc9 = loc("2d9pt_naive.py":35:18)
#loc10 = loc("2d9pt_naive.py":39:22)
#loc11 = loc("2d9pt_naive.py":39:50)
#loc12 = loc("2d9pt_naive.py":39:37)
#loc13 = loc("2d9pt_naive.py":40:22)
#loc14 = loc("2d9pt_naive.py":40:50)
#loc15 = loc("2d9pt_naive.py":40:37)
#loc16 = loc("2d9pt_naive.py":42:22)
#loc17 = loc("2d9pt_naive.py":42:50)
#loc18 = loc("2d9pt_naive.py":42:37)
#loc19 = loc("2d9pt_naive.py":43:22)
#loc20 = loc("2d9pt_naive.py":43:50)
#loc21 = loc("2d9pt_naive.py":43:37)
#loc22 = loc("2d9pt_naive.py":50:19)
#loc23 = loc("2d9pt_naive.py":50:36)
#loc24 = loc("2d9pt_naive.py":50:40)
#loc25 = loc("2d9pt_naive.py":50:56)
#loc26 = loc("2d9pt_naive.py":50:18)
#loc27 = loc("2d9pt_naive.py":51:21)
#loc28 = loc("2d9pt_naive.py":52:22)
#loc29 = loc("2d9pt_naive.py":54:20)
#loc30 = loc("2d9pt_naive.py":54:37)
#loc31 = loc("2d9pt_naive.py":54:40)
#loc32 = loc("2d9pt_naive.py":54:44)
#loc33 = loc("2d9pt_naive.py":54:60)
#loc34 = loc("2d9pt_naive.py":54:18)
#loc35 = loc("2d9pt_naive.py":55:21)
#loc36 = loc("2d9pt_naive.py":56:22)
#loc37 = loc("2d9pt_naive.py":58:20)
#loc38 = loc("2d9pt_naive.py":58:37)
#loc39 = loc("2d9pt_naive.py":58:40)
#loc40 = loc("2d9pt_naive.py":58:44)
#loc41 = loc("2d9pt_naive.py":58:60)
#loc42 = loc("2d9pt_naive.py":58:18)
#loc43 = loc("2d9pt_naive.py":59:21)
#loc44 = loc("2d9pt_naive.py":60:22)
#loc45 = loc("2d9pt_naive.py":62:20)
#loc46 = loc("2d9pt_naive.py":62:37)
#loc47 = loc("2d9pt_naive.py":62:40)
#loc48 = loc("2d9pt_naive.py":62:44)
#loc49 = loc("2d9pt_naive.py":62:60)
#loc50 = loc("2d9pt_naive.py":62:18)
#loc51 = loc("2d9pt_naive.py":63:21)
#loc52 = loc("2d9pt_naive.py":64:22)
#loc53 = loc("2d9pt_naive.py":66:20)
#loc54 = loc("2d9pt_naive.py":66:37)
#loc55 = loc("2d9pt_naive.py":66:40)
#loc56 = loc("2d9pt_naive.py":66:44)
#loc57 = loc("2d9pt_naive.py":66:60)
#loc58 = loc("2d9pt_naive.py":66:18)
#loc59 = loc("2d9pt_naive.py":67:21)
#loc60 = loc("2d9pt_naive.py":68:22)
#loc61 = loc("2d9pt_naive.py":71:20)
#loc62 = loc("2d9pt_naive.py":71:37)
#loc63 = loc("2d9pt_naive.py":71:40)
#loc64 = loc("2d9pt_naive.py":71:44)
#loc65 = loc("2d9pt_naive.py":71:18)
#loc66 = loc("2d9pt_naive.py":72:21)
#loc67 = loc("2d9pt_naive.py":73:22)
#loc68 = loc("2d9pt_naive.py":75:20)
#loc69 = loc("2d9pt_naive.py":75:37)
#loc70 = loc("2d9pt_naive.py":75:40)
#loc71 = loc("2d9pt_naive.py":75:44)
#loc72 = loc("2d9pt_naive.py":75:62)
#loc73 = loc("2d9pt_naive.py":75:18)
#loc74 = loc("2d9pt_naive.py":76:21)
#loc75 = loc("2d9pt_naive.py":77:22)
#loc76 = loc("2d9pt_naive.py":79:20)
#loc77 = loc("2d9pt_naive.py":79:37)
#loc78 = loc("2d9pt_naive.py":79:40)
#loc79 = loc("2d9pt_naive.py":79:44)
#loc80 = loc("2d9pt_naive.py":79:62)
#loc81 = loc("2d9pt_naive.py":79:18)
#loc82 = loc("2d9pt_naive.py":80:21)
#loc83 = loc("2d9pt_naive.py":81:22)
#loc84 = loc("2d9pt_naive.py":83:20)
#loc85 = loc("2d9pt_naive.py":83:37)
#loc86 = loc("2d9pt_naive.py":83:40)
#loc87 = loc("2d9pt_naive.py":83:44)
#loc88 = loc("2d9pt_naive.py":83:62)
#loc89 = loc("2d9pt_naive.py":83:18)
#loc90 = loc("2d9pt_naive.py":84:21)
#loc91 = loc("2d9pt_naive.py":85:22)
#loc92 = loc("2d9pt_naive.py":87:19)
#loc93 = loc("2d9pt_naive.py":87:35)
#loc94 = loc("2d9pt_naive.py":87:38)
#loc95 = loc("2d9pt_naive.py":87:42)
#loc96 = loc("2d9pt_naive.py":87:60)
#loc97 = loc("2d9pt_naive.py":87:18)
#loc98 = loc("2d9pt_naive.py":88:21)
#loc99 = loc("2d9pt_naive.py":88:4)
#loc100 = loc(callsite(#loc5 at #loc6))
#loc101 = loc(callsite(#loc7 at #loc6))


// -----// IR Dump Before TritonReorderBroadcast (triton-reorder-broadcast) ('builtin.module' operation) //----- //
#loc = loc("2d9pt_naive.py":18:0)
module {
  tt.func public @stencil_kernel(%arg0: !tt.ptr<f16> {tt.divisibility = 16 : i32} loc("2d9pt_naive.py":18:0), %arg1: !tt.ptr<f16> {tt.divisibility = 16 : i32} loc("2d9pt_naive.py":18:0), %arg2: i32 loc("2d9pt_naive.py":18:0), %arg3: i32 loc("2d9pt_naive.py":18:0), %arg4: i32 loc("2d9pt_naive.py":18:0)) attributes {noinline = false} {
    %cst = arith.constant dense<0.000000e+00> : tensor<16x16xf16> loc(#loc1)
    %c15_i32 = arith.constant 15 : i32 loc(#loc1)
    %cst_0 = arith.constant dense<4> : tensor<16x16xi32> loc(#loc1)
    %cst_1 = arith.constant dense<3> : tensor<16x16xi32> loc(#loc1)
    %cst_2 = arith.constant dense<1> : tensor<16x16xi32> loc(#loc1)
    %cst_3 = arith.constant dense<4> : tensor<16x1xi32> loc(#loc1)
    %cst_4 = arith.constant dense<3> : tensor<16x1xi32> loc(#loc1)
    %cst_5 = arith.constant dense<2> : tensor<16x1xi32> loc(#loc1)
    %cst_6 = arith.constant dense<1> : tensor<16x1xi32> loc(#loc1)
    %c16_i32 = arith.constant 16 : i32 loc(#loc1)
    %c2_i32 = arith.constant 2 : i32 loc(#loc1)
    %0 = tt.get_program_id x : i32 loc(#loc2)
    %1 = arith.muli %arg4, %c2_i32 : i32 loc(#loc3)
    %2 = arith.subi %arg2, %1 : i32 loc(#loc4)
    %3 = arith.addi %2, %c15_i32 : i32 loc(#loc100)
    %4 = arith.divsi %3, %c16_i32 : i32 loc(#loc101)
    %5 = arith.divsi %0, %4 : i32 loc(#loc8)
    %6 = arith.remsi %0, %4 : i32 loc(#loc9)
    %7 = arith.muli %5, %c16_i32 : i32 loc(#loc10)
    %8 = tt.make_range {end = 16 : i32, start = 0 : i32} : tensor<16xi32> loc(#loc11)
    %9 = tt.splat %7 : i32 -> tensor<16xi32> loc(#loc12)
    %10 = arith.addi %9, %8 : tensor<16xi32> loc(#loc12)
    %11 = arith.muli %6, %c16_i32 : i32 loc(#loc13)
    %12 = tt.make_range {end = 16 : i32, start = 0 : i32} : tensor<16xi32> loc(#loc14)
    %13 = tt.splat %11 : i32 -> tensor<16xi32> loc(#loc15)
    %14 = arith.addi %13, %12 : tensor<16xi32> loc(#loc15)
    %15 = arith.muli %5, %c16_i32 : i32 loc(#loc16)
    %16 = tt.make_range {end = 16 : i32, start = 0 : i32} : tensor<16xi32> loc(#loc17)
    %17 = tt.splat %15 : i32 -> tensor<16xi32> loc(#loc18)
    %18 = arith.addi %17, %16 : tensor<16xi32> loc(#loc18)
    %19 = arith.muli %6, %c16_i32 : i32 loc(#loc19)
    %20 = tt.make_range {end = 16 : i32, start = 0 : i32} : tensor<16xi32> loc(#loc20)
    %21 = tt.splat %19 : i32 -> tensor<16xi32> loc(#loc21)
    %22 = arith.addi %21, %20 : tensor<16xi32> loc(#loc21)
    %23 = tt.expand_dims %18 {axis = 1 : i32} : tensor<16xi32> -> tensor<16x1xi32> loc(#loc22)
    %24 = tt.splat %arg3 : i32 -> tensor<16x1xi32> loc(#loc23)
    %25 = arith.muli %23, %24 : tensor<16x1xi32> loc(#loc23)
    %26 = tt.expand_dims %22 {axis = 0 : i32} : tensor<16xi32> -> tensor<1x16xi32> loc(#loc24)
    %27 = tt.broadcast %25 : tensor<16x1xi32> -> tensor<16x16xi32> loc(#loc24)
    %28 = tt.broadcast %26 : tensor<1x16xi32> -> tensor<16x16xi32> loc(#loc24)
    %29 = arith.addi %27, %28 : tensor<16x16xi32> loc(#loc24)
    %30 = tt.splat %arg4 : i32 -> tensor<16x16xi32> loc(#loc25)
    %31 = arith.addi %29, %30 : tensor<16x16xi32> loc(#loc25)
    %32 = tt.splat %arg0 : !tt.ptr<f16> -> tensor<16x16x!tt.ptr<f16>> loc(#loc26)
    %33 = tt.addptr %32, %31 : tensor<16x16x!tt.ptr<f16>>, tensor<16x16xi32> loc(#loc26)
    %34 = tt.load %33 : tensor<16x16x!tt.ptr<f16>> loc(#loc27)
    %35 = arith.addf %34, %cst : tensor<16x16xf16> loc(#loc28)
    %36 = tt.expand_dims %18 {axis = 1 : i32} : tensor<16xi32> -> tensor<16x1xi32> loc(#loc29)
    %37 = arith.addi %36, %cst_6 : tensor<16x1xi32> loc(#loc30)
    %38 = tt.splat %arg3 : i32 -> tensor<16x1xi32> loc(#loc31)
    %39 = arith.muli %37, %38 : tensor<16x1xi32> loc(#loc31)
    %40 = tt.expand_dims %22 {axis = 0 : i32} : tensor<16xi32> -> tensor<1x16xi32> loc(#loc32)
    %41 = tt.broadcast %39 : tensor<16x1xi32> -> tensor<16x16xi32> loc(#loc32)
    %42 = tt.broadcast %40 : tensor<1x16xi32> -> tensor<16x16xi32> loc(#loc32)
    %43 = arith.addi %41, %42 : tensor<16x16xi32> loc(#loc32)
    %44 = tt.splat %arg4 : i32 -> tensor<16x16xi32> loc(#loc33)
    %45 = arith.addi %43, %44 : tensor<16x16xi32> loc(#loc33)
    %46 = tt.splat %arg0 : !tt.ptr<f16> -> tensor<16x16x!tt.ptr<f16>> loc(#loc34)
    %47 = tt.addptr %46, %45 : tensor<16x16x!tt.ptr<f16>>, tensor<16x16xi32> loc(#loc34)
    %48 = tt.load %47 : tensor<16x16x!tt.ptr<f16>> loc(#loc35)
    %49 = arith.addf %35, %48 : tensor<16x16xf16> loc(#loc36)
    %50 = tt.expand_dims %18 {axis = 1 : i32} : tensor<16xi32> -> tensor<16x1xi32> loc(#loc37)
    %51 = arith.addi %50, %cst_5 : tensor<16x1xi32> loc(#loc38)
    %52 = tt.splat %arg3 : i32 -> tensor<16x1xi32> loc(#loc39)
    %53 = arith.muli %51, %52 : tensor<16x1xi32> loc(#loc39)
    %54 = tt.expand_dims %22 {axis = 0 : i32} : tensor<16xi32> -> tensor<1x16xi32> loc(#loc40)
    %55 = tt.broadcast %53 : tensor<16x1xi32> -> tensor<16x16xi32> loc(#loc40)
    %56 = tt.broadcast %54 : tensor<1x16xi32> -> tensor<16x16xi32> loc(#loc40)
    %57 = arith.addi %55, %56 : tensor<16x16xi32> loc(#loc40)
    %58 = tt.splat %arg4 : i32 -> tensor<16x16xi32> loc(#loc41)
    %59 = arith.addi %57, %58 : tensor<16x16xi32> loc(#loc41)
    %60 = tt.splat %arg0 : !tt.ptr<f16> -> tensor<16x16x!tt.ptr<f16>> loc(#loc42)
    %61 = tt.addptr %60, %59 : tensor<16x16x!tt.ptr<f16>>, tensor<16x16xi32> loc(#loc42)
    %62 = tt.load %61 : tensor<16x16x!tt.ptr<f16>> loc(#loc43)
    %63 = arith.addf %49, %62 : tensor<16x16xf16> loc(#loc44)
    %64 = tt.expand_dims %18 {axis = 1 : i32} : tensor<16xi32> -> tensor<16x1xi32> loc(#loc45)
    %65 = arith.addi %64, %cst_4 : tensor<16x1xi32> loc(#loc46)
    %66 = tt.splat %arg3 : i32 -> tensor<16x1xi32> loc(#loc47)
    %67 = arith.muli %65, %66 : tensor<16x1xi32> loc(#loc47)
    %68 = tt.expand_dims %22 {axis = 0 : i32} : tensor<16xi32> -> tensor<1x16xi32> loc(#loc48)
    %69 = tt.broadcast %67 : tensor<16x1xi32> -> tensor<16x16xi32> loc(#loc48)
    %70 = tt.broadcast %68 : tensor<1x16xi32> -> tensor<16x16xi32> loc(#loc48)
    %71 = arith.addi %69, %70 : tensor<16x16xi32> loc(#loc48)
    %72 = tt.splat %arg4 : i32 -> tensor<16x16xi32> loc(#loc49)
    %73 = arith.addi %71, %72 : tensor<16x16xi32> loc(#loc49)
    %74 = tt.splat %arg0 : !tt.ptr<f16> -> tensor<16x16x!tt.ptr<f16>> loc(#loc50)
…
    %111 = llvm.add %109, %71 : i32 loc(#loc30)
    %112 = llvm.add %110, %arg4 : i32 loc(#loc31)
    %113 = llvm.add %111, %arg4 : i32 loc(#loc31)
    %114 = llvm.getelementptr %arg0[%112] : (!llvm.ptr<1>, i32) -> !llvm.ptr<1>, f16 loc(#loc32)
    %115 = llvm.getelementptr %arg0[%113] : (!llvm.ptr<1>, i32) -> !llvm.ptr<1>, f16 loc(#loc32)
    %116 = llvm.inline_asm has_side_effects asm_dialect = att operand_attrs = [] "mov.u16 $0, 0x0;\0A\09@$2 ld.global.b16 { $0 }, [ $1 + 0 ];", "=c,l,b" %114, %0 : (!llvm.ptr<1>, i1) -> i16 loc(#loc33)
    %117 = llvm.bitcast %116 : i16 to vector<1xf16> loc(#loc33)
    %118 = llvm.extractelement %117[%4 : i32] : vector<1xf16> loc(#loc33)
    %119 = llvm.inline_asm has_side_effects asm_dialect = att operand_attrs = [] "mov.u16 $0, 0x0;\0A\09@$2 ld.global.b16 { $0 }, [ $1 + 0 ];", "=c,l,b" %115, %0 : (!llvm.ptr<1>, i1) -> i16 loc(#loc33)
    %120 = llvm.bitcast %119 : i16 to vector<1xf16> loc(#loc33)
    %121 = llvm.extractelement %120[%4 : i32] : vector<1xf16> loc(#loc33)
    %122 = llvm.fadd %104, %118  : f16 loc(#loc34)
    %123 = llvm.fadd %105, %121  : f16 loc(#loc34)
    %124 = llvm.add %68, %6 : i32 loc(#loc35)
    %125 = llvm.add %69, %6 : i32 loc(#loc35)
    %126 = llvm.mul %124, %arg3 : i32 loc(#loc36)
    %127 = llvm.mul %125, %arg3 : i32 loc(#loc36)
    %128 = llvm.add %126, %71 : i32 loc(#loc37)
    %129 = llvm.add %127, %71 : i32 loc(#loc37)
    %130 = llvm.add %128, %arg4 : i32 loc(#loc38)
    %131 = llvm.add %129, %arg4 : i32 loc(#loc38)
    %132 = llvm.getelementptr %arg0[%130] : (!llvm.ptr<1>, i32) -> !llvm.ptr<1>, f16 loc(#loc39)
    %133 = llvm.getelementptr %arg0[%131] : (!llvm.ptr<1>, i32) -> !llvm.ptr<1>, f16 loc(#loc39)
    %134 = llvm.inline_asm has_side_effects asm_dialect = att operand_attrs = [] "mov.u16 $0, 0x0;\0A\09@$2 ld.global.b16 { $0 }, [ $1 + 0 ];", "=c,l,b" %132, %0 : (!llvm.ptr<1>, i1) -> i16 loc(#loc40)
    %135 = llvm.bitcast %134 : i16 to vector<1xf16> loc(#loc40)
    %136 = llvm.extractelement %135[%4 : i32] : vector<1xf16> loc(#loc40)
    %137 = llvm.inline_asm has_side_effects asm_dialect = att operand_attrs = [] "mov.u16 $0, 0x0;\0A\09@$2 ld.global.b16 { $0 }, [ $1 + 0 ];", "=c,l,b" %133, %0 : (!llvm.ptr<1>, i1) -> i16 loc(#loc40)
    %138 = llvm.bitcast %137 : i16 to vector<1xf16> loc(#loc40)
    %139 = llvm.extractelement %138[%4 : i32] : vector<1xf16> loc(#loc40)
    %140 = llvm.fadd %122, %136  : f16 loc(#loc41)
    %141 = llvm.fadd %123, %139  : f16 loc(#loc41)
    %142 = llvm.add %68, %7 : i32 loc(#loc42)
    %143 = llvm.add %69, %7 : i32 loc(#loc42)
    %144 = llvm.mul %142, %arg3 : i32 loc(#loc43)
    %145 = llvm.mul %143, %arg3 : i32 loc(#loc43)
    %146 = llvm.add %144, %71 : i32 loc(#loc44)
    %147 = llvm.add %145, %71 : i32 loc(#loc44)
    %148 = llvm.add %146, %arg4 : i32 loc(#loc45)
    %149 = llvm.add %147, %arg4 : i32 loc(#loc45)
    %150 = llvm.getelementptr %arg0[%148] : (!llvm.ptr<1>, i32) -> !llvm.ptr<1>, f16 loc(#loc46)
    %151 = llvm.getelementptr %arg0[%149] : (!llvm.ptr<1>, i32) -> !llvm.ptr<1>, f16 loc(#loc46)
    %152 = llvm.inline_asm has_side_effects asm_dialect = att operand_attrs = [] "mov.u16 $0, 0x0;\0A\09@$2 ld.global.b16 { $0 }, [ $1 + 0 ];", "=c,l,b" %150, %0 : (!llvm.ptr<1>, i1) -> i16 loc(#loc47)
    %153 = llvm.bitcast %152 : i16 to vector<1xf16> loc(#loc47)
    %154 = llvm.extractelement %153[%4 : i32] : vector<1xf16> loc(#loc47)
    %155 = llvm.inline_asm has_side_effects asm_dialect = att operand_attrs = [] "mov.u16 $0, 0x0;\0A\09@$2 ld.global.b16 { $0 }, [ $1 + 0 ];", "=c,l,b" %151, %0 : (!llvm.ptr<1>, i1) -> i16 loc(#loc47)
    %156 = llvm.bitcast %155 : i16 to vector<1xf16> loc(#loc47)
    %157 = llvm.extractelement %156[%4 : i32] : vector<1xf16> loc(#loc47)
    %158 = llvm.fadd %140, %154  : f16 loc(#loc48)
    %159 = llvm.fadd %141, %157  : f16 loc(#loc48)
    %160 = llvm.add %68, %arg4 : i32 loc(#loc49)
    %161 = llvm.add %69, %arg4 : i32 loc(#loc49)
    %162 = llvm.mul %160, %arg3 : i32 loc(#loc50)
    %163 = llvm.mul %161, %arg3 : i32 loc(#loc50)
    %164 = llvm.add %162, %71 : i32 loc(#loc51)
    %165 = llvm.add %163, %71 : i32 loc(#loc51)
    %166 = llvm.getelementptr %arg0[%164] : (!llvm.ptr<1>, i32) -> !llvm.ptr<1>, f16 loc(#loc52)
    %167 = llvm.getelementptr %arg0[%165] : (!llvm.ptr<1>, i32) -> !llvm.ptr<1>, f16 loc(#loc52)
    %168 = llvm.inline_asm has_side_effects asm_dialect = att operand_attrs = [] "mov.u16 $0, 0x0;\0A\09@$2 ld.global.b16 { $0 }, [ $1 + 0 ];", "=c,l,b" %166, %0 : (!llvm.ptr<1>, i1) -> i16 loc(#loc53)
    %169 = llvm.bitcast %168 : i16 to vector<1xf16> loc(#loc53)
    %170 = llvm.extractelement %169[%4 : i32] : vector<1xf16> loc(#loc53)
    %171 = llvm.inline_asm has_side_effects asm_dialect = att operand_attrs = [] "mov.u16 $0, 0x0;\0A\09@$2 ld.global.b16 { $0 }, [ $1 + 0 ];", "=c,l,b" %167, %0 : (!llvm.ptr<1>, i1) -> i16 loc(#loc53)
    %172 = llvm.bitcast %171 : i16 to vector<1xf16> loc(#loc53)
    %173 = llvm.extractelement %172[%4 : i32] : vector<1xf16> loc(#loc53)
    %174 = llvm.fadd %158, %170  : f16 loc(#loc54)
    %175 = llvm.fadd %159, %173  : f16 loc(#loc54)
    %176 = llvm.add %164, %5 : i32 loc(#loc55)
    %177 = llvm.add %165, %5 : i32 loc(#loc55)
    %178 = llvm.getelementptr %arg0[%176] : (!llvm.ptr<1>, i32) -> !llvm.ptr<1>, f16 loc(#loc56)
    %179 = llvm.getelementptr %arg0[%177] : (!llvm.ptr<1>, i32) -> !llvm.ptr<1>, f16 loc(#loc56)
    %180 = llvm.inline_asm has_side_effects asm_dialect = att operand_attrs = [] "mov.u16 $0, 0x0;\0A\09@$2 ld.global.b16 { $0 }, [ $1 + 0 ];", "=c,l,b" %178, %0 : (!llvm.ptr<1>, i1) -> i16 loc(#loc57)
    %181 = llvm.bitcast %180 : i16 to vector<1xf16> loc(#loc57)
    %182 = llvm.extractelement %181[%4 : i32] : vector<1xf16> loc(#loc57)
    %183 = llvm.inline_asm has_side_effects asm_dialect = att operand_attrs = [] "mov.u16 $0, 0x0;\0A\09@$2 ld.global.b16 { $0 }, [ $1 + 0 ];", "=c,l,b" %179, %0 : (!llvm.ptr<1>, i1) -> i16 loc(#loc57)
    %184 = llvm.bitcast %183 : i16 to vector<1xf16> loc(#loc57)
    %185 = llvm.extractelement %184[%4 : i32] : vector<1xf16> loc(#loc57)
    %186 = llvm.fadd %174, %182  : f16 loc(#loc58)
    %187 = llvm.fadd %175, %185  : f16 loc(#loc58)
    %188 = llvm.add %164, %6 : i32 loc(#loc59)
    %189 = llvm.add %165, %6 : i32 loc(#loc59)
    %190 = llvm.getelementptr %arg0[%188] : (!llvm.ptr<1>, i32) -> !llvm.ptr<1>, f16 loc(#loc60)
    %191 = llvm.getelementptr %arg0[%189] : (!llvm.ptr<1>, i32) -> !llvm.ptr<1>, f16 loc(#loc60)
    %192 = llvm.inline_asm has_side_effects asm_dialect = att operand_attrs = [] "mov.u16 $0, 0x0;\0A\09@$2 ld.global.b16 { $0 }, [ $1 + 0 ];", "=c,l,b" %190, %0 : (!llvm.ptr<1>, i1) -> i16 loc(#loc61)
    %193 = llvm.bitcast %192 : i16 to vector<1xf16> loc(#loc61)
    %194 = llvm.extractelement %193[%4 : i32] : vector<1xf16> loc(#loc61)
    %195 = llvm.inline_asm has_side_effects asm_dialect = att operand_attrs = [] "mov.u16 $0, 0x0;\0A\09@$2 ld.global.b16 { $0 }, [ $1 + 0 ];", "=c,l,b" %191, %0 : (!llvm.ptr<1>, i1) -> i16 loc(#loc61)
    %196 = llvm.bitcast %195 : i16 to vector<1xf16> loc(#loc61)
    %197 = llvm.extractelement %196[%4 : i32] : vector<1xf16> loc(#loc61)
    %198 = llvm.fadd %186, %194  : f16 loc(#loc62)
    %199 = llvm.fadd %187, %197  : f16 loc(#loc62)
    %200 = llvm.add %164, %7 : i32 loc(#loc63)
    %201 = llvm.add %165, %7 : i32 loc(#loc63)
    %202 = llvm.getelementptr %arg0[%200] : (!llvm.ptr<1>, i32) -> !llvm.ptr<1>, f16 loc(#loc64)
    %203 = llvm.getelementptr %arg0[%201] : (!llvm.ptr<1>, i32) -> !llvm.ptr<1>, f16 loc(#loc64)
    %204 = llvm.inline_asm has_side_effects asm_dialect = att operand_attrs = [] "mov.u16 $0, 0x0;\0A\09@$2 ld.global.b16 { $0 }, [ $1 + 0 ];", "=c,l,b" %202, %0 : (!llvm.ptr<1>, i1) -> i16 loc(#loc65)
    %205 = llvm.bitcast %204 : i16 to vector<1xf16> loc(#loc65)
    %206 = llvm.extractelement %205[%4 : i32] : vector<1xf16> loc(#loc65)
    %207 = llvm.inline_asm has_side_effects asm_dialect = att operand_attrs = [] "mov.u16 $0, 0x0;\0A\09@$2 ld.global.b16 { $0 }, [ $1 + 0 ];", "=c,l,b" %203, %0 : (!llvm.ptr<1>, i1) -> i16 loc(#loc65)
    %208 = llvm.bitcast %207 : i16 to vector<1xf16> loc(#loc65)
    %209 = llvm.extractelement %208[%4 : i32] : vector<1xf16> loc(#loc65)
    %210 = llvm.fadd %198, %206  : f16 loc(#loc66)
    %211 = llvm.fadd %199, %209  : f16 loc(#loc66)
    %212 = llvm.add %164, %arg4 : i32 loc(#loc67)
    %213 = llvm.add %165, %arg4 : i32 loc(#loc67)
    %214 = llvm.getelementptr %arg1[%212] : (!llvm.ptr<1>, i32) -> !llvm.ptr<1>, f16 loc(#loc68)
    %215 = llvm.getelementptr %arg1[%213] : (!llvm.ptr<1>, i32) -> !llvm.ptr<1>, f16 loc(#loc68)
    %216 = llvm.mlir.undef : vector<1xf16> loc(#loc69)
    %217 = llvm.insertelement %210, %216[%2 : i32] : vector<1xf16> loc(#loc69)
    %218 = llvm.bitcast %217 : vector<1xf16> to i16 loc(#loc69)
    %219 = llvm.inline_asm has_side_effects asm_dialect = att operand_attrs = [] "@$2 st.global.b16 [ $1 + 0 ], { $0 };", "c,l,b" %218, %214, %0 : (i16, !llvm.ptr<1>, i1) -> !llvm.void loc(#loc69)
    %220 = llvm.mlir.undef : vector<1xf16> loc(#loc69)
    %221 = llvm.insertelement %211, %220[%2 : i32] : vector<1xf16> loc(#loc69)
    %222 = llvm.bitcast %221 : vector<1xf16> to i16 loc(#loc69)
    %223 = llvm.inline_asm has_side_effects asm_dialect = att operand_attrs = [] "@$2 st.global.b16 [ $1 + 0 ], { $0 };", "c,l,b" %222, %215, %0 : (i16, !llvm.ptr<1>, i1) -> !llvm.void loc(#loc69)
    llvm.return loc(#loc70)
  } loc(#loc)
} loc(#loc)
#loc1 = loc(unknown)
#loc2 = loc("2d9pt_naive.py":30:10)
#loc3 = loc("2d9pt_naive.py":31:28)
#loc4 = loc("2d9pt_naive.py":31:26)
#loc5 = loc("/usr/local/lib/python3.8/dist-packages/triton/language/standard.py":44:22)
#loc6 = loc("2d9pt_naive.py":31:31)
#loc7 = loc("/usr/local/lib/python3.8/dist-packages/triton/language/standard.py":44:28)
#loc8 = loc("2d9pt_naive.py":34:19)
#loc9 = loc("2d9pt_naive.py":35:18)
#loc10 = loc("2d9pt_naive.py":39:22)
#loc11 = loc("2d9pt_naive.py":39:50)
#loc12 = loc("2d9pt_naive.py":39:37)
#loc13 = loc("2d9pt_naive.py":40:22)
#loc14 = loc("2d9pt_naive.py":40:37)
#loc15 = loc("2d9pt_naive.py":50:36)
#loc16 = loc("2d9pt_naive.py":50:40)
#loc17 = loc("2d9pt_naive.py":50:56)
#loc18 = loc("2d9pt_naive.py":50:18)
#loc19 = loc("2d9pt_naive.py":51:21)
#loc20 = loc("2d9pt_naive.py":52:22)
#loc21 = loc("2d9pt_naive.py":54:37)
#loc22 = loc("2d9pt_naive.py":54:40)
#loc23 = loc("2d9pt_naive.py":54:44)
#loc24 = loc("2d9pt_naive.py":54:60)
#loc25 = loc("2d9pt_naive.py":54:18)
#loc26 = loc("2d9pt_naive.py":55:21)
#loc27 = loc("2d9pt_naive.py":56:22)
#loc28 = loc("2d9pt_naive.py":58:37)
#loc29 = loc("2d9pt_naive.py":58:40)
#loc30 = loc("2d9pt_naive.py":58:44)
#loc31 = loc("2d9pt_naive.py":58:60)
#loc32 = loc("2d9pt_naive.py":58:18)
#loc33 = loc("2d9pt_naive.py":59:21)
#loc34 = loc("2d9pt_naive.py":60:22)
#loc35 = loc("2d9pt_naive.py":62:37)
#loc36 = loc("2d9pt_naive.py":62:40)
#loc37 = loc("2d9pt_naive.py":62:44)
#loc38 = loc("2d9pt_naive.py":62:60)
#loc39 = loc("2d9pt_naive.py":62:18)
#loc40 = loc("2d9pt_naive.py":63:21)
#loc41 = loc("2d9pt_naive.py":64:22)
#loc42 = loc("2d9pt_naive.py":66:37)
#loc43 = loc("2d9pt_naive.py":66:40)
#loc44 = loc("2d9pt_naive.py":66:44)
#loc45 = loc("2d9pt_naive.py":66:60)
#loc46 = loc("2d9pt_naive.py":66:18)
#loc47 = loc("2d9pt_naive.py":67:21)
#loc48 = loc("2d9pt_naive.py":68:22)
#loc49 = loc("2d9pt_naive.py":71:37)
#loc50 = loc("2d9pt_naive.py":71:40)
#loc51 = loc("2d9pt_naive.py":71:44)
#loc52 = loc("2d9pt_naive.py":71:18)
#loc53 = loc("2d9pt_naive.py":72:21)
#loc54 = loc("2d9pt_naive.py":73:22)
#loc55 = loc("2d9pt_naive.py":75:62)
#loc56 = loc("2d9pt_naive.py":75:18)
#loc57 = loc("2d9pt_naive.py":76:21)
#loc58 = loc("2d9pt_naive.py":77:22)
#loc59 = loc("2d9pt_naive.py":79:62)
#loc60 = loc("2d9pt_naive.py":79:18)
#loc61 = loc("2d9pt_naive.py":80:21)
#loc62 = loc("2d9pt_naive.py":81:22)
#loc63 = loc("2d9pt_naive.py":83:62)
#loc64 = loc("2d9pt_naive.py":83:18)
#loc65 = loc("2d9pt_naive.py":84:21)
#loc66 = loc("2d9pt_naive.py":85:22)
#loc67 = loc("2d9pt_naive.py":87:60)
#loc68 = loc("2d9pt_naive.py":87:18)
#loc69 = loc("2d9pt_naive.py":88:21)
#loc70 = loc("2d9pt_naive.py":88:4)
#loc71 = loc(callsite(#loc5 at #loc6))
#loc72 = loc(callsite(#loc7 at #loc6))


// -----// IR Dump Before SymbolDCE (symbol-dce) ('builtin.module' operation) //----- //
#loc = loc("2d9pt_naive.py":18:0)
module attributes {"triton_gpu.num-ctas" = 1 : i32, "triton_gpu.num-warps" = 4 : i32, triton_gpu.shared = 0 : i32, triton_gpu.target = "cuda:70", "triton_gpu.threads-per-warp" = 32 : i32} {
  llvm.mlir.global external @global_smem() {addr_space = 3 : i32, alignment = 16 : i64} : !llvm.array<0 x i8> loc(#loc)
  llvm.func @stencil_kernel(%arg0: !llvm.ptr<1> {tt.divisibility = 16 : i32} loc("2d9pt_naive.py":18:0), %arg1: !llvm.ptr<1> {tt.divisibility = 16 : i32} loc("2d9pt_naive.py":18:0), %arg2: i32 loc("2d9pt_naive.py":18:0), %arg3: i32 loc("2d9pt_naive.py":18:0), %arg4: i32 loc("2d9pt_naive.py":18:0)) attributes {noinline = false, nvvm.kernel = 1 : ui1, nvvm.maxntid = array<i32: 128>} {
    %0 = llvm.mlir.constant(true) : i1 loc(#loc1)
    %1 = llvm.mlir.constant(8 : i32) : i32 loc(#loc1)
    %2 = llvm.mlir.constant(0 : i32) : i32 loc(#loc1)
    %3 = llvm.mlir.constant(32 : i32) : i32 loc(#loc1)
    %4 = llvm.mlir.constant(0 : index) : i32 loc(#loc1)
    %5 = llvm.mlir.constant(1 : i32) : i32 loc(#loc1)
    %6 = llvm.mlir.constant(3 : i32) : i32 loc(#loc1)
    %7 = llvm.mlir.constant(4 : i32) : i32 loc(#loc1)
    %8 = llvm.mlir.constant(15 : i32) : i32 loc(#loc1)
    %9 = llvm.mlir.constant(0.000000e+00 : f16) : f16 loc(#loc1)
    %10 = llvm.mlir.constant(16 : i32) : i32 loc(#loc1)
    %11 = llvm.mlir.constant(2 : i32) : i32 loc(#loc1)
    %12 = llvm.inline_asm asm_dialect = att operand_attrs = [] "mov.u32 $0, %ctaid.x;", "=r"  : () -> i32 loc(#loc2)
    %13 = llvm.mul %arg4, %11 : i32 loc(#loc3)
    %14 = llvm.sub %arg2, %13 : i32 loc(#loc4)
    %15 = llvm.add %14, %8 : i32 loc(#loc71)
    %16 = llvm.sdiv %15, %10  : i32 loc(#loc72)
    %17 = llvm.sdiv %12, %16  : i32 loc(#loc8)
    %18 = llvm.srem %12, %16  : i32 loc(#loc9)
    %19 = llvm.mul %17, %10 : i32 loc(#loc10)
    %20 = nvvm.read.ptx.sreg.tid.x : i32 loc(#loc11)
    %21 = llvm.urem %20, %3  : i32 loc(#loc11)
    %22 = llvm.udiv %20, %3  : i32 loc(#loc11)
    %23 = llvm.and %21, %10  : i32 loc(#loc11)
    %24 = llvm.icmp "eq" %23, %2 : i32 loc(#loc11)
    %25 = llvm.select %24, %2, %5 : i1, i32 loc(#loc11)
    %26 = llvm.xor %2, %25  : i32 loc(#loc11)
    %27 = llvm.and %22, %5  : i32 loc(#loc11)
    %28 = llvm.icmp "eq" %27, %2 : i32 loc(#loc11)
    %29 = llvm.select %28, %2, %11 : i1, i32 loc(#loc11)
    %30 = llvm.xor %26, %29  : i32 loc(#loc11)
    %31 = llvm.and %22, %11  : i32 loc(#loc11)
    %32 = llvm.icmp "eq" %31, %2 : i32 loc(#loc11)
    %33 = llvm.select %32, %2, %7 : i1, i32 loc(#loc11)
    %34 = llvm.xor %30, %33  : i32 loc(#loc11)
    %35 = llvm.xor %1, %25  : i32 loc(#loc11)
    %36 = llvm.xor %35, %29  : i32 loc(#loc11)
    %37 = llvm.xor %36, %33  : i32 loc(#loc11)
    %38 = llvm.add %34, %4 : i32 loc(#loc11)
    %39 = llvm.add %37, %4 : i32 loc(#loc11)
    %40 = llvm.and %21, %5  : i32 loc(#loc11)
    %41 = llvm.icmp "eq" %40, %2 : i32 loc(#loc11)
    %42 = llvm.select %41, %2, %5 : i1, i32 loc(#loc11)
    %43 = llvm.xor %2, %42  : i32 loc(#loc11)
    %44 = llvm.and %21, %11  : i32 loc(#loc11)
    %45 = llvm.icmp "eq" %44, %2 : i32 loc(#loc11)
    %46 = llvm.select %45, %2, %11 : i1, i32 loc(#loc11)
    %47 = llvm.xor %43, %46  : i32 loc(#loc11)
    %48 = llvm.and %21, %7  : i32 loc(#loc11)
    %49 = llvm.icmp "eq" %48, %2 : i32 loc(#loc11)
    %50 = llvm.select %49, %2, %7 : i1, i32 loc(#loc11)
    %51 = llvm.xor %47, %50  : i32 loc(#loc11)
    %52 = llvm.and %21, %1  : i32 loc(#loc11)
    %53 = llvm.icmp "eq" %52, %2 : i32 loc(#loc11)
    %54 = llvm.select %53, %2, %1 : i1, i32 loc(#loc11)
    %55 = llvm.xor %51, %54  : i32 loc(#loc11)
    %56 = llvm.add %55, %4 : i32 loc(#loc11)
    %57 = llvm.add %19, %38 : i32 loc(#loc12)
    %58 = llvm.add %19, %39 : i32 loc(#loc12)
    %59 = llvm.mul %18, %10 : i32 loc(#loc13)
    %60 = llvm.add %59, %56 : i32 loc(#loc14)
    %61 = llvm.mul %57, %arg3 : i32 loc(#loc15)
    %62 = llvm.mul %58, %arg3 : i32 loc(#loc15)
    %63 = llvm.add %61, %60 : i32 loc(#loc16)
    %64 = llvm.add %62, %60 : i32 loc(#loc16)
    %65 = llvm.add %63, %arg4 : i32 loc(#loc17)
    %66 = llvm.add %64, %arg4 : i32 loc(#loc17)
    %67 = llvm.getelementptr %arg0[%65] : (!llvm.ptr<1>, i32) -> !llvm.ptr<1>, f16 loc(#loc18)
    %68 = llvm.getelementptr %arg0[%66] : (!llvm.ptr<1>, i32) -> !llvm.ptr<1>, f16 loc(#loc18)
    %69 = llvm.inline_asm has_side_effects asm_dialect = att operand_attrs = [] "mov.u16 $0, 0x0;\0A\09@$2 ld.global.b16 { $0 }, [ $1 + 0 ];", "=c,l,b" %67, %0 : (!llvm.ptr<1>, i1) -> i16 loc(#loc19)
    %70 = llvm.bitcast %69 : i16 to vector<1xf16> loc(#loc19)
    %71 = llvm.extractelement %70[%4 : i32] : vector<1xf16> loc(#loc19)
    %72 = llvm.inline_asm has_side_effects asm_dialect = att operand_attrs = [] "mov.u16 $0, 0x0;\0A\09@$2 ld.global.b16 { $0 }, [ $1 + 0 ];", "=c,l,b" %68, %0 : (!llvm.ptr<1>, i1) -> i16 loc(#loc19)
    %73 = llvm.bitcast %72 : i16 to vector<1xf16> loc(#loc19)
    %74 = llvm.extractelement %73[%4 : i32] : vector<1xf16> loc(#loc19)
    %75 = llvm.fadd %71, %9  : f16 loc(#loc20)
    %76 = llvm.fadd %74, %9  : f16 loc(#loc20)
    %77 = llvm.add %57, %5 : i32 loc(#loc21)
    %78 = llvm.add %58, %5 : i32 loc(#loc21)
    %79 = llvm.mul %77, %arg3 : i32 loc(#loc22)
    %80 = llvm.mul %78, %arg3 : i32 loc(#loc22)
    %81 = llvm.add %79, %60 : i32 loc(#loc23)
    %82 = llvm.add %80, %60 : i32 loc(#loc23)
    %83 = llvm.add %81, %arg4 : i32 loc(#loc24)
    %84 = llvm.add %82, %arg4 : i32 loc(#loc24)
    %85 = llvm.getelementptr %arg0[%83] : (!llvm.ptr<1>, i32) -> !llvm.ptr<1>, f16 loc(#loc25)
    %86 = llvm.getelementptr %arg0[%84] : (!llvm.ptr<1>, i32) -> !llvm.ptr<1>, f16 loc(#loc25)
    %87 = llvm.inline_asm has_side_effects asm_dialect = att operand_attrs = [] "mov.u16 $0, 0x0;\0A\09@$2 ld.global.b16 { $0 }, [ $1 + 0 ];", "=c,l,b" %85, %0 : (!llvm.ptr<1>, i1) -> i16 loc(#loc26)
    %88 = llvm.bitcast %87 : i16 to vector<1xf16> loc(#loc26)
    %89 = llvm.extractelement %88[%4 : i32] : vector<1xf16> loc(#loc26)
    %90 = llvm.inline_asm has_side_effects asm_dialect = att operand_attrs = [] "mov.u16 $0, 0x0;\0A\09@$2 ld.global.b16 { $0 }, [ $1 + 0 ];", "=c,l,b" %86, %0 : (!llvm.ptr<1>, i1) -> i16 loc(#loc26)
    %91 = llvm.bitcast %90 : i16 to vector<1xf16> loc(#loc26)
    %92 = llvm.extractelement %91[%4 : i32] : vector<1xf16> loc(#loc26)
    %93 = llvm.fadd %75, %89  : f16 loc(#loc27)
    %94 = llvm.fadd %76, %92  : f16 loc(#loc27)
    %95 = llvm.add %57, %11 : i32 loc(#loc28)
    %96 = llvm.add %58, %11 : i32 loc(#loc28)
    %97 = llvm.mul %95, %arg3 : i32 loc(#loc29)
    %98 = llvm.mul %96, %arg3 : i32 loc(#loc29)
    %99 = llvm.add %97, %60 : i32 loc(#loc30)
    %100 = llvm.add %98, %60 : i32 loc(#loc30)
    %101 = llvm.add %99, %arg4 : i32 loc(#loc31)
    %102 = llvm.add %100, %arg4 : i32 loc(#loc31)
    %103 = llvm.getelementptr %arg0[%101] : (!llvm.ptr<1>, i32) -> !llvm.ptr<1>, f16 loc(#loc32)
    %104 = llvm.getelementptr %arg0[%102] : (!llvm.ptr<1>, i32) -> !llvm.ptr<1>, f16 loc(#loc32)
    %105 = llvm.inline_asm has_side_effects asm_dialect = att operand_attrs = [] "mov.u16 $0, 0x0;\0A\09@$2 ld.global.b16 { $0 }, [ $1 + 0 ];", "=c,l,b" %103, %0 : (!llvm.ptr<1>, i1) -> i16 loc(#loc33)
    %106 = llvm.bitcast %105 : i16 to vector<1xf16> loc(#loc33)
    %107 = llvm.extractelement %106[%4 : i32] : vector<1xf16> loc(#loc33)
    %108 = llvm.inline_asm has_side_effects asm_dialect = att operand_attrs = [] "mov.u16 $0, 0x0;\0A\09@$2 ld.global.b16 { $0 }, [ $1 + 0 ];", "=c,l,b" %104, %0 : (!llvm.ptr<1>, i1) -> i16 loc(#loc33)
    %109 = llvm.bitcast %108 : i16 to vector<1xf16> loc(#loc33)
    %110 = llvm.extractelement %109[%4 : i32] : vector<1xf16> loc(#loc33)
    %111 = llvm.fadd %93, %107  : f16 loc(#loc34)
    %112 = llvm.fadd %94, %110  : f16 loc(#loc34)
    %113 = llvm.add %57, %6 : i32 loc(#loc35)
    %114 = llvm.add %58, %6 : i32 loc(#loc35)
    %115 = llvm.mul %113, %arg3 : i32 loc(#loc36)
    %116 = llvm.mul %114, %arg3 : i32 loc(#loc36)
    %117 = llvm.add %115, %60 : i32 loc(#loc37)
    %118 = llvm.add %116, %60 : i32 loc(#loc37)
    %119 = llvm.add %117, %arg4 : i32 loc(#loc38)
    %120 = llvm.add %118, %arg4 : i32 loc(#loc38)
    %121 = llvm.getelementptr %arg0[%119] : (!llvm.ptr<1>, i32) -> !llvm.ptr<1>, f16 loc(#loc39)
    %122 = llvm.getelementptr %arg0[%120] : (!llvm.ptr<1>, i32) -> !llvm.ptr<1>, f16 loc(#loc39)
    %123 = llvm.inline_asm has_side_effects asm_dialect = att operand_attrs = [] "mov.u16 $0, 0x0;\0A\09@$2 ld.global.b16 { $0 }, [ $1 + 0 ];", "=c,l,b" %121, %0 : (!llvm.ptr<1>, i1) -> i16 loc(#loc40)
    %124 = llvm.bitcast %123 : i16 to vector<1xf16> loc(#loc40)
    %125 = llvm.extractelement %124[%4 : i32] : vector<1xf16> loc(#loc40)
    %126 = llvm.inline_asm has_side_effects asm_dialect = att operand_attrs = [] "mov.u16 $0, 0x0;\0A\09@$2 ld.global.b16 { $0 }, [ $1 + 0 ];", "=c,l,b" %122, %0 : (!llvm.ptr<1>, i1) -> i16 loc(#loc40)
    %127 = llvm.bitcast %126 : i16 to vector<1xf16> loc(#loc40)
    %128 = llvm.extractelement %127[%4 : i32] : vector<1xf16> loc(#loc40)
    %129 = llvm.fadd %111, %125  : f16 loc(#loc41)
    %130 = llvm.fadd %112, %128  : f16 loc(#loc41)
    %131 = llvm.add %57, %7 : i32 loc(#loc42)
    %132 = llvm.add %58, %7 : i32 loc(#loc42)
    %133 = llvm.mul %131, %arg3 : i32 loc(#loc43)
    %134 = llvm.mul %132, %arg3 : i32 loc(#loc43)
    %135 = llvm.add %133, %60 : i32 loc(#loc44)
    %136 = llvm.add %134, %60 : i32 loc(#loc44)
    %137 = llvm.add %135, %arg4 : i32 loc(#loc45)
    %138 = llvm.add %136, %arg4 : i32 loc(#loc45)
    %139 = llvm.getelementptr %arg0[%137] : (!llvm.ptr<1>, i32) -> !llvm.ptr<1>, f16 loc(#loc46)
    %140 = llvm.getelementptr %arg0[%138] : (!llvm.ptr<1>, i32) -> !llvm.ptr<1>, f16 loc(#loc46)
    %141 = llvm.inline_asm has_side_effects asm_dialect = att operand_attrs = [] "mov.u16 $0, 0x0;\0A\09@$2 ld.global.b16 { $0 }, [ $1 + 0 ];", "=c,l,b" %139, %0 : (!llvm.ptr<1>, i1) -> i16 loc(#loc47)
    %142 = llvm.bitcast %141 : i16 to vector<1xf16> loc(#loc47)
    %143 = llvm.extractelement %142[%4 : i32] : vector<1xf16> loc(#loc47)
    %144 = llvm.inline_asm has_side_effects asm_dialect = att operand_attrs = [] "mov.u16 $0, 0x0;\0A\09@$2 ld.global.b16 { $0 }, [ $1 + 0 ];", "=c,l,b" %140, %0 : (!llvm.ptr<1>, i1) -> i16 loc(#loc47)
    %145 = llvm.bitcast %144 : i16 to vector<1xf16> loc(#loc47)
    %146 = llvm.extractelement %145[%4 : i32] : vector<1xf16> loc(#loc47)
    %147 = llvm.fadd %129, %143  : f16 loc(#loc48)
    %148 = llvm.fadd %130, %146  : f16 loc(#loc48)
    %149 = llvm.add %57, %arg4 : i32 loc(#loc49)
    %150 = llvm.add %58, %arg4 : i32 loc(#loc49)
    %151 = llvm.mul %149, %arg3 : i32 loc(#loc50)
    %152 = llvm.mul %150, %arg3 : i32 loc(#loc50)
    %153 = llvm.add %151, %60 : i32 loc(#loc51)
    %154 = llvm.add %152, %60 : i32 loc(#loc51)
    %155 = llvm.getelementptr %arg0[%153] : (!llvm.ptr<1>, i32) -> !llvm.ptr<1>, f16 loc(#loc52)
    %156 = llvm.getelementptr %arg0[%154] : (!llvm.ptr<1>, i32) -> !llvm.ptr<1>, f16 loc(#loc52)
    %157 = llvm.inline_asm has_side_effects asm_dialect = att operand_attrs = [] "mov.u16 $0, 0x0;\0A\09@$2 ld.global.b16 { $0 }, [ $1 + 0 ];", "=c,l,b" %155, %0 : (!llvm.ptr<1>, i1) -> i16 loc(#loc53)
    %158 = llvm.bitcast %157 : i16 to vector<1xf16> loc(#loc53)
    %159 = llvm.extractelement %158[%4 : i32] : vector<1xf16> loc(#loc53)
    %160 = llvm.inline_asm has_side_effects asm_dialect = att operand_attrs = [] "mov.u16 $0, 0x0;\0A\09@$2 ld.global.b16 { $0 }, [ $1 + 0 ];", "=c,l,b" %156, %0 : (!llvm.ptr<1>, i1) -> i16 loc(#loc53)
    %161 = llvm.bitcast %160 : i16 to vector<1xf16> loc(#loc53)
    %162 = llvm.extractelement %161[%4 : i32] : vector<1xf16> loc(#loc53)
    %163 = llvm.fadd %147, %159  : f16 loc(#loc54)
    %164 = llvm.fadd %148, %162  : f16 loc(#loc54)
    %165 = llvm.add %153, %5 : i32 loc(#loc55)
    %166 = llvm.add %154, %5 : i32 loc(#loc55)
    %167 = llvm.getelementptr %arg0[%165] : (!llvm.ptr<1>, i32) -> !llvm.ptr<1>, f16 loc(#loc56)
    %168 = llvm.getelementptr %arg0[%166] : (!llvm.ptr<1>, i32) -> !llvm.ptr<1>, f16 loc(#loc56)
    %169 = llvm.inline_asm has_side_effects asm_dialect = att operand_attrs = [] "mov.u16 $0, 0x0;\0A\09@$2 ld.global.b16 { $0 }, [ $1 + 0 ];", "=c,l,b" %167, %0 : (!llvm.ptr<1>, i1) -> i16 loc(#loc57)
    %170 = llvm.bitcast %169 : i16 to vector<1xf16> loc(#loc57)
    %171 = llvm.extractelement %170[%4 : i32] : vector<1xf16> loc(#loc57)
    %172 = llvm.inline_asm has_side_effects asm_dialect = att operand_attrs = [] "mov.u16 $0, 0x0;\0A\09@$2 ld.global.b16 { $0 }, [ $1 + 0 ];", "=c,l,b" %168, %0 : (!llvm.ptr<1>, i1) -> i16 loc(#loc57)
    %173 = llvm.bitcast %172 : i16 to vector<1xf16> loc(#loc57)
    %174 = llvm.extractelement %173[%4 : i32] : vector<1xf16> loc(#loc57)
    %175 = llvm.fadd %163, %171  : f16 loc(#loc58)
    %176 = llvm.fadd %164, %174  : f16 loc(#loc58)
    %177 = llvm.add %153, %6 : i32 loc(#loc59)
    %178 = llvm.add %154, %6 : i32 loc(#loc59)
    %179 = llvm.getelementptr %arg0[%177] : (!llvm.ptr<1>, i32) -> !llvm.ptr<1>, f16 loc(#loc60)
    %180 = llvm.getelementptr %arg0[%178] : (!llvm.ptr<1>, i32) -> !llvm.ptr<1>, f16 loc(#loc60)
    %181 = llvm.inline_asm has_side_effects asm_dialect = att operand_attrs = [] "mov.u16 $0, 0x0;\0A\09@$2 ld.global.b16 { $0 }, [ $1 + 0 ];", "=c,l,b" %179, %0 : (!llvm.ptr<1>, i1) -> i16 loc(#loc61)
    %182 = llvm.bitcast %181 : i16 to vector<1xf16> loc(#loc61)
    %183 = llvm.extractelement %182[%4 : i32] : vector<1xf16> loc(#loc61)
    %184 = llvm.inline_asm has_side_effects asm_dialect = att operand_attrs = [] "mov.u16 $0, 0x0;\0A\09@$2 ld.global.b16 { $0 }, [ $1 + 0 ];", "=c,l,b" %180, %0 : (!llvm.ptr<1>, i1) -> i16 loc(#loc61)
    %185 = llvm.bitcast %184 : i16 to vector<1xf16> loc(#loc61)
    %186 = llvm.extractelement %185[%4 : i32] : vector<1xf16> loc(#loc61)
    %187 = llvm.fadd %175, %183  : f16 loc(#loc62)
    %188 = llvm.fadd %176, %186  : f16 loc(#loc62)
    %189 = llvm.add %153, %7 : i32 loc(#loc63)
    %190 = llvm.add %154, %7 : i32 loc(#loc63)
    %191 = llvm.getelementptr %arg0[%189] : (!llvm.ptr<1>, i32) -> !llvm.ptr<1>, f16 loc(#loc64)
    %192 = llvm.getelementptr %arg0[%190] : (!llvm.ptr<1>, i32) -> !llvm.ptr<1>, f16 loc(#loc64)
    %193 = llvm.inline_asm has_side_effects asm_dialect = att operand_attrs = [] "mov.u16 $0, 0x0;\0A\09@$2 ld.global.b16 { $0 }, [ $1 + 0 ];", "=c,l,b" %191, %0 : (!llvm.ptr<1>, i1) -> i16 loc(#loc65)
    %194 = llvm.bitcast %193 : i16 to vector<1xf16> loc(#loc65)
    %195 = llvm.extractelement %194[%4 : i32] : vector<1xf16> loc(#loc65)
    %196 = llvm.inline_asm has_side_effects asm_dialect = att operand_attrs = [] "mov.u16 $0, 0x0;\0A\09@$2 ld.global.b16 { $0 }, [ $1 + 0 ];", "=c,l,b" %192, %0 : (!llvm.ptr<1>, i1) -> i16 loc(#loc65)
    %197 = llvm.bitcast %196 : i16 to vector<1xf16> loc(#loc65)
    %198 = llvm.extractelement %197[%4 : i32] : vector<1xf16> loc(#loc65)
    %199 = llvm.fadd %187, %195  : f16 loc(#loc66)
    %200 = llvm.fadd %188, %198  : f16 loc(#loc66)
    %201 = llvm.add %153, %arg4 : i32 loc(#loc67)
    %202 = llvm.add %154, %arg4 : i32 loc(#loc67)
    %203 = llvm.getelementptr %arg1[%201] : (!llvm.ptr<1>, i32) -> !llvm.ptr<1>, f16 loc(#loc68)
    %204 = llvm.getelementptr %arg1[%202] : (!llvm.ptr<1>, i32) -> !llvm.ptr<1>, f16 loc(#loc68)
    %205 = llvm.mlir.undef : vector<1xf16> loc(#loc69)
    %206 = llvm.insertelement %199, %205[%2 : i32] : vector<1xf16> loc(#loc69)
    %207 = llvm.bitcast %206 : vector<1xf16> to i16 loc(#loc69)
    %208 = llvm.inline_asm has_side_effects asm_dialect = att operand_attrs = [] "@$2 st.global.b16 [ $1 + 0 ], { $0 };", "c,l,b" %207, %203, %0 : (i16, !llvm.ptr<1>, i1) -> !llvm.void loc(#loc69)
    %209 = llvm.insertelement %200, %205[%2 : i32] : vector<1xf16> loc(#loc69)
    %210 = llvm.bitcast %209 : vector<1xf16> to i16 loc(#loc69)
    %211 = llvm.inline_asm has_side_effects asm_dialect = att operand_attrs = [] "@$2 st.global.b16 [ $1 + 0 ], { $0 };", "c,l,b" %210, %204, %0 : (i16, !llvm.ptr<1>, i1) -> !llvm.void loc(#loc69)
    llvm.return loc(#loc70)
  } loc(#loc)
} loc(#loc)
#loc1 = loc(unknown)
#loc2 = loc("2d9pt_naive.py":30:10)
#loc3 = loc("2d9pt_naive.py":31:28)
#loc4 = loc("2d9pt_naive.py":31:26)
#loc5 = loc("/usr/local/lib/python3.8/dist-packages/triton/language/standard.py":44:22)
#loc6 = loc("2d9pt_naive.py":31:31)
#loc7 = loc("/usr/local/lib/python3.8/dist-packages/triton/language/standard.py":44:28)
#loc8 = loc("2d9pt_naive.py":34:19)
#loc9 = loc("2d9pt_naive.py":35:18)
#loc10 = loc("2d9pt_naive.py":39:22)
#loc11 = loc("2d9pt_naive.py":39:50)
#loc12 = loc("2d9pt_naive.py":39:37)
#loc13 = loc("2d9pt_naive.py":40:22)
#loc14 = loc("2d9pt_naive.py":40:37)
#loc15 = loc("2d9pt_naive.py":50:36)
#loc16 = loc("2d9pt_naive.py":50:40)
#loc17 = loc("2d9pt_naive.py":50:56)
#loc18 = loc("2d9pt_naive.py":50:18)
#loc19 = loc("2d9pt_naive.py":51:21)
#loc20 = loc("2d9pt_naive.py":52:22)
#loc21 = loc("2d9pt_naive.py":54:37)
#loc22 = loc("2d9pt_naive.py":54:40)
#loc23 = loc("2d9pt_naive.py":54:44)
#loc24 = loc("2d9pt_naive.py":54:60)
#loc25 = loc("2d9pt_naive.py":54:18)
#loc26 = loc("2d9pt_naive.py":55:21)
#loc27 = loc("2d9pt_naive.py":56:22)
#loc28 = loc("2d9pt_naive.py":58:37)
#loc29 = loc("2d9pt_naive.py":58:40)
#loc30 = loc("2d9pt_naive.py":58:44)
#loc31 = loc("2d9pt_naive.py":58:60)
#loc32 = loc("2d9pt_naive.py":58:18)
#loc33 = loc("2d9pt_naive.py":59:21)
#loc34 = loc("2d9pt_naive.py":60:22)
#loc35 = loc("2d9pt_naive.py":62:37)
#loc36 = loc("2d9pt_naive.py":62:40)
#loc37 = loc("2d9pt_naive.py":62:44)
#loc38 = loc("2d9pt_naive.py":62:60)
#loc39 = loc("2d9pt_naive.py":62:18)
#loc40 = loc("2d9pt_naive.py":63:21)
#loc41 = loc("2d9pt_naive.py":64:22)
#loc42 = loc("2d9pt_naive.py":66:37)
#loc43 = loc("2d9pt_naive.py":66:40)
#loc44 = loc("2d9pt_naive.py":66:44)
#loc45 = loc("2d9pt_naive.py":66:60)
#loc46 = loc("2d9pt_naive.py":66:18)
#loc47 = loc("2d9pt_naive.py":67:21)
#loc48 = loc("2d9pt_naive.py":68:22)
#loc49 = loc("2d9pt_naive.py":71:37)
#loc50 = loc("2d9pt_naive.py":71:40)
#loc51 = loc("2d9pt_naive.py":71:44)
#loc52 = loc("2d9pt_naive.py":71:18)
#loc53 = loc("2d9pt_naive.py":72:21)
#loc54 = loc("2d9pt_naive.py":73:22)
#loc55 = loc("2d9pt_naive.py":75:62)
#loc56 = loc("2d9pt_naive.py":75:18)
#loc57 = loc("2d9pt_naive.py":76:21)
#loc58 = loc("2d9pt_naive.py":77:22)
#loc59 = loc("2d9pt_naive.py":79:62)
#loc60 = loc("2d9pt_naive.py":79:18)
#loc61 = loc("2d9pt_naive.py":80:21)
#loc62 = loc("2d9pt_naive.py":81:22)
#loc63 = loc("2d9pt_naive.py":83:62)
#loc64 = loc("2d9pt_naive.py":83:18)
#loc65 = loc("2d9pt_naive.py":84:21)
#loc66 = loc("2d9pt_naive.py":85:22)
#loc67 = loc("2d9pt_naive.py":87:60)
#loc68 = loc("2d9pt_naive.py":87:18)
#loc69 = loc("2d9pt_naive.py":88:21)
#loc70 = loc("2d9pt_naive.py":88:4)
#loc71 = loc(callsite(#loc5 at #loc6))
#loc72 = loc(callsite(#loc7 at #loc6))


// -----// IR Dump Before LLVMDIScope (enable-line-info) ('builtin.module' operation) //----- //
#loc = loc("2d9pt_naive.py":18:0)
module attributes {"triton_gpu.num-ctas" = 1 : i32, "triton_gpu.num-warps" = 4 : i32, triton_gpu.shared = 0 : i32, triton_gpu.target = "cuda:70", "triton_gpu.threads-per-warp" = 32 : i32} {
  llvm.mlir.global external @global_smem() {addr_space = 3 : i32, alignment = 16 : i64} : !llvm.array<0 x i8> loc(#loc)
  llvm.func @stencil_kernel(%arg0: !llvm.ptr<1> {tt.divisibility = 16 : i32} loc("2d9pt_naive.py":18:0), %arg1: !llvm.ptr<1> {tt.divisibility = 16 : i32} loc("2d9pt_naive.py":18:0), %arg2: i32 loc("2d9pt_naive.py":18:0), %arg3: i32 loc("2d9pt_naive.py":18:0), %arg4: i32 loc("2d9pt_naive.py":18:0)) attributes {noinline = false, nvvm.kernel = 1 : ui1, nvvm.maxntid = array<i32: 128>} {
    %0 = llvm.mlir.constant(true) : i1 loc(#loc1)
    %1 = llvm.mlir.constant(8 : i32) : i32 loc(#loc1)
    %2 = llvm.mlir.constant(0 : i32) : i32 loc(#loc1)
    %3 = llvm.mlir.constant(32 : i32) : i32 loc(#loc1)
    %4 = llvm.mlir.constant(0 : index) : i32 loc(#loc1)
    %5 = llvm.mlir.constant(1 : i32) : i32 loc(#loc1)
    %6 = llvm.mlir.constant(3 : i32) : i32 loc(#loc1)
    %7 = llvm.mlir.constant(4 : i32) : i32 loc(#loc1)
    %8 = llvm.mlir.constant(15 : i32) : i32 loc(#loc1)
    %9 = llvm.mlir.constant(0.000000e+00 : f16) : f16 loc(#loc1)
    %10 = llvm.mlir.constant(16 : i32) : i32 loc(#loc1)
    %11 = llvm.mlir.constant(2 : i32) : i32 loc(#loc1)
    %12 = llvm.inline_asm asm_dialect = att operand_attrs = [] "mov.u32 $0, %ctaid.x;", "=r"  : () -> i32 loc(#loc2)
    %13 = llvm.mul %arg4, %11 : i32 loc(#loc3)
    %14 = llvm.sub %arg2, %13 : i32 loc(#loc4)
    %15 = llvm.add %14, %8 : i32 loc(#loc71)
    %16 = llvm.sdiv %15, %10  : i32 loc(#loc72)
    %17 = llvm.sdiv %12, %16  : i32 loc(#loc8)
    %18 = llvm.srem %12, %16  : i32 loc(#loc9)
    %19 = llvm.mul %17, %10 : i32 loc(#loc10)
    %20 = nvvm.read.ptx.sreg.tid.x : i32 loc(#loc11)
    %21 = llvm.urem %20, %3  : i32 loc(#loc11)
    %22 = llvm.udiv %20, %3  : i32 loc(#loc11)
    %23 = llvm.and %21, %10  : i32 loc(#loc11)
    %24 = llvm.icmp "eq" %23, %2 : i32 loc(#loc11)
    %25 = llvm.select %24, %2, %5 : i1, i32 loc(#loc11)
    %26 = llvm.xor %2, %25  : i32 loc(#loc11)
    %27 = llvm.and %22, %5  : i32 loc(#loc11)
    %28 = llvm.icmp "eq" %27, %2 : i32 loc(#loc11)
    %29 = llvm.select %28, %2, %11 : i1, i32 loc(#loc11)
    %30 = llvm.xor %26, %29  : i32 loc(#loc11)
    %31 = llvm.and %22, %11  : i32 loc(#loc11)
    %32 = llvm.icmp "eq" %31, %2 : i32 loc(#loc11)
    %33 = llvm.select %32, %2, %7 : i1, i32 loc(#loc11)
    %34 = llvm.xor %30, %33  : i32 loc(#loc11)
    %35 = llvm.xor %1, %25  : i32 loc(#loc11)
    %36 = llvm.xor %35, %29  : i32 loc(#loc11)
    %37 = llvm.xor %36, %33  : i32 loc(#loc11)
    %38 = llvm.add %34, %4 : i32 loc(#loc11)
    %39 = llvm.add %37, %4 : i32 loc(#loc11)
    %40 = llvm.and %21, %5  : i32 loc(#loc11)
    %41 = llvm.icmp "eq" %40, %2 : i32 loc(#loc11)
    %42 = llvm.select %41, %2, %5 : i1, i32 loc(#loc11)
    %43 = llvm.xor %2, %42  : i32 loc(#loc11)
    %44 = llvm.and %21, %11  : i32 loc(#loc11)
    %45 = llvm.icmp "eq" %44, %2 : i32 loc(#loc11)
    %46 = llvm.select %45, %2, %11 : i1, i32 loc(#loc11)
    %47 = llvm.xor %43, %46  : i32 loc(#loc11)
    %48 = llvm.and %21, %7  : i32 loc(#loc11)
    %49 = llvm.icmp "eq" %48, %2 : i32 loc(#loc11)
    %50 = llvm.select %49, %2, %7 : i1, i32 loc(#loc11)
    %51 = llvm.xor %47, %50  : i32 loc(#loc11)
    %52 = llvm.and %21, %1  : i32 loc(#loc11)
    %53 = llvm.icmp "eq" %52, %2 : i32 loc(#loc11)
    %54 = llvm.select %53, %2, %1 : i1, i32 loc(#loc11)
    %55 = llvm.xor %51, %54  : i32 loc(#loc11)
    %56 = llvm.add %55, %4 : i32 loc(#loc11)
    %57 = llvm.add %19, %38 : i32 loc(#loc12)
    %58 = llvm.add %19, %39 : i32 loc(#loc12)
    %59 = llvm.mul %18, %10 : i32 loc(#loc13)
    %60 = llvm.add %59, %56 : i32 loc(#loc14)
    %61 = llvm.mul %57, %arg3 : i32 loc(#loc15)
    %62 = llvm.mul %58, %arg3 : i32 loc(#loc15)
    %63 = llvm.add %61, %60 : i32 loc(#loc16)
    %64 = llvm.add %62, %60 : i32 loc(#loc16)
    %65 = llvm.add %63, %arg4 : i32 loc(#loc17)
    %66 = llvm.add %64, %arg4 : i32 loc(#loc17)
    %67 = llvm.getelementptr %arg0[%65] : (!llvm.ptr<1>, i32) -> !llvm.ptr<1>, f16 loc(#loc18)
    %68 = llvm.getelementptr %arg0[%66] : (!llvm.ptr<1>, i32) -> !llvm.ptr<1>, f16 loc(#loc18)
    %69 = llvm.inline_asm has_side_effects asm_dialect = att operand_attrs = [] "mov.u16 $0, 0x0;\0A\09@$2 ld.global.b16 { $0 }, [ $1 + 0 ];", "=c,l,b" %67, %0 : (!llvm.ptr<1>, i1) -> i16 loc(#loc19)
    %70 = llvm.bitcast %69 : i16 to vector<1xf16> loc(#loc19)
    %71 = llvm.extractelement %70[%4 : i32] : vector<1xf16> loc(#loc19)
    %72 = llvm.inline_asm has_side_effects asm_dialect = att operand_attrs = [] "mov.u16 $0, 0x0;\0A\09@$2 ld.global.b16 { $0 }, [ $1 + 0 ];", "=c,l,b" %68, %0 : (!llvm.ptr<1>, i1) -> i16 loc(#loc19)
    %73 = llvm.bitcast %72 : i16 to vector<1xf16> loc(#loc19)
    %74 = llvm.extractelement %73[%4 : i32] : vector<1xf16> loc(#loc19)
    %75 = llvm.fadd %71, %9  : f16 loc(#loc20)
    %76 = llvm.fadd %74, %9  : f16 loc(#loc20)
    %77 = llvm.add %57, %5 : i32 loc(#loc21)
    %78 = llvm.add %58, %5 : i32 loc(#loc21)
    %79 = llvm.mul %77, %arg3 : i32 loc(#loc22)
    %80 = llvm.mul %78, %arg3 : i32 loc(#loc22)
    %81 = llvm.add %79, %60 : i32 loc(#loc23)
    %82 = llvm.add %80, %60 : i32 loc(#loc23)
    %83 = llvm.add %81, %arg4 : i32 loc(#loc24)
    %84 = llvm.add %82, %arg4 : i32 loc(#loc24)
    %85 = llvm.getelementptr %arg0[%83] : (!llvm.ptr<1>, i32) -> !llvm.ptr<1>, f16 loc(#loc25)
    %86 = llvm.getelementptr %arg0[%84] : (!llvm.ptr<1>, i32) -> !llvm.ptr<1>, f16 loc(#loc25)
    %87 = llvm.inline_asm has_side_effects asm_dialect = att operand_attrs = [] "mov.u16 $0, 0x0;\0A\09@$2 ld.global.b16 { $0 }, [ $1 + 0 ];", "=c,l,b" %85, %0 : (!llvm.ptr<1>, i1) -> i16 loc(#loc26)
    %88 = llvm.bitcast %87 : i16 to vector<1xf16> loc(#loc26)
    %89 = llvm.extractelement %88[%4 : i32] : vector<1xf16> loc(#loc26)
    %90 = llvm.inline_asm has_side_effects asm_dialect = att operand_attrs = [] "mov.u16 $0, 0x0;\0A\09@$2 ld.global.b16 { $0 }, [ $1 + 0 ];", "=c,l,b" %86, %0 : (!llvm.ptr<1>, i1) -> i16 loc(#loc26)
    %91 = llvm.bitcast %90 : i16 to vector<1xf16> loc(#loc26)
    %92 = llvm.extractelement %91[%4 : i32] : vector<1xf16> loc(#loc26)
    %93 = llvm.fadd %75, %89  : f16 loc(#loc27)
    %94 = llvm.fadd %76, %92  : f16 loc(#loc27)
    %95 = llvm.add %57, %11 : i32 loc(#loc28)
    %96 = llvm.add %58, %11 : i32 loc(#loc28)
    %97 = llvm.mul %95, %arg3 : i32 loc(#loc29)
    %98 = llvm.mul %96, %arg3 : i32 loc(#loc29)
    %99 = llvm.add %97, %60 : i32 loc(#loc30)
    %100 = llvm.add %98, %60 : i32 loc(#loc30)
    %101 = llvm.add %99, %arg4 : i32 loc(#loc31)
    %102 = llvm.add %100, %arg4 : i32 loc(#loc31)
    %103 = llvm.getelementptr %arg0[%101] : (!llvm.ptr<1>, i32) -> !llvm.ptr<1>, f16 loc(#loc32)
    %104 = llvm.getelementptr %arg0[%102] : (!llvm.ptr<1>, i32) -> !llvm.ptr<1>, f16 loc(#loc32)
    %105 = llvm.inline_asm has_side_effects asm_dialect = att operand_attrs = [] "mov.u16 $0, 0x0;\0A\09@$2 ld.global.b16 { $0 }, [ $1 + 0 ];", "=c,l,b" %103, %0 : (!llvm.ptr<1>, i1) -> i16 loc(#loc33)
    %106 = llvm.bitcast %105 : i16 to vector<1xf16> loc(#loc33)
    %107 = llvm.extractelement %106[%4 : i32] : vector<1xf16> loc(#loc33)
    %108 = llvm.inline_asm has_side_effects asm_dialect = att operand_attrs = [] "mov.u16 $0, 0x0;\0A\09@$2 ld.global.b16 { $0 }, [ $1 + 0 ];", "=c,l,b" %104, %0 : (!llvm.ptr<1>, i1) -> i16 loc(#loc33)
    %109 = llvm.bitcast %108 : i16 to vector<1xf16> loc(#loc33)
    %110 = llvm.extractelement %109[%4 : i32] : vector<1xf16> loc(#loc33)
    %111 = llvm.fadd %93, %107  : f16 loc(#loc34)
    %112 = llvm.fadd %94, %110  : f16 loc(#loc34)
    %113 = llvm.add %57, %6 : i32 loc(#loc35)
    %114 = llvm.add %58, %6 : i32 loc(#loc35)
    %115 = llvm.mul %113, %arg3 : i32 loc(#loc36)
    %116 = llvm.mul %114, %arg3 : i32 loc(#loc36)
    %117 = llvm.add %115, %60 : i32 loc(#loc37)
    %118 = llvm.add %116, %60 : i32 loc(#loc37)
    %119 = llvm.add %117, %arg4 : i32 loc(#loc38)
    %120 = llvm.add %118, %arg4 : i32 loc(#loc38)
    %121 = llvm.getelementptr %arg0[%119] : (!llvm.ptr<1>, i32) -> !llvm.ptr<1>, f16 loc(#loc39)
    %122 = llvm.getelementptr %arg0[%120] : (!llvm.ptr<1>, i32) -> !llvm.ptr<1>, f16 loc(#loc39)
    %123 = llvm.inline_asm has_side_effects asm_dialect = att operand_attrs = [] "mov.u16 $0, 0x0;\0A\09@$2 ld.global.b16 { $0 }, [ $1 + 0 ];", "=c,l,b" %121, %0 : (!llvm.ptr<1>, i1) -> i16 loc(#loc40)
    %124 = llvm.bitcast %123 : i16 to vector<1xf16> loc(#loc40)
    %125 = llvm.extractelement %124[%4 : i32] : vector<1xf16> loc(#loc40)
    %126 = llvm.inline_asm has_side_effects asm_dialect = att operand_attrs = [] "mov.u16 $0, 0x0;\0A\09@$2 ld.global.b16 { $0 }, [ $1 + 0 ];", "=c,l,b" %122, %0 : (!llvm.ptr<1>, i1) -> i16 loc(#loc40)
    %127 = llvm.bitcast %126 : i16 to vector<1xf16> loc(#loc40)
    %128 = llvm.extractelement %127[%4 : i32] : vector<1xf16> loc(#loc40)
    %129 = llvm.fadd %111, %125  : f16 loc(#loc41)
    %130 = llvm.fadd %112, %128  : f16 loc(#loc41)
    %131 = llvm.add %57, %7 : i32 loc(#loc42)
    %132 = llvm.add %58, %7 : i32 loc(#loc42)
    %133 = llvm.mul %131, %arg3 : i32 loc(#loc43)
    %134 = llvm.mul %132, %arg3 : i32 loc(#loc43)
    %135 = llvm.add %133, %60 : i32 loc(#loc44)
    %136 = llvm.add %134, %60 : i32 loc(#loc44)
    %137 = llvm.add %135, %arg4 : i32 loc(#loc45)
    %138 = llvm.add %136, %arg4 : i32 loc(#loc45)
    %139 = llvm.getelementptr %arg0[%137] : (!llvm.ptr<1>, i32) -> !llvm.ptr<1>, f16 loc(#loc46)
    %140 = llvm.getelementptr %arg0[%138] : (!llvm.ptr<1>, i32) -> !llvm.ptr<1>, f16 loc(#loc46)
    %141 = llvm.inline_asm has_side_effects asm_dialect = att operand_attrs = [] "mov.u16 $0, 0x0;\0A\09@$2 ld.global.b16 { $0 }, [ $1 + 0 ];", "=c,l,b" %139, %0 : (!llvm.ptr<1>, i1) -> i16 loc(#loc47)
    %142 = llvm.bitcast %141 : i16 to vector<1xf16> loc(#loc47)
    %143 = llvm.extractelement %142[%4 : i32] : vector<1xf16> loc(#loc47)
    %144 = llvm.inline_asm has_side_effects asm_dialect = att operand_attrs = [] "mov.u16 $0, 0x0;\0A\09@$2 ld.global.b16 { $0 }, [ $1 + 0 ];", "=c,l,b" %140, %0 : (!llvm.ptr<1>, i1) -> i16 loc(#loc47)
    %145 = llvm.bitcast %144 : i16 to vector<1xf16> loc(#loc47)
    %146 = llvm.extractelement %145[%4 : i32] : vector<1xf16> loc(#loc47)
    %147 = llvm.fadd %129, %143  : f16 loc(#loc48)
    %148 = llvm.fadd %130, %146  : f16 loc(#loc48)
    %149 = llvm.add %57, %arg4 : i32 loc(#loc49)
    %150 = llvm.add %58, %arg4 : i32 loc(#loc49)
    %151 = llvm.mul %149, %arg3 : i32 loc(#loc50)
    %152 = llvm.mul %150, %arg3 : i32 loc(#loc50)
    %153 = llvm.add %151, %60 : i32 loc(#loc51)
    %154 = llvm.add %152, %60 : i32 loc(#loc51)
    %155 = llvm.getelementptr %arg0[%153] : (!llvm.ptr<1>, i32) -> !llvm.ptr<1>, f16 loc(#loc52)
    %156 = llvm.getelementptr %arg0[%154] : (!llvm.ptr<1>, i32) -> !llvm.ptr<1>, f16 loc(#loc52)
    %157 = llvm.inline_asm has_side_effects asm_dialect = att operand_attrs = [] "mov.u16 $0, 0x0;\0A\09@$2 ld.global.b16 { $0 }, [ $1 + 0 ];", "=c,l,b" %155, %0 : (!llvm.ptr<1>, i1) -> i16 loc(#loc53)
    %158 = llvm.bitcast %157 : i16 to vector<1xf16> loc(#loc53)
    %159 = llvm.extractelement %158[%4 : i32] : vector<1xf16> loc(#loc53)
    %160 = llvm.inline_asm has_side_effects asm_dialect = att operand_attrs = [] "mov.u16 $0, 0x0;\0A\09@$2 ld.global.b16 { $0 }, [ $1 + 0 ];", "=c,l,b" %156, %0 : (!llvm.ptr<1>, i1) -> i16 loc(#loc53)
    %161 = llvm.bitcast %160 : i16 to vector<1xf16> loc(#loc53)
    %162 = llvm.extractelement %161[%4 : i32] : vector<1xf16> loc(#loc53)
    %163 = llvm.fadd %147, %159  : f16 loc(#loc54)
    %164 = llvm.fadd %148, %162  : f16 loc(#loc54)
    %165 = llvm.add %153, %5 : i32 loc(#loc55)
    %166 = llvm.add %154, %5 : i32 loc(#loc55)
    %167 = llvm.getelementptr %arg0[%165] : (!llvm.ptr<1>, i32) -> !llvm.ptr<1>, f16 loc(#loc56)
    %168 = llvm.getelementptr %arg0[%166] : (!llvm.ptr<1>, i32) -> !llvm.ptr<1>, f16 loc(#loc56)
    %169 = llvm.inline_asm has_side_effects asm_dialect = att operand_attrs = [] "mov.u16 $0, 0x0;\0A\09@$2 ld.global.b16 { $0 }, [ $1 + 0 ];", "=c,l,b" %167, %0 : (!llvm.ptr<1>, i1) -> i16 loc(#loc57)
    %170 = llvm.bitcast %169 : i16 to vector<1xf16> loc(#loc57)
    %171 = llvm.extractelement %170[%4 : i32] : vector<1xf16> loc(#loc57)
    %172 = llvm.inline_asm has_side_effects asm_dialect = att operand_attrs = [] "mov.u16 $0, 0x0;\0A\09@$2 ld.global.b16 { $0 }, [ $1 + 0 ];", "=c,l,b" %168, %0 : (!llvm.ptr<1>, i1) -> i16 loc(#loc57)
    %173 = llvm.bitcast %172 : i16 to vector<1xf16> loc(#loc57)
    %174 = llvm.extractelement %173[%4 : i32] : vector<1xf16> loc(#loc57)
    %175 = llvm.fadd %163, %171  : f16 loc(#loc58)
    %176 = llvm.fadd %164, %174  : f16 loc(#loc58)
    %177 = llvm.add %153, %6 : i32 loc(#loc59)
    %178 = llvm.add %154, %6 : i32 loc(#loc59)
    %179 = llvm.getelementptr %arg0[%177] : (!llvm.ptr<1>, i32) -> !llvm.ptr<1>, f16 loc(#loc60)
    %180 = llvm.getelementptr %arg0[%178] : (!llvm.ptr<1>, i32) -> !llvm.ptr<1>, f16 loc(#loc60)
    %181 = llvm.inline_asm has_side_effects asm_dialect = att operand_attrs = [] "mov.u16 $0, 0x0;\0A\09@$2 ld.global.b16 { $0 }, [ $1 + 0 ];", "=c,l,b" %179, %0 : (!llvm.ptr<1>, i1) -> i16 loc(#loc61)
    %182 = llvm.bitcast %181 : i16 to vector<1xf16> loc(#loc61)
    %183 = llvm.extractelement %182[%4 : i32] : vector<1xf16> loc(#loc61)
    %184 = llvm.inline_asm has_side_effects asm_dialect = att operand_attrs = [] "mov.u16 $0, 0x0;\0A\09@$2 ld.global.b16 { $0 }, [ $1 + 0 ];", "=c,l,b" %180, %0 : (!llvm.ptr<1>, i1) -> i16 loc(#loc61)
    %185 = llvm.bitcast %184 : i16 to vector<1xf16> loc(#loc61)
    %186 = llvm.extractelement %185[%4 : i32] : vector<1xf16> loc(#loc61)
    %187 = llvm.fadd %175, %183  : f16 loc(#loc62)
    %188 = llvm.fadd %176, %186  : f16 loc(#loc62)
    %189 = llvm.add %153, %7 : i32 loc(#loc63)
    %190 = llvm.add %154, %7 : i32 loc(#loc63)
    %191 = llvm.getelementptr %arg0[%189] : (!llvm.ptr<1>, i32) -> !llvm.ptr<1>, f16 loc(#loc64)
    %192 = llvm.getelementptr %arg0[%190] : (!llvm.ptr<1>, i32) -> !llvm.ptr<1>, f16 loc(#loc64)
    %193 = llvm.inline_asm has_side_effects asm_dialect = att operand_attrs = [] "mov.u16 $0, 0x0;\0A\09@$2 ld.global.b16 { $0 }, [ $1 + 0 ];", "=c,l,b" %191, %0 : (!llvm.ptr<1>, i1) -> i16 loc(#loc65)
    %194 = llvm.bitcast %193 : i16 to vector<1xf16> loc(#loc65)
    %195 = llvm.extractelement %194[%4 : i32] : vector<1xf16> loc(#loc65)
    %196 = llvm.inline_asm has_side_effects asm_dialect = att operand_attrs = [] "mov.u16 $0, 0x0;\0A\09@$2 ld.global.b16 { $0 }, [ $1 + 0 ];", "=c,l,b" %192, %0 : (!llvm.ptr<1>, i1) -> i16 loc(#loc65)
    %197 = llvm.bitcast %196 : i16 to vector<1xf16> loc(#loc65)
    %198 = llvm.extractelement %197[%4 : i32] : vector<1xf16> loc(#loc65)
    %199 = llvm.fadd %187, %195  : f16 loc(#loc66)
    %200 = llvm.fadd %188, %198  : f16 loc(#loc66)
    %201 = llvm.add %153, %arg4 : i32 loc(#loc67)
    %202 = llvm.add %154, %arg4 : i32 loc(#loc67)
    %203 = llvm.getelementptr %arg1[%201] : (!llvm.ptr<1>, i32) -> !llvm.ptr<1>, f16 loc(#loc68)
    %204 = llvm.getelementptr %arg1[%202] : (!llvm.ptr<1>, i32) -> !llvm.ptr<1>, f16 loc(#loc68)
    %205 = llvm.mlir.undef : vector<1xf16> loc(#loc69)
    %206 = llvm.insertelement %199, %205[%2 : i32] : vector<1xf16> loc(#loc69)
    %207 = llvm.bitcast %206 : vector<1xf16> to i16 loc(#loc69)
    %208 = llvm.inline_asm has_side_effects asm_dialect = att operand_attrs = [] "@$2 st.global.b16 [ $1 + 0 ], { $0 };", "c,l,b" %207, %203, %0 : (i16, !llvm.ptr<1>, i1) -> !llvm.void loc(#loc69)
    %209 = llvm.insertelement %200, %205[%2 : i32] : vector<1xf16> loc(#loc69)
    %210 = llvm.bitcast %209 : vector<1xf16> to i16 loc(#loc69)
    %211 = llvm.inline_asm has_side_effects asm_dialect = att operand_attrs = [] "@$2 st.global.b16 [ $1 + 0 ], { $0 };", "c,l,b" %210, %204, %0 : (i16, !llvm.ptr<1>, i1) -> !llvm.void loc(#loc69)
    llvm.return loc(#loc70)
  } loc(#loc)
} loc(#loc)
#loc1 = loc(unknown)
#loc2 = loc("2d9pt_naive.py":30:10)
#loc3 = loc("2d9pt_naive.py":31:28)
#loc4 = loc("2d9pt_naive.py":31:26)
#loc5 = loc("/usr/local/lib/python3.8/dist-packages/triton/language/standard.py":44:22)
#loc6 = loc("2d9pt_naive.py":31:31)
#loc7 = loc("/usr/local/lib/python3.8/dist-packages/triton/language/standard.py":44:28)
#loc8 = loc("2d9pt_naive.py":34:19)
#loc9 = loc("2d9pt_naive.py":35:18)
#loc10 = loc("2d9pt_naive.py":39:22)
#loc11 = loc("2d9pt_naive.py":39:50)
#loc12 = loc("2d9pt_naive.py":39:37)
#loc13 = loc("2d9pt_naive.py":40:22)
#loc14 = loc("2d9pt_naive.py":40:37)
#loc15 = loc("2d9pt_naive.py":50:36)
#loc16 = loc("2d9pt_naive.py":50:40)
#loc17 = loc("2d9pt_naive.py":50:56)
#loc18 = loc("2d9pt_naive.py":50:18)
#loc19 = loc("2d9pt_naive.py":51:21)
#loc20 = loc("2d9pt_naive.py":52:22)
#loc21 = loc("2d9pt_naive.py":54:37)
#loc22 = loc("2d9pt_naive.py":54:40)
#loc23 = loc("2d9pt_naive.py":54:44)
#loc24 = loc("2d9pt_naive.py":54:60)
#loc25 = loc("2d9pt_naive.py":54:18)
#loc26 = loc("2d9pt_naive.py":55:21)
#loc27 = loc("2d9pt_naive.py":56:22)
#loc28 = loc("2d9pt_naive.py":58:37)
#loc29 = loc("2d9pt_naive.py":58:40)
#loc30 = loc("2d9pt_naive.py":58:44)
#loc31 = loc("2d9pt_naive.py":58:60)
#loc32 = loc("2d9pt_naive.py":58:18)
#loc33 = loc("2d9pt_naive.py":59:21)
#loc34 = loc("2d9pt_naive.py":60:22)
#loc35 = loc("2d9pt_naive.py":62:37)
#loc36 = loc("2d9pt_naive.py":62:40)
#loc37 = loc("2d9pt_naive.py":62:44)
#loc38 = loc("2d9pt_naive.py":62:60)
#loc39 = loc("2d9pt_naive.py":62:18)
#loc40 = loc("2d9pt_naive.py":63:21)
#loc41 = loc("2d9pt_naive.py":64:22)
#loc42 = loc("2d9pt_naive.py":66:37)
#loc43 = loc("2d9pt_naive.py":66:40)
#loc44 = loc("2d9pt_naive.py":66:44)
#loc45 = loc("2d9pt_naive.py":66:60)
#loc46 = loc("2d9pt_naive.py":66:18)
#loc47 = loc("2d9pt_naive.py":67:21)
#loc48 = loc("2d9pt_naive.py":68:22)
#loc49 = loc("2d9pt_naive.py":71:37)
#loc50 = loc("2d9pt_naive.py":71:40)
#loc51 = loc("2d9pt_naive.py":71:44)
#loc52 = loc("2d9pt_naive.py":71:18)
#loc53 = loc("2d9pt_naive.py":72:21)
#loc54 = loc("2d9pt_naive.py":73:22)
#loc55 = loc("2d9pt_naive.py":75:62)
#loc56 = loc("2d9pt_naive.py":75:18)
#loc57 = loc("2d9pt_naive.py":76:21)
#loc58 = loc("2d9pt_naive.py":77:22)
#loc59 = loc("2d9pt_naive.py":79:62)
#loc60 = loc("2d9pt_naive.py":79:18)
#loc61 = loc("2d9pt_naive.py":80:21)
#loc62 = loc("2d9pt_naive.py":81:22)
#loc63 = loc("2d9pt_naive.py":83:62)
#loc64 = loc("2d9pt_naive.py":83:18)
#loc65 = loc("2d9pt_naive.py":84:21)
#loc66 = loc("2d9pt_naive.py":85:22)
#loc67 = loc("2d9pt_naive.py":87:60)
#loc68 = loc("2d9pt_naive.py":87:18)
#loc69 = loc("2d9pt_naive.py":88:21)
#loc70 = loc("2d9pt_naive.py":88:4)
#loc71 = loc(callsite(#loc5 at #loc6))
#loc72 = loc(callsite(#loc7 at #loc6))


0.008208000101149082
